model_b3.pt (torch, 199311 bytes, 11 tensors)

encoder.0.weight f4 [16, 1, 3, 3]
00000000: bcde 573e 5740 d53d 473b 613e bc05 a9be
00000010: d910 f6bd 9b68 adbe caed 77be 83b3 273d
00000020: 471f 72bd d8b0 25be 4e67 87be f492 a4bd
00000030: 0f44 0e3e 42dd 9f3d de19 8abe c1cf 1abb
00000040: b8f8 2f3e 4483 e7bc e2e3 f4bd 2a58 b8bd
00000050: 6ea9 28bd 5bf5 5dbd 0bbc 72be b7d3 2ebe
00000060: 103f 873d 58d5 1ebe 03a7 923e 4400 c5bd
00000070: c72b 51bd ea98 4a3e 75b7 25bd ee70 4c3b
00000080: f0fb f83d 3078 b53d b724 243e ed4b 8d3e
00000090: 3f71 71be 1106 9f3e 8f42 fb3d 1da2 f3bd
000000a0: b98c 57be 44a5 7d3d df25 bb3e b948 2ebe
000000b0: 9bee 2fbe d887 aabe d2bc 95bc f0f2 ae3e
000000c0: 6997 8fbe ce00 893e d1c4 bfbd 859f a3bc
000000d0: a1fe 263e e7f7 4b3e 5668 83be 8a38 8c3e
000000e0: 6226 00be 3f58 463e 7ff5 75bd 18e2 8f3e
000000f0: 43b0 bdbc 0bec 18be 098e 98be 9b52 30be
00000100: 028f e93c d0fe 93bd 944c 75be f38c d63d
00000110: 5205 9abe 7f0e 40be 6057 a03d fda8 d0bc
00000120: 2345 6d3e 9dc5 753e 2698 c8bd 4bac 283d
00000130: bc48 333e 59af 233e 99b4 b53e 8c47 ca3d
00000140: 180c e5bd ee37 063c 834b 903e 67db 74be
00000150: a880 1ebe 733c c13e c6ac fb3d ee15 83be
00000160: b621 54bd 1268 9b3e a707 a63e 51c2 3dbe
00000170: 2a2e 83be 4d3f e6bd 62c8 1bbd 80ac 18be
00000180: 5081 a53d 0b2e 29bc 552d 6f3e 4d56 d2bd
00000190: 4524 d93d 0d53 b4bd 33bc 8fbe 375d 65be
000001a0: 222a 803e f2c5 91be 0c9a dcbc 7345 2bbe
000001b0: a8e2 c3bd 2d87 c7bd 11ae bbbd dfb6 8f3e
000001c0: 6f0c 5a3e 1eb1 83bc 833b bebd 02fb 6f3e
000001d0: 6728 033e 3a53 82bd 25a3 673e c4d9 cfbb
000001e0: 4c28 863e d1e4 943e c11e 8bbe d2a9 e0bc
000001f0: dd87 933d 2729 bcbe 7dd2 933b 8aab 933e
00000200: 54df a53e 3201 f83d 92a5 f4bd 3642 893e
00000210: 5835 73bd d98a abbe ceaa b5be 6db8 77be
00000220: af70 74be ec40 4ebd 60ed 6dbe 5e71 cf3d
00000230: e3e2 2e3d 4f0f 7cbe 6018 61be e11d 54be
0.2108106 0.104126625 0.21995269 -0.33012187 -0.12014932 -0.3386887 -0.24211803 0.04094268
-0.05911186 -0.16180742 -0.26446003 -0.080358416 0.1389315 0.078058735 -0.2697286 -0.0023622366
0.17184722 -0.028260835 -0.11957528 -0.09001191 -0.041177206 -0.054189067 -0.23704545 -0.1707295
0.06603825 -0.15511072 0.28643045 -0.09619191 -0.05106714 0.19784895 -0.04045816 0.003119524
0.12157428 0.088608146 0.1602963 0.2759699 -0.23578356 0.31059316 0.122685544 -0.11896155
-0.21049775 0.061925188 0.3655233 -0.17019929 -0.17180865 -0.33306766 -0.018278513 0.34169722
-0.28045204 0.26758426 -0.093637116 -0.019973526 0.1630807 0.19918786 -0.2566554 0.27386886
-0.12514642 0.193696 -0.060048576 0.28102183 -0.023155337 -0.14933793 -0.29795864 -0.17219011
0.028510574 -0.07226336 -0.23954993 0.10476103 -0.30082184 -0.1875553 0.078291655 -0.025471205
0.23170905 0.24001165 -0.09794645 0.041179936 0.17508215 0.15984859 0.35489348 0.09876928
-0.11183947 0.008192046 0.2818261 -0.2391182 -0.15478766 0.37741432 0.12288813 -0.2560267
-0.05178996 0.30352837 0.32427713 -0.18531157 -0.25621158 -0.112425424 -0.038032897 -0.14909554
0.08081305 -0.010325919 0.23357137 -0.10270367 0.10602621 -0.08804903 -0.28073272 -0.2239884
0.25032145 -0.28471333 -0.026928924 -0.16725712 -0.095647156 -0.097425796 -0.0916406 0.28069207
0.21293806 -0.016075667 -0.09288695 0.23435596 0.12808381 -0.063635305 0.22620828 -0.0063430984
0.2620262 0.29080823 -0.271719 -0.027424727 0.07203648 -0.36750147 0.004511176 0.2884181
0.32396948 0.12109603 -0.119456425 0.26808327 -0.059377044 -0.3350437 -0.35481876 -0.24191447
-0.2387111 -0.050354883 -0.23235083 0.10129045 0.042696845 -0.24615215 -0.21981955 -0.20714523

encoder.0.bias f4 [16]
00000000: 5599 7fbd aedb 0ebe 026b 91bd 4677 5dbd
00000010: 83c3 133d f086 723e 0a72 843e 1a58 2cbe
00000020: d6d5 293e 31f9 c53e bfb3 763e 36b8 273c
00000030: d3fc 9c3e b8d2 fd3d 701c 103e a8e5 7bbe
-0.06240209 -0.13950989 -0.07100488 -0.054068826 0.036075126 0.23684287 0.25868255 -0.16830483
0.16585478 0.3866668 0.24092005 0.01023679 0.3066164 0.12393707 0.14073348 -0.24599326

encoder.2.weight f4 [32, 16, 3, 3]
00000000: eb78 3e3e eb8f af3d cf6a 2d3e d7a3 c63d
00000010: cd3d 503d d6d4 623d 13aa 333d 9ece f0bc
00000020: 4cae 39bc 609a 63bd 1c11 633c 39e0 77bd
00000030: 5d61 c33d b1e2 0c3d 19ab 573d 626d 143d
00000040: 803c 23bc 65a5 913c b200 92bc 60dd 503d
00000050: afa0 a3bd 7910 063e 2cbe e3bc 148f e8bb
00000060: 574a 82bc 73e3 283d b78a a6bc c634 13be
00000070: 07be 2fbc 8e86 40be f972 08be 93d2 f9bd
00000080: e693 2dbe 653f 8d3d 9083 59bd ae62 ebba
00000090: d445 873b 857c a53d 7e4d 9a3c ee3c c93d
000000a0: de9c 7c3d 99a5 203d 4d1f 2ebd 3271 d9bc
000000b0: 3b20 3ebd a5c3 45bd 013a 813c baa5 49be
000000c0: 52c9 7f3d 7c25 cbba f178 29be 4fd9 ae3d
000000d0: cfba 92bb e00a 1a3c 1e99 993d 09ef 373d
000000e0: 7b41 d63c 0860 d43c b7ae bcbd 9883 e03c
000000f0: 00bb 97bd e15b bdbb 5f8c 16bd a887 683c
00000100: 4016 8c3d 0bb6 983d bca0 203e 5da1 983d
00000110: 8996 1a3d 8d8a 293d eec3 78bd c2ee 423d
00000120: e9fc 70be 0f05 c6b9 0a09 75bd 1647 cbbc
00000130: 08c2 8abd d474 f3bd ca72 d8bd f99a 1e3d
00000140: efe8 e6bc f962 8f3d 455d acbc cb4c babd
00000150: 7239 7dbd de60 c5bd 66ed a7bd cace da3d
00000160: 53e4 70bc 718a febc 3c79 89bd 2e24 87bd
00000170: 6c42 3dbd ae44 03bd 4073 a3bb 4e53 c83d
00000180: 8a34 9fbc 7893 39bd 9de8 413c a0f8 cb3d
00000190: 3a83 15bd 682a 3abc c5c1 bd3d 033e babc
000001a0: ce86 2f3d 39bb 35bd e57a 75bc 833f c8bd
000001b0: 6ae1 47bd 6284 1a3c 021e a2bd f09a 1ebe
000001c0: c6ed 1fbd 7dc2 56be be84 303c d232 0d3d
000001d0: 6219 2e3d 9448 6cbe 4225 d6bc 8d09 653c
000001e0: e7d2 5dbd 060d 4abd ec77 66be 57bc 8c3d
000001f0: 27e1 9e3d de37 0ebe 013d b83d a411 59bc
00000200: 483a 943b be91 c33d 2e41 5b3d d492 53bd
00000210: 510b 153e ba50 973c 3ea2 063e eaf9 e83d
00000220: 4052 a53d edbb 503d ba63 023d ca24 4abd
00000230: 420e 1b3d d898 80bd f3ce 4dbd f5c4 e7bd
00000240: 5da9 8d3d 4513 de3d 379a af3b a91a 9abc
00000250: 67d4 0b3e 63d4 3abd d90e 07bd bdab 313c
00000260: 59c5 29be 185c f13c 58f8 82bd b7db 1dbc
00000270: e091 50bc 891a a73d 06cf e33b 8e89 893d
00000280: c407 b2bb 1381 8cbd e914 a43d 8eb0 6d3d
00000290: 8cd5 a13c 8f39 973d fd83 4abc 431f 4c3c
000002a0: b912 2b3c b443 013e 44a5 bd3d 95c1 f5bd
000002b0: b558 95bd e6c8 b1bd 371b 11be dfb2 f5bd
000002c0: d986 1bbc 73fc 493d 45c4 bdbc f8d8 95bc
000002d0: 1ccd 243d 01a9 383d 2fc2 d8bc 01dc b33d
000002e0: 287c ab3c 275d 2e3d ab0c 4abd eb4b 9ebd
000002f0: aaf9 0abc 8bf2 b1bb 944b 72bc 2926 d4bd
00000300: d648 7f3d 4877 55be 0fe7 9cbd b961 02bc
00000310: ce78 33bd 0c57 043e bffe b43d 8bf9 433d
00000320: afd5 85bd 1db8 c93d 2fd5 3abd df58 03bd
00000330: c495 f2bc a9ea 58bd 0d10 a7bd ff13 8d3d
00000340: ee2f 453a 7d37 f0bb 5fc8 113e 5eb8 a63d
00000350: dbca 61bd d330 3dbc 4178 9d3c e50d 75ba
00000360: 4091 cabd 3729 dc3d f478 9a3d 4914 43bd
00000370: 2bcc 00bd d5ec 863b d79b 1f3c fb41 1e3d
00000380: b5de d83d 3bfd f43c fd0f b0bd 4c66 6d3d
00000390: bd6f 1cbe 80d0 50be b1f7 b5bd 87d8 14bd
000003a0: eb19 87bd 6dc5 4abd c8a0 883c 15e0 b43b
000003b0: 2d37 2a3d d482 c5bc 2080 1fbd 9ab5 7bbd
000003c0: 17fa 973c b59a 2cbb 6c9b 7c3d 5be0 d83d
000003d0: bbd9 e13d 453f 8f3d 45d3 9e3c d0ce 573b
000003e0: 6fc3 6e3d 6747 dd3c bd06 8a3d 8ea1 953b
000003f0: 06e2 14bd bd61 61bd 740b 0cbc 5636 c1bd
0.18600814 0.08572372 0.16935275 0.09699219 0.050840188 0.055378757 0.043863367 -0.029395398
-0.0113330595 -0.055567145 0.01385906 -0.06051657 0.09540055 0.034395877 0.052653406 0.036237128
-0.009963155 0.017779062 -0.017822597 0.05099237 -0.07989632 0.13092221 -0.027800642 -0.0070971344
-0.015904589 0.041232537 -0.020329816 -0.143756 -0.010726458 -0.18801329 -0.13325109 -0.12198367
-0.1695095 0.06896857 -0.053103983 -0.0017958486 0.004128197 0.08080391 0.01883578 0.098260745
0.061673038 0.039220426 -0.04251032 -0.026543234 -0.046417456 -0.048282284 0.015774729 -0.19692126
0.062447853 -0.0015498842 -0.16550042 0.08537542 -0.0044778357 0.009402007 0.07499908 0.044905696
0.02615427 0.025924698 -0.09213012 0.027406499 -0.07408714 -0.005778775 -0.036754962 0.014192499
0.06840181 0.07456597 0.15686315 0.074526526 0.037741218 0.041391898 -0.060733728 0.04759098
-0.23533978 -0.00037769272 -0.059823073 -0.02481417 -0.0677529 -0.118875176 -0.10568769 0.038722012
-0.028187243 0.070012994 -0.021040568 -0.09096678 -0.061822362 -0.096376166 -0.08199577 0.10683973
-0.014702874 -0.031071873 -0.06712577 -0.065986976 -0.046205923 -0.03204792 -0.004988104 0.09781514
-0.019434232 -0.045306653 0.0118352445 0.09959531 -0.0365021 -0.0113626495 0.09265474 -0.022734648
0.04285317 -0.044368003 -0.014982914 -0.09777739 -0.048798956 0.009430977 -0.0791588 -0.15488791
-0.039045118 -0.20972629 0.010773836 0.034472294 0.042504676 -0.23074561 -0.026140813 0.013979328
-0.05415621 -0.049328826 -0.22506684 0.068718605 0.07757788 -0.13888499 0.089960106 -0.013248835
0.004523549 0.095492825 0.053528957 -0.051653698 0.14555098 0.01847111 0.13147828 0.11375792
0.080723286 0.05096047 0.031833388 -0.04935149 0.037855394 -0.06279153 -0.05024619 -0.113168634
0.06917069 0.10843519 0.00535896 -0.01881154 0.13655244 -0.045612704 -0.032973144 0.010844168
-0.16579188 0.029462859 -0.06395024 -0.009634904 -0.012730092 0.08159358 0.0069521694 0.067156896
-0.0054330546 -0.068605565 0.08011801 0.058029704 0.019755147 0.07384025 -0.01236057 0.012458625
0.010441476 0.12623483 0.092600375 -0.119998135 -0.0729231 -0.086808965 -0.14170538 -0.119970076
-0.009492599 0.04931302 -0.023164878 -0.018291935 0.04023467 0.04508305 -0.026459781 0.08782197
0.020933226 0.042569306 -0.049328487 -0.07729324 -0.008482376 -0.0054305247 -0.014788527 -0.10358841
0.06232532 -0.20846283 -0.076612584 -0.007957869 -0.04381638 0.12923831 0.088376515 0.047845405
-0.065348975 0.0984957 -0.045613464 -0.032067176 -0.02961243 -0.052958164 -0.08157358 0.068885796
0.00075220957 -0.0073308335 0.14236592 0.08140634 -0.0551251 -0.011547285 0.01922238 -0.0009348079
-0.098909855 0.107500486 0.07542601 -0.047626767 -0.03144471 0.004117588 0.009741745 0.038637143
0.10589353 0.029905906 -0.085967995 0.057958886 -0.15277 -0.20392036 -0.08885134 -0.03633931
-0.0659674 -0.049504686 0.016678229 0.0055198767 0.041556526 -0.024110235 -0.03894055 -0.061452486
0.01855187 -0.002633733 0.06167166 0.105896674 0.11027857 0.069944896 0.01938785 0.0032929666
0.05829185 0.027011586 0.067395665 0.004566378 -0.036348365 -0.05502485 -0.0085476525 -0.09434192

encoder.2.bias f4 [32]
00000000: c600 63bd 3679 dbbc fc5a 72bd 6540 133d
00000010: 9357 85bc 0634 7eba 2dce c33d a787 1abd
00000020: f8d2 193d d792 82bd 1a2b 90bd dd08 483d
00000030: d8f9 af3c a656 223d 43b8 9ebd 3c1e e23c
00000040: fcd2 403c c248 dabd 904e 843d a104 4abc
00000050: 9611 053d 30e9 923d 7763 0a3e 6a78 093d
00000060: d23c 023c 73de 5f3d 499c a23d 603f 463d
00000070: c12f 7c3d 3675 563c fe75 14bd b246 e5ba
-0.05542066 -0.026791196 -0.0591688 0.035950083 -0.01627711 -0.0009697083 0.09560809 -0.037727024
0.03755471 -0.06375664 -0.07039471 0.048836578 0.02148144 0.039633416 -0.07749989 0.027602307
0.011769053 -0.10658409 0.06460297 -0.012330205 0.032487474 0.07173383 0.13514505 0.0335621
0.007949071 0.054655503 0.07939965 0.048400283 0.06156898 0.013089469 -0.03624534 -0.0017492382

encoder.5.weight f4 [12, 1568]
00000000: 30f4 e1bc 6428 053d 6960 803d 8cd9 ee3b
00000010: 1d04 02bc 0385 3b3d 74f7 233d cfd0 c43c
00000020: c0a6 adbc 709e 723c 97cb 9bbd 6a70 16bd
00000030: cef5 cb3c 7c0c 8dbc 7c6e 083d 1eb5 f1b9
00000040: 47e1 d13c 7961 a13a 216f 1fbc ee21 4b3d
00000050: b4ae 523c 3f19 813c 56f1 06bd 9ba3 d7bc
00000060: 8308 72bd d060 8ebe 6b1e 4abe 2ff3 22bb
00000070: 4d46 803c aa7f 3fbd d950 a3bd 9e0d 0fbe
00000080: 91da 11bd c2e6 113d ec49 27bd bb34 b93c
00000090: 7a61 e0bb ead6 0ebd b15e 62be a43e 1dbe
000000a0: b32b bd3d d858 033c c837 983c 7e44 76bc
000000b0: e6e1 743c 7bd2 d7bc 761a b0bc d124 89bc
000000c0: daf4 3e3c 0636 a73a b0aa d5bb 1bd7 ddb9
000000d0: d4b2 3f3d 1f95 59bd 8a6e 253c 7afe 0a3a
000000e0: d2f8 3e3d 0f60 6bbc 1c3c 6cbc 21ce d7bb
000000f0: a6af 02bd 50e1 bb3c d346 e13a 5d20 1a3c
00000100: ea1b d7bc 2e8a dabc bfb5 84bc a148 3cbd
00000110: 5b4b 073e 3b11 003d dbbf 633b a491 c6bc
00000120: da0f a0bd 3de2 3a3b 7706 95be c310 65be
00000130: fd13 c8bc 01b6 17bb e040 8dbc cb64 15be
00000140: 1c82 f7bc df71 adbc 76be 9d3d a4e6 7fbd
00000150: d3a2 a0bc eb60 17ba 8324 39bd 1e1f 6f3c
00000160: b017 45be fc40 c03d fe9e ca3c d9f0 2c3b
00000170: cc74 0ebc 5eaf 09ba 5013 6f3c 65b2 87bd
00000180: a37e 2b3d f245 8abc 7fe2 69bc 2e51 0d3c
00000190: f8f5 18bd 9ef1 c2bc 9042 d03c 158d 7b3b
000001a0: 44c4 013b 4408 fb3b cb32 b93b 31c1 2cbd
000001b0: 58ee a63d 9228 c13d 0e2d 7d3d a829 f33c
000001c0: dd31 d7bc e73e f1bc 38c9 76bd 5877 f4bd
000001d0: 2707 13be 5ef6 503d 95ce d33c 037b 69bc
000001e0: d3c5 32bd 454a dcbb cb23 f5bc 7afd 4dbd
000001f0: d202 b8bd 33b5 be3b 48ca dbbc 77ea 17bd
00000200: 79b8 b5bd d1e6 613d c9e1 26bd 2ef4 94bd
00000210: 031a 88bc 9bea 5ebc 6adf 20bc ac3e d03d
00000220: c8b9 2e3e b6ed 363e d578 a33b 9e03 92bd
00000230: c1d4 3fbb cdbd faba 8826 d43c 686e 8a3d
00000240: fb9c 273d f667 7c3c 0226 a1bc 58cf a3bb
00000250: 2b17 6d3c eb52 dcbc fcf6 26bd 78b2 f33c
00000260: 7695 703c 6395 fe3b 1f11 fbbc 1fe4 6fbc
00000270: 0147 f1bc 2539 e7bc 9228 643c 5e46 193d
00000280: 38cf 113c e32c b5ba 957a 4bbd aa8b abbd
00000290: fe6b 293d b88b e0bc c433 dc3d c1aa 153d
000002a0: 8e7d b6bc b89b 32bd 772d cdbd fa09 c4bb
000002b0: 1ea1 b2bd 47c7 3bbe 62a8 523c 07d8 1c3c
000002c0: c3b2 343c e9d5 d5bd f3a4 033d 8b52 e2bc
000002d0: cdc9 02bd ba25 94bd 68b5 873c 7286 aa3b
000002e0: d4b7 bb3c 5196 133d 01d6 bbbd 7caa eb3d
000002f0: 1c09 8a3c 74ac 95bc db09 2f3b ddcf 843c
00000300: 64b4 b93c bc58 c6bd 1206 b73b a791 453c
00000310: 678e e9bb 503b 63bc 98bc 7a3b c077 993c
00000320: 476f 073d af56 033a e729 a7bc 9f1e 303b
00000330: b311 70bb fbde 08bc 657a 09bc 1d4a 39bd
00000340: ace4 5e3c aed4 3d3d 8cca d63c 238f 08bc
00000350: bab8 7dbd e412 18be b6aa 8dbe 29dd 15be
00000360: 4bec 363d 51dc 52bc b72d edbc a8b8 c3bd
00000370: a176 e5bd d757 a3be 905c ccbd 90e3 3d3c
00000380: 5e1e f73c 41cf 7dbc cc06 95bc ea84 1dbe
00000390: 4caf 2fbe 9f67 4b3c 987b 25bc eacb 0c3d
000003a0: 00d3 083b e4d8 f23c 41f2 bfbd 7580 11be
000003b0: 5e82 693d 3520 afbb 1161 5c3c e050 773c
000003c0: 9d61 c2bc 5cc3 1ebd 9c62 74bd 7e5e 3bbc
000003d0: e850 7a3c ad83 aebc a156 993b f562 f6bb
000003e0: 55a3 3fbd c5f1 d8bc 4112 f6bb 092d 81bc
000003f0: 4b27 c63b b641 bcba 623f 6dbc a2bf 903b
-0.027582258 0.032509223 0.06268389 0.007289117 -0.007935551 0.045781147 0.04003091 0.024025349
-0.021197677 0.014808282 -0.07607191 -0.0367283 0.024897482 -0.017217867 0.03330849 -0.00046102045
0.025620116 0.0012312374 -0.009731085 0.049592905 0.012859035 0.015759109 -0.032945 -0.02632313
-0.05909015 -0.27808237 -0.19738166 -0.0024864187 0.015658522 -0.04675261 -0.07974405 -0.13970038
-0.03560883 0.03562046 -0.04084198 0.022608152 -0.0068475576 -0.034872927 -0.22106434 -0.15355927
0.092368506 0.0080167875 0.018581286 -0.015030978 0.0149464365 -0.026345482 -0.021496993 -0.016741188
0.011655057 0.0012757189 -0.0065205917 -0.0004231267 0.046801403 -0.05312073 0.010097155 0.0005302202
0.046624012 -0.014366164 -0.014418628 -0.006585852 -0.031905793 0.022934586 0.0017187245 0.00940713
-0.026258428 -0.026677217 -0.016199945 -0.0459677 0.1321234 0.031266432 0.0034751806 -0.024239369
-0.078155234 0.0028516196 -0.29106495 -0.22369675 -0.024423594 -0.0023149254 -0.017242849 -0.1458923
-0.030213408 -0.021172462 0.07702343 -0.062475815 -0.01960889 -0.0005774635 -0.045200836 0.014594821
-0.19247317 0.09387395 0.024734017 0.0026388674 -0.008694839 -0.0005252267 0.014592007 -0.06625823
0.041868817 -0.016879056 -0.014275192 0.008625312 -0.03734395 -0.023796853 0.025422364 0.0038383652
0.0019800821 0.0076608974 0.005651807 -0.04217643 0.08150929 0.09431566 0.061810546 0.02968295
-0.026268894 -0.02944894 -0.06025049 -0.119368255 -0.14358197 0.051016204 0.025855342 -0.01425052
-0.04364569 -0.006722721 -0.029924294 -0.050290562 -0.08984913 0.0058199405 -0.026829854 -0.037088837
-0.08873076 0.055151764 -0.04074267 -0.07273136 -0.016613966 -0.013605739 -0.009818891 0.10168204
0.17063057 0.17864117 0.0049887695 -0.07129596 -0.0029271098 -0.0019130051 0.02589728 0.067593396
0.040921193 0.015405646 -0.019671444 -0.0049990825 0.014470856 -0.026895007 -0.040762886 0.029748186
0.014684072 0.007769273 -0.030647812 -0.014641791 -0.029452803 -0.02822549 0.013925688 0.037420623
0.008899502 -0.0013822581 -0.04967745 -0.08376248 0.041362755 -0.027410373 0.10752061 0.036539797
-0.022276666 -0.043605536 -0.10018437 -0.0059826346 -0.08722137 -0.18337737 0.012857528 0.009572989
0.011028948 -0.10441191 0.03213973 -0.02762725 -0.031930733 -0.07233758 0.016565993 0.0052040154
0.022914805 0.036032025 -0.091716774 0.11507127 0.016850047 -0.018270709 0.0026708755 0.016212398
0.022669025 -0.096848935 0.0055854404 0.012058652 -0.0071275714 -0.013869122 0.0038259383 0.018733859
0.033065107 0.000501017 -0.020405723 0.002687372 -0.0036631643 -0.008353944 -0.008390998 -0.045236696
0.013604324 0.046345405 0.026219629 -0.008334908 -0.061943747 -0.14850956 -0.27669305 -0.14635147
0.04465894 -0.01286991 -0.028952463 -0.09556705 -0.11204267 -0.31902954 -0.099785924 0.0115899
0.030165847 -0.015491308 -0.018191718 -0.15382734 -0.17156714 0.012414842 -0.010100268 0.034374155
0.002087772 0.029644437 -0.09372378 -0.14209159 0.057009093 -0.0053444155 0.013450877 0.015094966
-0.023728186 -0.038760528 -0.059664354 -0.011436103 0.015278079 -0.021303022 0.0046795164 -0.007519121
-0.046786625 -0.026482472 -0.0075095003 -0.015768545 0.0060471646 -0.0014362845 -0.014480444 0.0044173757

encoder.5.bias f4 [12]
00000000: f451 203c 254d 6039 6185 ac3c 1e3d 673c
00000010: 61e7 c83c 931f cebc e978 c03b ee92 8a3c
00000020: 515d 813c 37dc 893c 33b4 e239 18a2 093d
0.009785164 0.00021391043 0.021059694 0.014113693 0.024524393 -0.02516154 0.0058737886 0.016915765
0.015791567 0.01682864 0.00043240338 0.03360185

decoder.0.weight f4 [1568, 12]
00000000: 9e30 c73f 40be 223f b61c 10bf de6c 0340
00000010: ec01 9ebf ee93 5c3f 00f7 6cbf 2038 bb3f
00000020: 91d7 d3bf d9db 0dc0 9993 543f 2adf 5fbf
00000030: ee60 be3f e951 9e3e 2284 8cbe 8c6b e33f
00000040: ed9e 62bf 187a fb3e 4954 0ebf fa31 bc3f
00000050: ee48 b0bf fd2b dabf d4af 4a3f 830f 17bf
00000060: 4c66 313e ab71 6e3b 5abd 79be 6285 343d
00000070: a2e2 2abe 25c6 413b 19d9 123e dc07 a63e
00000080: ba70 bebd d578 e23c 7133 423e 5e79 a43d
00000090: 7ab3 103e 10cd d63d 38e0 ebbd 3206 1dbc
000000a0: 5e8e 26bd 7a79 973e cba7 203e c7fc a03c
000000b0: d8a0 de3d 3d0b 40be f280 dcbd a79d b6bd
000000c0: de2a ac3f 28e0 e53e 0891 e0be 392b d63f
000000d0: 571c 79bf a20e 253f dab4 28bf ee15 aa3f
000000e0: 6cef a5bf 45a9 e5bf 8962 333f 958a 21bf
000000f0: 37cd 353f ba92 803d 8141 92bd 72dd 223f
00000100: 6783 d1be 37fb 3e3e 7d11 89bc a398 403f
00000110: a1ee c9be c988 b8be 0c67 bf3e 66a6 5abe
00000120: d556 c23f 6a14 0e3f 0924 f1be 1119 0240
00000130: a142 8dbf fd06 5a3f bf4f 54bf d673 bc3f
00000140: c751 cfbf 4112 15c0 1b00 383f 1faf 3abf
00000150: 65d2 8e3d 4f4b b9bd 0627 133e 7b62 53bc
00000160: c011 9ebd 7aed bcbb bab6 d33d 73dc 96bd
00000170: b76b 223c 2ff9 4f3c c951 663d 8f09 0bbe
00000180: 262c b23f 3bef 8d3e 0178 4abe 2b3d d03f
00000190: cdd4 5cbf 7e7c 083f 04ad b0be 40e2 a83f
000001a0: 3514 98bf 6e00 dbbf 4cea 193f dd6c 11bf
000001b0: 0e79 f93c 1c8d e03d 15a4 73be 3c79 ecbc
000001c0: 7d0e cc3b 37fe 3cbe 5aeb 133e 3df7 693d
000001d0: 2468 b7bd e360 b03c bcec 623e bec8 363d
000001e0: 316f 593d 31e2 f9bc e8a6 313e af3a 3ebe
000001f0: 4fae 183e e5e6 b33d eca6 363e 7934 ccbc
00000200: ee4d ddbd 0882 69bd 77af c53d a805 8dbc
00000210: 8158 48bd f208 0ebe 3170 ea3d 141b 35be
00000220: 2874 e53d 54b4 e7bd 174f 283e 3a9d 5d3e
00000230: 42b7 163d 0b20 823e 8f98 a23d 0d82 4c3e
00000240: 5202 bb3f 0f97 fc3e 7f22 d7be 5fad ed3f
00000250: eab4 89bf 45d1 353f aef7 40bf 98fd b43f
00000260: de27 b6bf dbf0 ffbf 5309 393f e423 38bf
00000270: 3702 093d 648b 58bd cdb6 5d3e 17b3 1cbd
00000280: 7242 b53d f5a4 2abe cd2d 3b3e 83ff 463d
00000290: 1a8b dd3c a9ea 27be 8933 36be 0223 093e
000002a0: 399a 313d a99d 3ebe 5f27 3a3e 2ba9 aabd
000002b0: 108c 03bc 8332 09be dbb2 703e eaa3 d43b
000002c0: 96f4 c43d 3c9c 9d3d 8cd1 0bbe e1c5 8fbc
000002d0: e1d7 ca3f a2b3 023f ac2e bdbe eb26 0640
000002e0: 1cbc 90bf 0bc1 443f 25a6 54bf abc2 c13f
000002f0: 75bf cebf 2642 18c0 0fbc 3c3f 6886 47bf
00000300: a419 ad3f 0187 003f 80d8 f2be be78 dc3f
00000310: 9c1f 7fbf 122b 303f 740d 26bf 5de2 9d3f
00000320: 7dd3 b5bf 7129 ecbf 4296 353f 3c00 37bf
00000330: 7806 59be 68f1 54be 81fe c43d e3dd d9bd
00000340: edee 8e3d 4b18 693e 729c 1dbe e16e 8dbd
00000350: 2ee4 893e 3cb0 a5be d552 2bbe 2316 873e
00000360: 0341 bdbd 4af5 a43d e137 963d 8e09 22bd
00000370: 7cd2 1fbe 01ce 0ebe 5a0c 873d 6eb9 a63c
00000380: a092 1c3d 897a b33e e83e 2d3e 0e8c 253e
00000390: f940 ca3f e788 103f 386a f1be b40f 0640
000003a0: 51ea 96bf 8178 533f 2c2e 57bf cbac c03f
000003b0: e627 d1bf 3d99 13c0 53ad 473f 435d 4ebf
000003c0: a78a b3bd 65df 88bc 7fa6 dbbd 3fdc 47bd
000003d0: f713 24bd 77a7 4ebe f816 923b 9844 acbb
000003e0: 141a 923e f505 1dbc 7c29 3cbd d2f1 363e
000003f0: 47f8 c5bd 16d2 4ebd 7f74 47bd 82e3 9b3e
1.5561712 0.6357155 -0.5629381 2.0535197 -1.2344337 0.8616322 -0.9256439 1.4626503
-1.6550161 -2.2165434 0.83037716 -0.87449896 1.487333 0.30921867 -0.2744456 1.7767196
-0.8852375 0.49116588 -0.5559736 1.4702752 -1.3772256 -1.7044674 0.7917454 -0.59008044
0.1732418 0.003638367 -0.24388638 0.044072516 -0.16688016 0.0029567566 0.14340629 0.3242787
-0.09298845 0.027645508 0.18964936 0.080309615 0.14130965 0.10488331 -0.11517376 -0.009583997
-0.040663116 0.29584867 0.15689008 0.019651784 0.10870522 -0.18754287 -0.10766782 -0.089167885
1.3450582 0.4489758 -0.4386065 1.673194 -0.9730887 0.6447545 -0.6590096 1.3287942
-1.2963691 -1.7942282 0.7007223 -0.63102084 0.7101626 0.06277986 -0.071414 0.6361915
-0.40920565 0.18650518 -0.016731972 0.75232905 -0.39439872 -0.3604186 0.37383306 -0.21352538
1.5182749 0.554999 -0.47097805 2.03278 -1.1035959 0.85166913 -0.8293418 1.472285
-1.6196831 -2.3292391 0.7187516 -0.72923464 0.06973723 -0.09047567 0.14370355 -0.012901898
-0.07718229 -0.005765614 0.10337587 -0.07366266 0.0099133765 0.012693687 0.05623034 -0.13577865
1.3919723 0.2772158 -0.1977234 1.6268667 -0.8626221 0.5331496 -0.34507 1.3194046
-1.1881167 -1.7109506 0.60123134 -0.5680674 0.030453231 0.109644145 -0.23793061 -0.028866403
0.006227313 -0.1845635 0.14445248 0.05712055 -0.0895541 0.021530574 0.2216062 0.044625036
0.053084556 -0.030503364 0.17348826 -0.18577074 0.14910243 0.08784274 0.17837113 -0.024927365
-0.108058795 -0.057008773 0.09652608 -0.017214611 -0.04891253 -0.138706 0.1144718 -0.1768611
0.11203796 -0.11313692 0.1643642 0.21642008 0.036795862 0.25415072 0.079392545 0.19971485
1.4610083 0.49334 -0.42018506 1.8568534 -1.0758336 0.71022445 -0.7537793 1.4139891
-1.4230917 -1.9995378 0.7227985 -0.71929765 0.033449378 -0.05286731 0.21651764 -0.03825673
0.08850564 -0.16664489 0.1827919 0.04858352 0.027043868 -0.1639811 -0.17793097 0.1339226
0.04335997 -0.1861483 0.18179081 -0.083330475 -0.008028999 -0.13398175 0.23505728 0.0064892666
0.096169636 0.07695815 -0.13654155 -0.01755041 1.5847131 0.5105535 -0.3694967 2.0961254
-1.1307406 0.7685706 -0.83066016 1.5137533 -1.6152178 -2.3790374 0.73724455 -0.7793946
1.352345 0.50206 -0.474308 1.7224348 -0.9965761 0.6881572 -0.6486428 1.2334706
-1.4205166 -1.8450147 0.709324 -0.7148473 -0.21193874 -0.20795214 0.09618855 -0.10638025
0.06979165 0.22763173 -0.1539171 -0.06905914 0.269319 -0.3236102 -0.16730817 0.26384076
-0.092409156 0.08054598 0.07334877 -0.039559893 -0.15607637 -0.13945772 0.06594153 0.020352092
0.03822577 0.35054424 0.16918528 0.16166708 1.5801078 0.56458896 -0.4715135 2.0947084
-1.1790258 0.8260575 -0.8405483 1.5052732 -1.6340301 -2.306228 0.77998847 -0.80611056
-0.0876668 -0.016708085 -0.10725116 -0.048794027 -0.040058102 -0.2018107 0.0044583045 -0.0052572004
0.2853552 -0.00958394 -0.045938 0.17865685 -0.09666496 -0.050493322 -0.048695084 0.30447012

decoder.0.bias f4 [1568]
00000000: e635 1abe 68f1 8abc f7ab dc3d efcc b0bd
00000010: 160f 4ebe 0043 61be 3ed4 28bd 69a9 233e
00000020: c269 823e f6aa 92be e47e 28be 825b e2bd
00000030: c072 e93c 8df1 88bd d812 923e 9347 16be
00000040: 194b 123e 9cae e0bc 13ce 933d d9f0 bd3d
00000050: 433d 643d 29e0 463e 1edd 79be 601e 92be
00000060: 43af 0b3e 292e 83bd 60cf 0dbd 96ac efbd
00000070: 9e1b fe3d 34d7 a63d 6f20 553e cc2d 98bd
00000080: 9dd9 883b 7f5e 9e3d 8f3c 503e 0825 b4bc
00000090: 5d28 a2ba 12bf d93e 4ca8 6a3e bc89 7abc
000000a0: ee81 7ebd f7cb 51be c255 64be 136e abbe
000000b0: 7996 3abe fd52 1b3e 8155 513e f2df ff3d
000000c0: e928 90be d5b3 fabd 05f7 973e 5c2f c73e
000000d0: 11b2 303e 52d2 8bbd 7b5e 953e 7fe8 623e
000000e0: d00c 313e 991a c83e a85e 14bd 04f1 8b3d
000000f0: cbdd 08be da68 5dbe 3205 92bc d824 f23c
00000100: abea 60bd 8b02 6d3e 9b4b 04be c558 34bc
00000110: c738 123c 0c0d 963e 34f3 363e 94f5 263e
00000120: d91c cabd e929 2cbe 1805 903d 37b6 1ebe
00000130: 826d 983e a908 96bd 846d 653e e817 37bd
00000140: 6355 08bd e70e 7fbd b098 cebc 3cd9 103d
00000150: 8a2c 893e 08e8 1e3e e9e8 3a3e 7a38 febc
00000160: be0f c63c 59bc d4be 02e1 413e 569e 64be
00000170: cfb8 45be c875 acbd 0944 94be f4e8 0a3e
00000180: 3f66 aabe 057c 99be bf28 f83c f93b 6fbe
00000190: a6a6 91bd bd39 8bbc 5494 923e 710b 7dbe
000001a0: 0937 c53e 1a7a 8a3d b462 623d ef62 d3ba
000001b0: b309 d23d 8987 1c3d cd5c 2bbe befa 6ebe
000001c0: 68b9 80be 2ccf d83e dbfc b0bd fcac c53d
000001d0: c609 2fbe ef13 5bbe 067a 973b 8887 9ebe
000001e0: adb1 39be 29fc ab3e 7296 aebd 1b93 943d
000001f0: fedf 323e 15ad 6a3e 2f64 e4bd ec40 ca3e
00000200: 877a 9f3e 0679 163e e099 183d 6dcb 483e
00000210: f713 2ebe bec3 eb3d a665 cb3d c1a4 e5bc
00000220: b3f2 033d 2c43 85bd c73a 3e3e c36a 2fbe
00000230: 23c5 8fbe 149c 58be 987d 5e3d cc6d 65be
00000240: 3d55 4a3e 2312 743e c27c 2cbe 1994 36be
00000250: e8c1 513e 03ae 9a3d eecb b13e ddf7 503b
00000260: ee9b 293e 17ae 8e3d 3495 7a3e 3e6c 9cbe
00000270: 10e3 033d eb93 9cbc dce1 133e 12d6 05be
00000280: a5cc 6d3e 9181 9cb8 8508 64be 9791 563e
00000290: 2e4d 543d ac0c 98be 32f3 dbbd abc1 843e
000002a0: 89bc 913d 40a3 1a3e 6eca 153e 098a 3bbe
000002b0: 851c 6dbe dd90 84bd feec 94be 3d12 28be
000002c0: 6a62 b4be 8668 a1bd c385 6a3e add1 94be
000002d0: 9008 68be b8ab a1be 7371 a73e 6d5a 2a3c
000002e0: 1f32 bfbc ac9f 2f3e 4cb7 4e3d 256b bdbb
000002f0: abaf 94bd 11d1 8f3e a5f9 293e e777 9a3d
00000300: 6b8f a2be 3352 60be af0d 413e 3c6e b33e
00000310: 60f1 7dbe e551 8e3d 45c5 73be 5c5e ccbe
00000320: 03d4 bcbc bc80 0d3d c03a 1dbe 213c dabc
00000330: aa05 033e 7e8d 3dbe 4960 7a3d d61b 6bbe
00000340: e9f0 90bd 7aa7 00be 15ec 2cbd 50cc 92be
00000350: 1b71 dd3b a962 063e de67 e6bd 6b77 9abe
00000360: e9ef 7a3e 642b 483e 001e 263e 0f5b d53c
00000370: 2ed4 c33d 58af 9cbd 9d41 c3bd 5555 dabd
00000380: d226 b8be 4942 8c3d fe43 1f3e 4b36 3dbe
00000390: be27 32be 28fd 18be f9f6 973c 1c4e 67be
000003a0: 9b39 72bd 148e c5bc bcee 57be efd3 f6bd
000003b0: 1a6e 793e 6303 863e d01e bfbd c9ee 323e
000003c0: 3be2 a8bc afce b83e 73c2 743e 6bc5 1b3e
000003d0: a448 acbd 06f3 4a3e 3848 21be 696d 493e
000003e0: d1e7 c63e 3097 c93d bf53 8d3e ffda 243f
000003f0: d798 75be 128e 4cbe 8531 423e 5279 47be
-0.15059623 -0.016960815 0.10774987 -0.08632838 -0.20122942 -0.21998215 -0.041218035 0.15982594
0.25471312 -0.28646058 -0.16454655 -0.1105261 0.0284971 -0.06686697 0.28530002 -0.14675741
0.1428646 -0.02742701 0.0721704 0.09274454 0.055722486 0.19421448 -0.24400756 -0.285388
0.13641076 -0.06405289 -0.034621596 -0.1170284 0.12407611 0.081465155 0.20813154 -0.0743061
0.004176332 0.077328674 0.20335601 -0.021990314 -0.0012371648 0.42528588 0.22915763 -0.0152916275
-0.06213563 -0.20487963 -0.22298339 -0.33482417 -0.18221463 0.15168376 0.20442773 0.12493886
-0.28156212 -0.122413315 0.29680648 0.3890332 0.17255427 -0.06827225 0.29173645 0.22159003
0.17290044 0.39082792 -0.036223084 0.068330795 -0.13365857 -0.21622029 -0.017824743 0.029558584
-0.054911297 0.23145501 -0.12919466 -0.011007492 0.00892467 0.2930683 0.17866212 0.16304618
-0.098687835 -0.16812862 0.070322216 -0.15499197 0.29771048 -0.073258705 0.22405058 -0.044700533
-0.033284556 -0.06227007 -0.025219291 0.03536342 0.26791793 0.155182 0.1825291 -0.03103279
0.024177428 -0.41549948 0.1893349 -0.22326025 -0.1930878 -0.084209025 -0.28958157 0.13565427
-0.33281133 -0.29977432 0.030292867 -0.23362722 -0.07111864 -0.016995305 0.2862879 -0.24711396
0.3851855 0.0676157 0.055269912 -0.0016127507 0.10255756 0.038215194 -0.1673462 -0.23337838
-0.25141454 0.4234556 -0.08641978 0.09652135 -0.17093572 -0.21394323 0.0046227006 -0.30962777
-0.18134184 0.3359082 -0.08524789 0.07254621 0.17468259 0.22917588 -0.11151921 0.39502656
0.31148168 0.14694604 0.03725612 0.19608851 -0.16999803 0.11511944 0.09931497 -0.028032662
0.032213878 -0.06506953 0.1857711 -0.1713057 -0.2808009 -0.21153289 0.054318994 -0.22405165
0.19759078 0.23835044 -0.16844466 -0.17829932 0.20484126 0.07552721 0.34725899 0.003188602
0.16563389 0.06966799 0.24470979 -0.30551332 0.032198966 -0.019113502 0.14441627 -0.13069943
0.23222597 -7.462793e-05 -0.22268875 0.20953976 0.051831417 -0.29697168 -0.10739745 0.25929007
0.07116038 0.15101337 0.14628002 -0.18314375 -0.2315541 -0.06472943 -0.2908706 -0.16413207
-0.35231334 -0.078812644 0.22902589 -0.2906622 -0.22659516 -0.31576324 0.32703742 0.010397536
-0.02333933 0.17150754 0.050467774 -0.005780595 -0.072600685 0.28089193 0.16599138 0.07542401
-0.31750044 -0.21906357 0.18852876 0.3504504 -0.24799109 0.06949214 -0.23805721 -0.3991574
-0.023050314 0.0345466 -0.15354443 -0.02664 0.1279513 -0.18511006 0.06112698 -0.22959837
-0.070772 -0.12563887 -0.042217333 -0.28671503 0.006757868 0.13123573 -0.1125028 -0.30169234
0.24505581 0.19547802 0.16222382 0.026044397 0.095619544 -0.07650632 -0.09533999 -0.10660807
-0.35967118 0.068485804 0.1555328 -0.18477742 -0.17397973 -0.14940321 0.018550383 -0.2258839
-0.059136968 -0.0241156 -0.21087164 -0.12052142 0.24358407 0.2617446 -0.09332049 0.17473902
-0.020615688 0.36095187 0.23902301 0.15212028 -0.084122926 0.19819269 -0.15750206 0.19670643
0.38848737 0.0984329 0.27602956 0.6439666 -0.23984085 -0.1997607 0.18964203 -0.19479874

decoder.3.weight f4 [32, 16, 3, 3]
00000000: 3fdd 24bd 6070 edbd a405 c2bc 086c 8fbc
00000010: 165b bb3d dd8b 72bb 1925 44ba 86ee 52bc
00000020: 24f5 ebbc 63d0 76bd d63c 253d b0a4 59bd
00000030: de0b e6bd f2e7 8d3c 1295 9ebc 95f2 ef3c
00000040: 45fe 9ebc 243f 54bd ac32 bd3b 848d 1abd
00000050: f422 193c b1f0 443d 464a 0fbe 3cfc 6cbd
00000060: 42b8 653c 07dc e0bc 00bb 83bc 8ffa 95bb
00000070: ff58 9fbb 3904 c93c 9bdb 92bc ba50 e0bc
00000080: 949d 343d 3752 b8bc 59a8 953b 3a19 463d
00000090: 544e 89bd 74fe 4cbb d809 99bd 8d81 143e
000000a0: a884 40bd fe5e a0bd ed2c 35bd 0ff4 00bc
000000b0: dea8 3a3d d0fa d13c ada8 163e fe83 9dbd
000000c0: 8d63 e13d d909 f93b 42b0 b3bc 8d1e aebc
000000d0: 3581 2ebe 0800 9b3d c627 c6bc 9a62 a13c
000000e0: 8e66 b73c 9ced cd3c a6e5 a43c d407 613d
000000f0: e477 c93a 6b41 c13c 25b4 0c3d e139 38bd
00000100: 2a65 8bbc df3c e33c 3cd5 173d a14e 0dbd
00000110: 52b9 5d3c 6295 2abd f567 e9bc 4622 893c
00000120: a44e a3bd 27fc 6ebd 5796 91bd 214a 303d
00000130: 1831 a1bd 9c7e 313d 52e3 afbd 57e2 65bb
00000140: b74b 1ebd f228 7c3e 9169 6d3c bf03 7ebe
00000150: a4f9 55bc 85e7 dcbc 7cc8 f6bc 84f1 a63d
00000160: fa90 723c 3f5c 1d3d 605a 203d 155a 813d
00000170: 5c70 3abc fe24 023e 7f85 873d 3fc2 23be
00000180: 2493 693d e950 633d 60d1 f2bd 7832 98bc
00000190: 2b12 2fbd 52f0 fb3c 4e1a a4bc 4e6e 48bd
000001a0: 0697 c03c 2932 61bd c946 acbc e5cb 803d
000001b0: 05e4 b6bd 5a8a 0abd b1e5 21bb 6a7f eebc
000001c0: 844c 8ebc 4793 d33c 75ae d93b b759 bd3b
000001d0: 2c06 07bc da25 1c3e 32e1 e13d 7809 9cbd
000001e0: a2c1 333d 98cf d63d 6b2c 99bd e869 d53d
000001f0: 2717 67bc d08a 80bd 2ccd 033c a626 9e3d
00000200: f791 39bd 2f47 fabb 9416 c03d 31b5 983b
00000210: 2ce3 4abd 3d58 473d 666a 3bbc 04fe 56bd
00000220: cf15 87bd a9c5 75bd cd49 553e 4291 143e
00000230: 3f62 bebd 73e6 6dbc 03b5 6a3c f60f 21bd
00000240: 4462 303c 0569 61bd 4d03 963d 0bb2 da3c
00000250: 1a64 553d abe6 55bd 15f2 2d3d d753 02be
00000260: 3d93 63bd 12ec 46bc 6384 5abe 8535 d8bc
00000270: a193 39be 89f2 b83d c8d8 2fbd 2a7d 8ebc
00000280: f5e5 3fbe 5a47 963a 3bc8 8bbd 657c 88be
00000290: eba3 973b ae0e cd3d cf5e 0ebe 228c 46be
000002a0: 860d b53b bc6f 6dbd 2bba 8ebb 2852 f33b
000002b0: 58a0 8e3c ab33 68bc 172e bbbc cb61 adbc
000002c0: 5474 f93b c715 42bd 8893 423c 833c 683d
000002d0: df35 19bd 4309 203c 1808 ecbc 21cf 4f3d
000002e0: 5f2c cfbd 3609 f0bd f606 3bbd 3dcc a73c
000002f0: f466 5c3c 412a 323c 7dc8 313d 19b6 14be
00000300: 5972 62bd a39b a93c 0a98 81bc cd07 b13d
00000310: 61bf cb3d 2652 84bc e038 ec3c 4fc5 de3b
00000320: 2398 afbc aacf 2c3d 5bb7 753a fe6b 9eba
00000330: 9645 443d f72a c5bb 6d97 393d 7b3c babd
00000340: 2d62 07bd 4525 b93d 38b4 9ebc 2ba8 39bd
00000350: 3b93 afbc 76c5 87bd cf21 b4bc 552b 93bb
00000360: ed76 37bd 5a44 14bd fe45 ea3c 3d80 43bd
00000370: 1da0 d5bd 0ed5 60bc d10a 2fbd 00c9 193c
00000380: ec55 ad3c a096 023e 9ffd 693c 5ad7 94be
00000390: e68e 9e3c 1125 47bd 203d ae3a a8ee 2bbd
000003a0: 4f21 013d 9d6a 19bd f120 973d 316d 8b3d
000003b0: 188f 5ebd 6680 6abb ab0a 943d dabb 21be
000003c0: 0cbe d23c 2c6d 2abc 078d f5bb fe93 a8bd
000003d0: a6c4 77bc 7291 b63d f8c6 3abe 1d89 c8bc
000003e0: caa8 0e3d c609 f8bd 8987 94bc debe b83c
000003f0: 6c64 a73c 5b2c 633c 8903 193d 7907 8dbd
-0.04025006 -0.115936995 -0.02368433 -0.017507568 0.09148233 -0.0037009635 -0.00074823346 -0.012874251
-0.028803416 -0.060257327 0.04034122 -0.053135574 -0.11232732 0.017322514 -0.019358192 0.029290477
-0.019408355 -0.051818028 0.005773863 -0.037732616 0.009346712 0.048081104 -0.13993177 -0.057857737
0.014020981 -0.027448667 -0.01608038 -0.004576988 -0.004862904 0.024538146 -0.017926982 -0.027382243
0.04409559 -0.02250014 0.0045671877 0.0483639 -0.06704393 -0.0031279596 -0.07472581 0.14502545
-0.04700151 -0.07830618 -0.044232298 -0.007870688 0.0455712 0.025632292 0.14712782 -0.07691191
0.11005316 0.007600051 -0.021934632 -0.021254802 -0.17041476 0.07568365 -0.024188887 0.019700337
0.02238777 0.025137715 0.020129036 0.054939106 0.0015370813 0.023590764 0.034351487 -0.044977073
-0.017016012 0.027738987 0.03706859 -0.034498814 0.013532953 -0.04164637 -0.028491953 0.016739976
-0.07973984 -0.05834594 -0.07108753 0.043039445 -0.07870692 0.043333635 -0.0858828 -0.0035077536
-0.038646426 0.24624994 0.014490501 -0.24806117 -0.013060007 -0.026965866 -0.030124895 0.08151534
0.014805073 0.03841805 0.03914869 0.0631601 -0.011379328 0.12709424 0.06617259 -0.15992068
0.05702509 0.055497084 -0.11856341 -0.018578753 -0.042741936 0.030754242 -0.020032074 -0.04893332
0.023509514 -0.054979477 -0.021029847 0.0628889 -0.0893021 -0.03382335 -0.0024703557 -0.02911349
-0.01737047 0.025827063 0.0066431114 0.005778517 -0.008241218 0.15248814 0.11029281 -0.076189935
0.043885835 0.10488814 -0.07479175 0.10420591 -0.014104641 -0.062764764 0.008044522 0.07722215
-0.04530522 -0.0076378803 0.093793064 0.0046602716 -0.049533054 0.048668135 -0.011438942 -0.052488342
-0.065959565 -0.060002957 0.20828934 0.14508536 -0.09296083 -0.014520275 0.014325383 -0.039321862
0.010765616 -0.055031795 0.07324848 0.026696226 0.052097417 -0.052221935 0.042467196 -0.12727295
-0.05556034 -0.0121412445 -0.21339564 -0.026392708 -0.18122722 0.09030635 -0.042931348 -0.017393667
-0.18740065 0.0011465356 -0.068253 -0.26657405 0.004627695 0.100125656 -0.13903354 -0.19389394
0.0055252938 -0.057967886 -0.004355689 0.0074255653 0.017410442 -0.014172475 -0.022849126 -0.021164795
0.0076127443 -0.04738405 0.0118759945 0.056698333 -0.03740489 0.009767833 -0.028812453 0.050734643
-0.10115885 -0.11720507 -0.045660935 0.02048313 0.01345228 0.010874332 0.04340409 -0.1452259
-0.05528483 0.020704096 -0.015819568 0.08644066 0.09948612 -0.016152453 0.028835714 0.0067984234
-0.02143485 0.04219023 0.00093733304 -0.0012086628 0.047917925 -0.0060170847 0.045310427 -0.09093567
-0.033052612 0.09040312 -0.019373044 -0.045326393 -0.02143251 -0.066294596 -0.021988777 -0.0044912496
-0.04479115 -0.036197998 0.028597828 -0.04772972 -0.1043093 -0.013722671 -0.042734925 0.009386301
0.021159135 0.12752771 0.014281659 -0.2907055 0.019355249 -0.048619334 0.0013293363 -0.041975647
0.031525906 -0.03745519 0.0737933 0.06807936 -0.054335684 -0.0035782098 0.07228597 -0.15794316
0.025725387 -0.010402005 -0.0074936184 -0.08231352 -0.015122568 0.0891446 -0.18239963 -0.024479443
0.03482894 -0.12111239 -0.018131034 0.02255195 0.020433627 0.013865556 0.037356887 -0.06886191

decoder.3.bias f4 [16]
00000000: 4720 8a3e fa5a b23d d1df 213e 80fc d93d
00000010: df2c 483e 4b83 c23e 470f a83e 9c1e c53e
00000020: d65f 9fbd 270b c23e 3851 0f3e 90f0 013e
00000030: be06 b03e c94b 2a3e 977e 7abc 4412 9f3d
0.2697775 0.08708759 0.15808035 0.10643864 0.19548367 0.37990794 0.32824156 0.38499916
-0.07781951 0.37899134 0.13995826 0.12689424 0.34380144 0.16630472 -0.01528897 0.07767156

decoder.5.weight f4 [16, 1, 3, 3]
00000000: 6231 6cbe 5db6 b7be 4ee8 73be 0a93 58be
00000010: 14db 99be 9773 76be b2c4 e8bd 0756 52be
00000020: 2293 64bc b1cb a6be ceac afbe 27b1 c3bc
00000030: 4c0a d9be 6b3a 87be a7b8 0d3e bfa2 21be
00000040: e243 2c3d b767 2c3e 241a 143d 86ca 55be
00000050: 3acf 93be bb24 a7bd 67d9 d9be 1505 d7be
00000060: 48e8 60be e66f 06bf 1ada b4be d24f 523d
00000070: d567 003e e454 f3bd 587a 9dbe a2f0 ef3d
00000080: 83d3 043e 7df1 67be fd48 23bb 5fc0 d03c
00000090: 3e85 ebbe 57bf b3be cc3f 0a3d 024e 06bf
000000a0: de0e 5c3c 9c23 e63e 50bf fbbd 5f6f c33e
000000b0: 58df e63e ac4f 60be d538 b4be 4a49 82be
000000c0: 150d c9be 933c 1ebf 96e7 b7be e0f8 7bbe
000000d0: 325e a0be 2f7b 3abe dc6a 60bd 7b8b 4abe
000000e0: e3e6 2ebe b80a 5f3b 6959 b4be cdcc 92be
000000f0: 16a2 08bd 92fc 1dbe 88b4 983d bfd0 6ebc
00000100: 88ea 763c ef4c 0d3e b234 4bbe 23ee 7bbe
00000110: 9207 d03d 9870 74be 88e9 a0be 0f78 b6bd
00000120: b0d1 1abe c473 d03b 73e1 8cbe 3967 553e
00000130: 4349 933e 30ed e5bb 4be1 8f3e 8d98 903e
00000140: 64a8 1e3e 33a6 29be 03a6 90be e3c4 3ebe
00000150: 3f40 9cbe ac9e d3be eb8f e4bd 68e5 35be
00000160: 4d12 20be 16be babc aa23 55bd 5682 2fbe
00000170: 54f4 20be 7d92 85be 5dfc efbe 5a0a a9be
00000180: a50e 6bbe 9a5b bdbe 7906 5bbe c02b f43d
00000190: 58d1 82bd 6b0f 9abe 6285 783e fe03 d1bc
000001a0: d4c7 c2be 22d9 1b3e 26c2 2e3d 5f17 4dbe
000001b0: e275 04be 3737 e83c 804e 053e d3a6 28bd
000001c0: 75df 9fbe 632d 66be 948c 6ebe 99a5 83be
000001d0: 4ae5 163e 0763 533e 674e 003f 9a3d a43e
000001e0: f5e5 013f ab5d 823f cef4 163f 5f47 993e
000001f0: c525 0b3f 45ea 9e3e 90d5 1f3f ea5f 183f
00000200: 1856 143e 7ad1 bc3e 1b17 d83d 1791 9dbe
00000210: c761 74bd dd65 b6be aedd edbe dcd3 d43e
00000220: 6631 163f 2d10 5e3e 5849 2f3f ce9e 4a3f
00000230: 73c9 7c3e 957d ca3e 71bb b73e 1ccb 243d
-0.23065713 -0.3588132 -0.23819086 -0.21149841 -0.30049956 -0.24067532 -0.11365642 -0.2054063
-0.013951095 -0.3257728 -0.34311527 -0.023888184 -0.42390668 -0.26411757 0.1383997 -0.15784739
0.042056926 0.16836439 0.036157742 -0.20878038 -0.2886904 -0.08161303 -0.42548677 -0.41996065
-0.21963608 -0.52514493 -0.35322648 0.051345654 0.12539609 -0.11881426 -0.30757403 0.11715819
0.1297131 -0.22650714 -0.002491533 0.025482355 -0.46000093 -0.35106918 0.033752248 -0.5246278
0.013431279 0.44949043 -0.12292349 0.38170907 0.45092273 -0.21905392 -0.3519961 -0.2544654
-0.39267793 -0.6181118 -0.35918874 -0.24606657 -0.31321865 -0.18211053 -0.05478941 -0.1977977
-0.17080264 0.0034033488 -0.35224465 -0.28671876 -0.033357702 -0.15428379 0.074563086 -0.014576136
0.015070565 0.13798879 -0.1984432 -0.2460256 0.10157694 -0.23871076 -0.3142817 -0.08909618
-0.15119052 0.0063614566 -0.27515754 0.20840158 0.28766832 -0.0070168003 0.28101572 0.28241387
0.15493923 -0.16567306 -0.28251657 -0.18629794 -0.30517766 -0.41331995 -0.11160263 -0.17763293
-0.15631981 -0.022795718 -0.052035965 -0.17139563 -0.15718204 -0.26088324 -0.46872225 -0.3301571
-0.22954805 -0.3698395 -0.21389188 0.11922407 -0.063875854 -0.30089888 0.24269632 -0.025514599
-0.38043082 0.15219548 0.042665623 -0.20028447 -0.12935594 0.028346641 0.13018227 -0.04117472
-0.31225172 -0.22478251 -0.23295814 -0.25712278 0.14735904 0.20643245 0.5011963 0.32078248
0.5074151 1.0184835 0.5896729 0.29937264 0.54354507 0.31038108 0.62435246 0.59521353
0.14485967 0.36878568 0.10551282 -0.30774757 -0.05966356 -0.3562459 -0.4645819 0.41567886
0.58669126 0.21685858 0.6847129 0.79148567 0.24686222 0.39548936 0.35885194 0.040232763
