model_b6.pt (torch, 199311 bytes, 11 tensors)

encoder.0.weight f4 [16, 1, 3, 3]
-0.14361332 0.04368404 -0.15195245 -0.053107843 0.03609714 0.080805786 -0.28110027 -0.21976772
-0.03575493 0.2439331 -0.06875903 -0.030931456 0.2739679 0.184532 -0.45185715 0.24384587
0.24538507 -0.1468321 0.20200202 0.12769301 0.1756878 0.27459192 0.13291818 0.29555374
-0.27082378 -0.39930034 0.041709267 0.18239738 0.0017932366 -0.24573122 0.37139562 -0.16151668
0.12272676 0.1685838 -0.3403357 -0.18156135 -0.34358984 -0.27691048 -0.16244994 0.24445644
0.02984369 0.21382716 0.3139339 0.027315207 -0.008483446 0.019604707 -0.13092735 -0.23004384
-0.1101136 -0.3021291 -0.15110023 0.37353188 -0.08150036 -0.10786219 -0.005893334 0.2400781
-0.019927729 0.13480936 0.19199482 0.19161159 0.16721445 0.18423638 0.032730892 0.09774447
0.09449934 0.14985703 -0.14784136 0.325958 0.07216484 -0.4336165 0.053443033 -0.12184257
0.40819606 0.17960057 0.2549527 -0.38205785 -0.38281155 0.049233448 -0.23439112 -0.1157995
0.06999793 -0.045040555 -0.07195113 -0.008809418 -0.2623337 0.02131255 -0.19007777 -0.1148019
-0.24520266 -0.08592284 0.048532773 0.09046026 -0.19456491 -0.33953702 0.1356421 -0.40690544
0.26915792 0.3891597 -0.044752765 0.20612578 -0.27690127 0.016943123 -0.37551412 0.095843576
0.08820003 0.02022475 -0.09712963 0.0960947 -0.2878741 0.023165004 0.069677345 -0.13046062
0.12467688 0.20563182 0.14181475 0.0882889 0.16615671 0.27366695 0.14747354 -0.12448931
0.101687446 -0.09741049 -0.2896708 -0.17490734 0.032864537 -0.063927285 -0.05459399 -0.27865222
0.053113747 0.15136856 0.12173568 0.10621252 -0.040062938 -0.28598195 -0.11286531 -0.26192766
-0.14944299 -0.23049648 0.07633548 0.04398311 0.43078905 -0.060968067 -0.1666379 0.24117121
00000000: 5f0f 13be 09ee 323d 6c99 1bbe 9c87 59bd
00000010: 98da 133d 817d a53d 60ec 8fbe ca0a 61be
00000020: c373 12bd 99c9 793e 89d1 8cbd f763 fdbc
00000030: 8545 8c3e f5f5 3c3e d259 e7be bbb2 793e
00000040: 3946 7b3e 275b 16be 9ed9 4e3e f5c1 023e
00000050: 81e7 333e 5097 8c3e b41b 083e d252 973e
00000060: 6aa9 8abe 1871 ccbe 56d7 2a3d 61c6 3a3e
00000070: 090b eb3a f7a0 7bbe 9127 be3e a164 25be
00000080: 2b58 fb3d 3ba1 2c3e 7b40 aebe 38eb 39be
00000090: 02eb afbe 36c7 8dbe 4759 26be ca52 7a3e
000000a0: c17a f43c 82f5 5a3e f2bb a03e 24c4 df3c
000000b0: 27fe 0abc 0d9a a03c d211 06be 9d90 6bbe
000000c0: 3d83 e1bd aab0 9abe 05ba 1abe 923f bf3e
000000d0: a9e9 a6bd dae6 dcbd de1c c1bb 09d7 753e
000000e0: 7a3f a3bc 770b 0a3e 4a9a 443e d435 443e
000000f0: 443a 2b3e 76a8 3c3e d410 063d 412e c83d
00000100: df88 c13d 1f74 193e ba63 17be f8e3 a63e
00000110: 29cb 933d fb02 debe 15e7 5a3d 9988 f9bd
00000120: 13ff d03e 36e9 373e 2989 823e 169d c3be
00000130: e0ff c3be 03a9 493d 3a04 70be 4a28 edbd
00000140: 135b 8f3d 727c 38bd 1d5b 93bd 6155 10bc
00000150: 9a50 86be a897 ae3c bfa3 42be 421d ebbd
00000160: 6816 7bbe 50f8 afbd 4dca 463d 3b43 b93d
00000170: 063c 47be ccd7 adbe c3e5 0a3e e955 d0be
00000180: 11cf 893e f13f c73e ad4e 37bd a312 533e
00000190: 01c6 8dbe 4ecc 8a3c 6343 c0be a349 c43d
000001a0: 38a2 b43d 60ae a53c e6eb c6bd 4ccd c43d
000001b0: 3c64 93be 89c4 bd3c ffb2 8e3d 7897 05be
000001c0: 9856 ff3d 2691 523e e337 113e d0d0 b43d
000001d0: fc24 2a3e 131e 8c3e 4e03 173e 40f4 febd
000001e0: 8241 d03d 277f c7bd bb4f 94be e91a 33be
000001f0: f79c 063d 4fec 82bd f39d 5fbd 81ab 8ebe
00000200: cd8d 593d 5c00 1b3e 8e50 f93d f385 d93d
00000210: 0919 24bd 3a6c 92be ed25 e7bd 621b 86be
00000220: 9507 19be 4507 6cbe c755 9c3d a227 343d
00000230: 6290 dc3e a7b9 79bd 20a3 2abe 96f5 763e

encoder.0.bias f4 [16]
-0.08311913 -0.054601952 -0.009773933 -0.0717962 0.11100044 0.12566024 0.38264567 0.08092829
-0.13317494 -0.20617637 -0.09226959 0.1333898 0.39237103 0.14261541 0.020498773 -0.11300703
00000000: 5d3a aabd 4ca6 5fbd d922 20bc e309 93bd
00000010: 3354 e33d 14ad 003e 22ea c33e bbbd a53d
00000020: 035f 08be e61f 53be d7f7 bcbd 5697 083e
00000030: dbe4 c83e c609 123e 0bed a73c 3b70 e7bd

encoder.2.weight f4 [32, 16, 3, 3]
0.105170265 0.14825056 -0.053340547 0.1310387 0.06619996 -0.007577109 0.06268175 -0.0752283
-0.082459554 -0.24664734 -0.24231242 0.010181096 -0.1431057 -0.12421269 0.019001551 -0.054228976
0.09061226 0.084576 -0.17568938 -0.15718624 -0.04318258 -0.20938759 -0.083610564 -0.040061828
-0.009086709 -0.025717456 0.04781543 -0.1183234 -0.1419488 -0.2348047 -0.22535972 -0.004252891
0.03560979 -0.015207173 0.12963815 0.12575707 -0.025479425 0.00061743014 -0.25976834 -0.14412823
-0.06797985 -0.03749614 -0.023334825 0.037934024 0.08414094 0.12931314 0.08944856 -0.010550481
0.09123181 -0.013089753 -0.04059412 -0.0494164 -0.106198795 -0.009639779 -0.3579587 -0.24928766
0.08981315 -0.1640761 -0.14280638 0.18422835 -0.015238126 0.07037102 0.18091603 -0.31041938
-0.3806774 -0.1937631 -0.25572622 -0.21338312 0.0459505 -0.071559675 0.16137503 0.25780794
-0.103625886 0.04087063 -0.0076638213 -0.04625463 -0.005904744 -0.27089787 -0.041117042 -0.048959833
0.09256077 0.12879772 0.122939125 0.042471047 0.049425848 0.0047645587 -0.21595475 -0.015324164
-0.21429859 -0.10984877 -0.03069326 -0.16726397 -0.07883972 0.07807217 0.1774238 0.15636721
0.17320386 0.2231745 0.12852506 0.10033762 0.113961294 -0.009612926 0.09142553 0.02806667
0.06084156 -0.050931063 0.008374024 -0.078191884 -0.28317824 -0.17504753 0.124341466 -0.15576415
0.003068506 0.26763508 0.0975143 0.28259388 0.26483592 0.056538314 -0.09121763 -0.07231505
0.026933007 -0.020969868 -0.08126417 -0.033422068 -0.07203971 0.04668372 0.10204072 0.08609225
-0.13756244 0.0741765 -0.032196872 -0.15421371 -0.05472735 -0.19698311 -0.035491165 -0.2535466
0.120281264 0.04675102 -0.2122339 0.16702633 0.14749894 0.16485763 0.3954432 -0.032182008
0.11547987 0.092783056 0.14583093 0.12552184 0.11514763 0.05460874 -0.06874655 0.030500645
-0.10970697 -0.18052933 -0.049469877 -0.095949806 -0.17638919 -0.07963717 -0.03161371 -0.029721113
0.032404095 0.07345696 -0.09507097 0.057131168 -0.14142624 0.011787351 0.08021463 -0.11583107
-0.15919821 0.009685865 -0.0059976666 -0.19441757 -0.10031125 -0.13409741 -0.12409227 -0.12126522
-0.07179225 -0.1101191 -0.07321368 0.03264314 0.14659373 0.15918118 0.13138708 -0.16685846
-0.00661888 -0.05557437 0.026980057 -0.028867362 0.028180333 0.07914691 -0.013537114 0.07179604
0.109753795 0.012548562 -0.020257909 0.1291348 -0.00771679 -0.058463205 -0.15668917 -0.024766384
-0.1487706 -0.22324656 -0.13765006 -0.07288957 -0.070709184 -0.1315813 0.20693578 -0.11775276
-0.35189125 -0.25532332 -0.23273087 -0.2609115 -0.42956576 -0.18074 -0.22850692 0.061912265
-0.23393817 -0.1893193 -0.041925535 -0.16585366 0.024053315 -0.005284016 -0.045570973 0.019551935
-0.19851033 0.2558536 0.17852604 0.14415993 0.16336645 0.078887716 0.005833469 0.010728489
-0.029102853 -0.09955466 -0.032892786 -0.14634743 -0.34349126 -0.20181276 -0.08372998 0.017376041
0.09139822 0.22754768 0.034195326 0.10309434 -0.0132684475 0.04511609 0.11703436 0.053727876
0.074390225 0.026427954 0.010236228 0.05282479 -0.18910718 -0.1527648 -0.14425652 -0.070342384
00000000: 8263 d73d ffce 173e 9e7b 5abd 022f 063e
00000010: d893 873d 6649 f8bb 4a5f 803d 4c11 9abd
00000020: 8ee0 a8bd 1f91 7cbe bf20 78be 9dce 263c
00000030: 4d8a 12be 3963 febd 24a9 9b3c 341f 5ebd
00000040: ec92 b93d 2f36 ad3d ebe7 33be 6ef5 20be
00000050: 38e0 30bd b369 56be 043c abbd df17 24bd
00000060: 6be0 14bc 6aad d2bc 1dda 433d 8a53 f2bd
00000070: 075b 11be a570 70be b3c4 66be d65b 8bbb
00000080: 92db 113d 8227 79bc ddbf 043e 76c6 003e
00000090: 3aba d0bc 09db 213a 5b00 85be 5a96 13be
000000a0: 0539 8bbd 8d95 19bd ad28 bfbc b560 1b3d
000000b0: 1652 ac3d aa6a 043e ce30 b73d eddb 2cbc
000000c0: bed7 ba3d 6776 56bc 0546 26bd da68 4abd
000000d0: c17e d9bd 2af0 1dbc 5d46 b7be 4445 7fbe
000000e0: f5ef b73d 9103 28be d63b 12be 5ba6 3c3e
000000f0: 55a9 79bc ae1e 903d 0d42 393e 4aef 9ebe
00000100: 26e8 c2be d669 46be 8cee 82be 1b81 5abe
00000110: 9736 3c3d e18d 92bd 7f3f 253e 67ff 833e
00000120: cf39 d4bd f667 273d cb20 fbbb 7f75 3dbd
00000130: 957c c1bb 20b3 8abe 586a 28bd 1b8a 48bd
00000140: 8090 bd3d 8de3 033e 82c7 fb3d 1ff6 2d3d
00000150: c272 4a3d 0420 9c3b 3e23 5dbe 3412 7bbc
00000160: 1771 5bbe 64f8 e0bd 6e70 fbbc 3f47 2bbe
00000170: b876 a1bd 4de4 9f3d 96ae 353e ba1e 203e
00000180: 5a5c 313e db87 643e 139c 033e cf7d cd3d
00000190: 8a64 e93d 897f 1dbc 4f3d bb3d 13ec e53c
000001a0: 0035 793d 179d 50bd 3433 093c 1123 a0bd
000001b0: bdfc 90be a93f 33be bda6 fe3d a380 1fbe
000001c0: fd18 493b 7707 893e 94b5 c73d 25b0 903e
000001d0: 9398 873e b894 673d 4fd0 babd ea19 94bd
000001e0: 9ca2 dc3c 00c9 abbc d46d a6bd 94e5 08bd
000001f0: 8e89 93bd 6e37 3f3d bafa d03d 2251 b03d
00000200: 2bdd 0cbe d9e9 973d dee0 03bd 33ea 1dbe
00000210: c929 60bd f1b5 49be 2f5f 11bd dcd0 81be
00000220: 0656 f63d ff7d 3f3d d853 59be f308 2b3e
00000230: f609 173e 70d0 283e 8877 ca3e 48d1 03bd
00000240: b680 ec3d 0b05 be3d b454 153e cc88 003e
00000250: 85d2 eb3d 6aad 5f3d feca 8cbd 7ddc f93c
00000260: 0cae e0bd aedc 38be eda0 4abd 5581 c4bd
00000270: 5e9f 34be d018 a3bd 617d 01bd b179 f3bc
00000280: 28ba 043d 9a70 963d 92b4 c2bd 5f02 6a3d
00000290: 0ad2 10be bc1f 413c 9147 a43d d738 edbd
000002a0: db04 23be 76b1 1e3c 1388 c4bb 6615 47be
000002b0: fc6f cdbd d550 09be 1724 febd e659 f8bd
000002c0: d107 93bd 1f86 e1bd 0ef1 95bd d0b4 053d
000002d0: ab1c 163e 6400 233e 568a 063e f2dc 2abe
000002e0: 31e3 d8bb f3a1 63bd 4805 dd3c 3f7b ecbc
000002f0: 71da e63c c617 a23d c5ca 5dbc cd09 933d
00000300: 99c6 e03d 7c98 4d3c eaf3 a5bc ea3b 043e
00000310: 20dd fcbb 1d77 6fbd 2073 20be dfe2 cabc
00000320: 5257 18be bf9a 64be 23f4 0cbe 2047 95bd
00000330: facf 90bd 40bd 06be f9e6 533e 5c28 f1bd
00000340: 172b b4be bdb9 82be 0051 6ebe 3196 85be
00000350: 0bf0 dbbe e813 39be b8fd 69be b797 7d3d
00000360: 7d8d 6fbe ebdc 41be 1cba 2bbd 8bd5 29be
00000370: 750b c53c 8a25 adbb a1a8 3abd 612b a03c
00000380: 4b46 4bbe 3eff 823e 88cf 363e a99e 133e
00000390: 8949 273e e28f a13d af26 bf3b 8bc6 2f3c
000003a0: 1b69 eebc 50e3 cbbd 96ba 06bd 1adc 15be
000003b0: 16de afbe 01a8 4ebe a07a abbd 3358 8e3c
000003c0: fd2e bb3d 4202 693e 6610 0c3d 2023 d33d
000003d0: e763 59bc a6cb 383d b6af ef3d c311 5c3d
000003e0: e759 983d 707f d83c dab5 273c cf5e 583d
000003f0: 50a5 41be 606e 1cbe fbb7 13be ab0f 90bd

encoder.2.bias f4 [32]
0.018275518 0.03840362 -0.04324255 0.041126892 -0.026640104 0.083425544 0.039277516 -0.00974503
0.054316904 0.04595247 -0.06191826 -0.021384634 0.012319198 -0.045175 0.08504479 -0.018571213
0.040651012 0.02550462 0.07513914 0.034376666 -0.028085206 0.049602453 -0.041422006 -0.09527359
0.004332941 -0.03945481 -0.0042545963 0.067086786 -0.030797767 -0.090761214 -0.06793973 -0.014767844
00000000: 8ab6 953c 1d4d 1d3d 1a1f 31bd ac74 283d
00000010: 593c dabc 03db aa3d 76e1 203d 9ea9 1fbc
00000020: 677b 5e3d a838 3c3d 009e 7dbd d42e afbc
00000030: 76d6 493c 6c09 39bd f62b ae3d a822 98bc
00000040: ad81 263d 11ef d03c 8de2 993d 8cce 0c3d
00000050: f212 e6bc f12b 4b3d 1faa 29bd cd1e c3bd
00000060: 58fb 8d3b 5e9b 21bd 246a 8bbb cc64 893d
00000070: 994b fcbc 04e1 b9bd fc23 8bbd d4f4 71bc

encoder.5.weight f4 [12, 1568]
-0.008294773 0.003316666 0.018542062 -0.037856393 -0.109520555 -0.05341023 -0.032605838 -0.009431745
-0.04308936 -0.035689514 -0.02245752 -0.02162303 0.03744816 0.010164218 -0.00968627 -0.05728704
0.0023472784 0.038183965 0.0013030671 0.11948638 0.073656395 0.039222833 -0.01890082 0.02976554
-0.16447206 -0.1357624 0.058518976 0.11487902 0.00060232135 0.059287347 0.07982202 -0.096392624
-0.12613268 0.04616652 0.08312373 -0.012229612 -0.008529407 0.05745894 -0.09762563 0.033804923
0.23612961 -0.045984093 -0.011175496 -0.067772225 -0.030970225 -0.109979734 -0.0075824214 -0.06845561
0.0017186634 -0.010845889 0.0010520616 0.006871851 0.050501358 -0.020900792 0.008061138 0.0050289594
0.011901012 0.009260221 0.0018219781 -0.010671843 -0.0006536158 -0.007250624 0.022247428 0.049085293
-0.0030621812 -0.022860702 0.20545734 0.04762024 0.0013313238 -0.003871804 -0.008617666 0.0049768724
0.052014463 -0.06976889 -0.006332611 -0.098355584 -0.05137374 -0.0014114365 -0.010390279 -0.051809642
0.021035861 -0.040889144 -0.060612593 -0.029429339 0.0020189267 -0.042963136 -0.08158084 0.108197846
0.20269589 -0.1851621 -0.034363043 -0.026792515 -0.0023589064 0.0026316573 0.14741355 -0.008089744
0.0002138815 0.012057081 -0.016769845 0.0025980622 -0.028657284 -0.014113661 0.006223834 0.023596948
-0.0017877046 0.011479877 -0.029060949 0.015167929 -0.0077683846 0.04646957 -0.0014030251 -0.0036526015
-0.0076943333 0.008416625 0.022202287 -0.088528246 -0.07061475 -0.057571918 -0.018265983 -0.014383856
0.03935849 -0.0473046 -0.05022266 0.009437156 0.03940999 0.0301714 -0.004066973 -0.010891699
-0.016864603 0.077440135 0.0015908414 0.11682958 -0.069944225 -0.019962316 0.0063968133 0.05520028
-0.036214452 -0.10036827 0.076617144 0.10878933 0.009723462 0.024627961 -0.025993463 0.013670481
-0.09185034 0.064547524 -0.016963542 -0.0033787347 -0.008323658 -0.034166057 -0.01559263 0.015539234
0.0072715892 0.0030670394 -0.02162617 -0.013982912 0.022730878 0.03558747 -0.002347978 -0.0067399363
-0.008430474 0.022426875 -0.008324363 -0.023956113 0.031668156 -0.0630427 -0.020231558 0.0026586468
-0.027520467 0.0032077066 0.04090635 0.00041038333 0.024321236 -0.007756609 0.011764286 -0.024178963
-0.0097027635 -0.059710328 0.0035127674 0.09730232 -0.0712791 -0.018890107 0.012090416 -0.012619465
-0.045648478 0.08616518 0.025695512 -0.06977032 0.01974427 0.0010040139 -0.0262733 -0.014084814
0.036029555 0.03495367 -0.012451041 -0.02324573 -0.0121248085 0.002757886 0.010719221 -0.03308049
-0.035362992 -0.024047414 -0.0119906105 -0.006917083 -0.012232547 -0.04359392 -0.0067086546 -0.026129937
-0.011869405 0.0017887396 0.025764178 0.016452523 -0.04505731 0.021879148 -0.027366754 0.005624088
-0.0025901103 0.038556375 -0.0025577385 0.028076306 0.06694316 -0.024243308 0.041816086 0.03349724
-0.017059922 7.198306e-05 0.019293481 -0.092944264 -0.022190847 -0.028886277 0.055231176 0.02466479
-0.006375039 -0.09133836 -0.044942196 0.1461792 0.025990622 -0.024815412 -0.009379612 0.023120986
-0.04421044 0.05668468 -0.07658342 0.00075123 -0.016310882 0.0100752385 -0.01843099 0.012569263
-0.019525087 -0.028209148 -0.027300192 -0.03064477 -0.054940965 -0.02974951 0.110282406 0.013470162
00000000: cde6 07bc 6c5c 593b 86e5 973c 4e0f 1bbd
00000010: 504c e0bd afc4 5abd b38d 05bd 9b87 1abc
00000020: 787e 30bd 2b2f 12bd d5f8 b7bc c822 b1bc
00000030: 3e63 193d d287 263c 29b3 1ebc d1a5 6abd
00000040: ccd4 193b ca66 1c3d adcb aa3a 46b5 f43d
00000050: 2ad9 963d 1fa8 203d e4d5 9abc ddd6 f33c
00000060: 5d6b 28be 4c05 0bbe 98b1 6f3d b145 eb3d
00000070: 1ae5 1d3a 4ad7 723d ba79 a33d 7f69 c5bd
00000080: ed28 01be 1b19 3d3d c63c aa3d b65e 48bc
00000090: edbe 0bbc 115a 6b3d f2ef c7bd 0877 0a3d
000000a0: f6cb 713e d159 3cbd 6d19 37bc 2acc 8abd
000000b0: 45b5 fdbc 0e3d e1bd f675 f8bb 7432 8cbd
000000c0: c644 e13a f5b2 31bc 54e5 893a 442d e13b
000000d0: 83da 4e3d 2338 abbc dd12 043c f8c9 a43b
000000e0: 76fc 423c 2fb8 173c 71cf ee3a f4d8 2ebc
000000f0: 6a57 2bba a496 edbb 3d40 b63c a90d 493d
00000100: e0ae 48bb 5e46 bbbc 6963 523e 710d 433d
00000110: d07f ae3a 18be 7dbb 1c31 0dbc 0815 a33b
00000120: 1e0d 553d fee2 8ebd cb81 cfbb a76e c9bd
00000130: 456d 52bd f3ff b8ba fd3b 2abc 5936 54bd
00000140: 6653 ac3c 607b 27bd e944 78bd cc15 f1bc
00000150: f84f 043b 1dfa 2fbd db13 a7bd d596 dd3d
00000160: 838f 4f3e 229b 3dbe 43c0 0cbd fa7b dbbc
00000170: e297 1abb e277 2c3b 94f3 163e d88a 04bc
00000180: 6145 6039 108b 453c ea60 89bc 4044 2a3b
00000190: aec2 eabc fc3c 67bc 4ef1 cb3b 634e c13c
000001a0: 6a51 eaba 1816 3c3c 3a11 eebc e882 783c
000001b0: ef8d febb e056 3e3d b6e5 b7ba 7c60 6fbb
000001c0: bf20 fcbb e2e5 093c 92e1 b53c 4c4e b5bd
000001d0: 779e 90bd 88d0 6bbd 8ba2 95bc 44aa 6bbc
000001e0: 5e36 213d 78c2 41bd 47b6 4dbd 4d9e 1a3c
000001f0: 5f6c 213d 032a f73c 3e44 85bb 1973 32bc
00000200: a327 8abc ef98 9e3d c883 d03a 5944 ef3d
00000210: eb3e 8fbd 0388 a3bc 5c9c d13b b019 623d
00000220: 9b55 14bd e18d cdbd 73e9 9c3d f1cc de3d
00000230: 284f 1f3c 94c0 c93c 3ef0 d4bc 27fa 5f3c
00000240: 081c bcbd 7e31 843d 20f7 8abc c36d 5dbb
00000250: f45f 08bc b5f1 0bbd 3b78 7fbc 4598 7e3c
00000260: 8346 ee3b 6200 493b 5e29 b1bc 9518 65bc
00000270: 1b36 ba3c 2bc4 113d 89e0 19bb afda dcbb
00000280: f91f 0abc 91b8 b73c e962 08bc 9c3f c4bc
00000290: 78b6 013d 881c 81bd a7bc a5bc b13c 2e3b
000002a0: 9a72 e1bc 6338 523b 6b8d 273d b828 d739
000002b0: 543d c73c 272b febb febe 403c f612 c6bc
000002c0: 57f8 1ebc d192 74bd 7536 663b 7046 c73d
000002d0: c7fa 91bd 6dbf 9abc e116 463c dfc1 4ebc
000002e0: e6f9 3abd 5f77 b03d 657f d23c bee3 8ebd
000002f0: bcbe a13c 1e99 833a 1b3b d7bc fec3 66bc
00000300: ba93 133d 942b 0f3d 73ff 4bbc d46d bebc
00000310: 22a7 46bc a6bd 343b ac9f 2f3c 687f 07bd
00000320: c9d8 10bd 15ff c4bc 4474 44bc b3a8 e2bb
00000330: 056b 48bc 8a8f 32bd 46d4 dbbb 730e d6bc
00000340: e577 42bc 2474 ea3a 660f d33c 71c7 863c
00000350: 048e 38bd e63b b33c 3e30 e0bc 454a b83b
00000360: d7be 29bb 4aed 1d3d bb9f 27bb 4800 e63c
00000370: 7f19 893d e799 c6bc 5847 2b3d 6734 093d
00000380: 40c1 8bbc 9cf5 9638 5d0d 9e3c 9059 bebd
00000390: 94c9 b5bc eaa2 ecbc 163a 623d d00d ca3c
000003a0: b4e5 d0bb 9b0f bbbd 4f15 38bd 00b0 153e
000003b0: 49ea d43c b149 cbbc f2ac 19bc 3968 bd3c
000003c0: 0216 35bd 322e 683d c5d7 9cbd 31ee 443a
000003d0: 669e 85bc 9d12 253c 96fc 96bc 4fef 4d3c
000003e0: 13f3 9fbc df16 e7bc a7a4 dfbc be0a fbbc
000003f0: c709 61bd 3fb5 f3bc bedb e13d f4b1 5c3c

encoder.5.bias f4 [12]
-0.003818712 0.01205738 0.017329574 -0.0035655815 0.002299982 -0.032866888 -0.013538422 0.02901245
0.0044962373 0.016221466 -0.032258373 -0.013914458
00000000: 5b43 7abb 518c 453c c0f6 8d3c 88ac 69bb
00000010: 4bbb 163b 6e9f 06bd 42d0 5dbc 84ab ed3c
00000020: 2c55 933b e1e2 843c 5b21 04bd 78f9 63bc

decoder.0.weight f4 [1568, 12]
0.2339699 0.11348822 -0.14437938 -0.08726637 0.0074240947 0.06004333 0.061165772 0.097030126
-0.04814301 -0.10671182 -0.060356148 0.17833011 -0.01011524 0.042407107 0.0022190795 0.034365498
-0.00072250207 0.012838816 0.04521694 0.12892298 -0.02424568 0.005300016 0.050734606 -0.12729904
-0.065475985 -0.17246765 -0.06574223 0.08841821 0.09329207 -0.07351028 0.030186152 -0.06895976
-0.0003962702 -0.21129331 0.10973289 -0.0665595 0.30513358 0.9176521 -0.9781708 0.15770717
-1.27453 0.6394202 -0.70648926 -0.49545506 0.3511045 -0.7594718 1.0301013 -1.1825439
-0.05162597 0.07818498 0.10690144 0.07325842 -0.043476935 0.14236346 0.0037892784 0.12808172
0.25653386 0.022442224 0.033352364 -0.13836953 0.4200567 1.1929381 -1.3480182 0.21772826
-1.9138464 0.9511629 -1.0871909 -0.6075238 0.373943 -1.193116 1.7246752 -1.6235006
-0.23891641 -0.1706794 -0.04124247 0.15566789 -0.10226719 0.02203314 -0.015335881 0.0458551
0.06899463 -0.09590403 0.1614123 -0.15225567 0.3647655 1.089611 -1.2420243 0.24445565
-1.7065502 0.7699313 -0.8846811 -0.46655998 0.29742175 -1.0415373 1.4443346 -1.3673168
-0.07798801 0.013753514 0.076679416 0.06834095 0.0054771467 -0.14473246 -0.072717816 0.13274215
0.2871156 -0.12961507 0.07120211 -0.0412566 -0.059089664 -0.048068155 0.11933302 -0.31713074
-0.19236766 0.33681437 -0.07345303 -0.12636876 -0.20974937 -0.37216908 -0.20839548 0.13293204
0.089733094 -0.15274183 -0.37423465 -0.22476314 -0.06993364 0.0721101 0.4312803 -0.03258689
-0.28407764 0.11126994 0.13190241 0.055077165 0.46512288 1.1509305 -1.4272228 0.18735304
-1.8079045 0.8959576 -1.063253 -0.58706546 0.36099106 -1.1893075 1.6907072 -1.4513239
0.37141806 0.9575557 -1.1560811 0.1596982 -1.5453087 0.7604566 -0.9258264 -0.45844653
0.30990946 -0.97294754 1.4277436 -1.2551076 -0.1319381 0.03807824 0.10648852 0.20742114
-0.26484978 0.048015594 -0.0025914784 0.19408447 -0.2764673 0.08029712 0.10600719 -0.079063766
-0.03235188 0.117905356 0.18024717 -0.09031843 -0.038997807 -0.07638148 -0.07691072 -0.054928694
0.10061621 0.023075338 -0.047369204 -0.22440216 -0.08934635 -0.045852277 -0.22549245 -0.034067374
0.089830756 -0.24850756 0.019005531 -0.23153093 0.093611784 -0.027483866 0.04310494 0.07127923
-0.22309387 0.14348458 0.16065082 0.05604315 0.052950192 0.3524012 0.044113565 -0.13100313
0.2135619 -0.07625386 -0.20294748 0.1639647 -0.19807354 -0.2673644 0.27630275 0.030858925
-0.020676445 0.12641868 -0.07502957 0.016672006 -0.027481142 0.09433866 0.045877088 0.045494534
0.38257772 1.247565 -1.306062 0.25095445 -1.9187562 0.92531914 -1.0175983 -0.61090213
0.40289196 -1.1422459 1.6032546 -1.6673352 0.09052558 0.022204993 -0.047591474 -0.046584588
-0.08276188 0.031021917 -0.25737315 0.10553523 -0.035844803 -0.16907561 0.31071648 -0.086225055
0.3192975 0.88693595 -0.92968005 0.1709816 -1.2441163 0.61859137 -0.6417816 -0.35503116
0.29989025 -0.72436404 0.96813524 -1.0782773 -0.03927085 0.11605282 -0.15103707 0.11645734
00000000: ce95 6f3e 836c e83d 30d8 13be b6b8 b2bd
00000010: d245 f33b ffef 753d f688 7a3d bbb7 c63d
00000020: 9b31 45bd ba8b dabd 0238 77bd 2b9c 363e
00000030: 64ba 25bc 13b3 2d3d fa6d 113b d6c2 0c3d
00000040: 4b66 3dba e659 523c 6635 393d 6304 043e
00000050: e09e c6bc c2ab ad3b 17cf 4f3d ae5a 02be
00000060: 4618 86bd 5c9b 30be dda3 86bd 9b14 b53d
00000070: ea0f bf3d 8f8c 96bd f348 f73c c63a 8dbd
00000080: 7cc2 cfb9 465d 58be a3bb e03d 5950 88bd
00000090: 783a 9c3e 3feb 6a3f 6769 7abf fd7d 213e
000000a0: cd23 a3bf 0bb1 233f 7bdc 34bf 49ac fdbe
000000b0: f8c3 b33e be6c 42bf 5cda 833f 995d 97bf
000000c0: c175 53bd 721f a03d 24ef da3d 8308 963d
000000d0: df14 32bd bac7 113e 8b55 783b db27 033e
000000e0: 6858 833e c1d8 b73c 7d9c 083d beb0 0dbe
000000f0: ac11 d73e 32b2 983f dc8b acbf 28f4 5e3e
00000100: ebf8 f4bf 697f 733f 1229 8bbf ae86 1bbf
00000110: 7575 bf3e 06b8 98bf 28c2 dc3f dece cfbf
00000120: 81a6 74be 95c6 2ebe dded 28bd 6767 1f3e
00000130: 7671 d1bd d87e b43c 5943 7bbc 8fd2 3b3d
00000140: 0e4d 8d3d 5569 c4bd 4449 253e e9e8 1bbe
00000150: 8bc2 ba3e 6078 8b3f a7fa 9ebf 9552 7a3e
00000160: 3d70 dabf 381a 453f 767a 62bf f3e0 eebe
00000170: aa47 983e 1851 85bf f5df b83f 3d04 afbf
00000180: 2eb8 9fbd 6b56 613c 190a 9d3d 57f6 8b3d
00000190: a379 b33b bf34 14be 14ed 94bd 8fed 073e
000001a0: d100 933e d0b9 04be 69d2 913d aefc 28bd
000001b0: 0108 72bd 1de3 44bd df64 f43d f65e a2be
000001c0: 07fc 44be ef72 ac3e 8b6e 96bd d066 01be
000001d0: 8ac8 56be f28c bebe a065 55be 561f 083e
000001e0: fcc5 b73d 5b68 1cbe af9b bfbe 4f28 66be
000001f0: 5e39 8fbd 76ae 933d c5d0 dc3e d579 05bd
00000200: a072 91be 7fe1 e33d 6d11 073e 9898 613d
00000210: 9624 ee3e b151 933f 3daf b6bf 7ad9 3f3e
00000220: 6a69 e7bf 7a5d 653f ad18 88bf ec49 16bf
00000230: d2d3 b83e 3a3b 98bf 1869 d83f fbc4 b9bf
00000240: 822a be3e 5f22 753f 77fa 93bf ed87 233e
00000250: adcc c5bf 49ad 423f f502 6dbf 81b9 eabe
00000260: 74ac 9e3e 1713 79bf 4dc0 b63f 5ea7 a0bf
00000270: c81a 07be eef7 1b3d a716 da3d 3566 543e
00000280: 649a 87be 00ac 443d cbd5 29bb 14be 463e
00000290: 1f8d 8dbe d172 a43d 4c1a d93d 2fec a1bd
000002a0: 6883 04bd 5d78 f13d b792 383e def8 b8bd
000002b0: 2abc 1fbd e56d 9cbd 5e83 9dbd e9fc 60bd
000002c0: df0f ce3d 7e08 bd3c 3606 42bd aec9 65be
000002d0: 38fb b6bd 99cf 3bbd 7ee7 66be 3b8a 0bbd
000002e0: 30f9 b73d c478 7ebe 7db1 9b3c 7216 6dbe
000002f0: 89b7 bf3d d825 e1bc ce8e 303d d8fa 913d
00000300: b872 64be 9fed 123e a681 243e 818d 653d
00000310: 4de2 583d ee6d b43e 6db0 343d af25 06be
00000320: f9af 5a3e fc2a 9cbd 77d1 4fbe 5de6 273e
00000330: cad3 4abe fde3 88be 8e77 8d3e dbcb fc3c
00000340: a661 a9bc e673 013e 1aa9 99bd bb93 883c
00000350: 2220 e1bc a134 c13d 9de9 3b3d 7a58 3a3d
00000360: 3ae1 c33e 36b0 9f3f 0a2d a7bf 1a7d 803e
00000370: ce99 f5bf b7e1 6c3f a940 82bf 1564 1cbf
00000380: db47 ce3e 1d35 92bf 7237 cd3f 3d6b d5bf
00000390: 7a65 b93d 3fe7 b53c 47ef 42bd 7bcf 3ebd
000003a0: 0f7f a9bd ad21 fe3c 6ac6 83be db22 d83d
000003b0: 00d2 12bd 2822 2dbe 3b16 9f3e c396 b0bd
000003c0: f67a a33e 3c0e 633f 83ff 6dbf cd15 2f3e
000003d0: 343f 9fbf 015c 1e3f cd4b 24bf a5c6 b5be
000003e0: 378b 993e ec6f 39bf b6d7 773f fe04 8abf
000003f0: 79da 20bd 1aad ed3d 76a9 1abe 3081 ee3d

decoder.0.bias f4 [1568]
0.24264811 0.3138894 -0.1366416 0.23313035 0.19712918 0.14382112 0.11508633 0.064237095
0.07856116 0.14507735 -0.08876229 -0.09641511 0.24404885 -0.013052427 0.03133891 0.1731238
0.18563381 -0.045179293 -0.042702198 0.13260677 0.17583059 0.22425318 0.22997026 0.08589504
0.099123865 0.060659707 -0.1955736 0.22151898 -0.15023111 -0.21229473 -0.077154554 -0.09370703
0.25306854 -0.09903865 -0.17410864 0.16792363 0.13216414 -0.034051836 -0.04300252 -0.1862674
-0.21766217 0.09456201 0.1632731 -0.26282793 0.18834445 -0.28556693 -0.17988943 -0.16551308
0.26592287 -0.15270345 -0.11404988 -0.05620764 0.027901374 -0.25173593 -0.08226508 0.41609922
0.26520786 0.056970194 0.1773778 -0.2939062 -0.060530864 0.028442826 0.021622285 -0.10269763
0.16784397 0.019318292 0.1626143 0.21984884 0.091736436 0.19193457 0.08209966 -0.025922531
0.027427834 0.21512908 -0.09254394 0.3155968 0.17451766 0.24111739 -0.056274597 -0.25137565
-0.059451263 -0.3037582 0.09786182 -0.21266004 -0.22317468 0.33629683 0.054914087 0.062128823
0.34854367 -0.095705725 -0.04901058 0.01500346 0.19265737 -0.3284524 -0.20573267 0.2534252
0.19969213 -0.08240517 0.30507407 -0.017514274 0.13465442 0.24133289 0.26339278 -0.24756326
0.0014582534 0.12444459 -0.22903852 0.09465032 0.02280281 -0.0011244705 -0.11414372 0.10947709
0.21520063 -0.22290464 0.26781482 0.07333997 0.29467726 0.22147581 0.30487338 -0.110701986
-0.025211 -0.654026 -0.15994534 -0.16456692 0.11156168 -0.15373823 0.37780562 -0.26439598
-0.0103937145 0.07270045 0.059988074 -0.11490146 0.07631661 0.18184806 -0.14875132 -0.27882576
-0.22976875 0.030721825 -0.12363299 0.20277151 0.12508182 0.1499204 0.17995405 -0.07307828
-0.10498168 0.0898087 0.3593221 0.018896138 0.039886504 -0.2422081 0.20695262 -0.018741688
-0.0032175777 0.060449112 0.15181793 -0.08000745 -0.031815436 -0.23753266 -0.18786229 -0.24647339
0.22934136 -0.31713456 0.026833773 -0.039121233 0.2619715 -0.23243031 -0.13144878 -0.15528515
-0.08399126 0.047939412 -0.3443342 0.17265484 -0.44807938 -0.14017044 -0.17927545 -0.28272873
0.13681427 -0.25655985 -0.2524333 0.18845516 0.025123024 0.23502593 -0.5306233 0.2582722
-0.23931961 -0.18286158 -0.2332501 -0.25434354 -0.122797914 -0.40999743 -0.17124407 -0.2641527
0.25677243 -0.2861559 -0.1128079 0.05868136 -0.281713 -0.18254533 -0.065358184 -0.2460013
0.03396866 -0.29515332 -0.108046025 -0.27851638 -0.043211583 0.26740104 -0.009434648 0.26292533
0.21346338 0.2720149 -0.11485627 0.042388737 -0.101332426 0.07292624 -0.21935128 -0.14475647
-0.024662001 -0.1518521 -0.37888855 -0.21713193 -0.22587374 0.25380072 0.002891711 -0.15180399
0.22842082 0.1887329 -0.14646289 -0.35705835 0.26171994 -0.14221199 0.24116921 0.14493498
-0.035688717 -0.27672887 0.22296032 -0.16419157 0.25867796 0.004465541 0.123455755 0.20863956
-0.06301403 -0.12220814 -0.40597528 0.17854384 0.386795 0.21544309 0.14845362 -0.26121202
-0.20701371 0.02040928 0.19722024 0.28344616 -0.015682654 0.021716826 0.208604 0.24582505
00000000: bf78 783e 1db6 a03e c7eb 0bbe b9b9 6e3e
00000010: 3bdc 493e d845 133e 62b2 eb3d bd8e 833d
00000020: ace4 a03d 288f 143e 01c9 b5bd 4975 c5bd
00000030: f1e7 793e d9d9 55bc 3b5d 003d 5e47 313e
00000040: ca16 3e3e ec0d 39bd 80e8 2ebd 12ca 073e
00000050: ef0c 343e a0a2 653e 537d 6b3e bde9 af3d
00000060: 7401 cb3d 5076 783d 7244 48be dfd5 623e
00000070: 2fd6 19be ca63 59be 3503 9ebd 79e9 bfbd
00000080: 3392 813e c7d4 cabd 8949 32be 2cf4 2b3e
00000090: 0956 073e f079 0bbd 6923 30bd e2bc 3ebe
000000a0: d5e2 5ebe baa9 c13d 1031 273e 6291 86be
000000b0: 5edd 403e d435 92be ef34 38be 437c 29be
000000c0: 0b27 883e 4b5e 1cbe fc92 e9bd fb39 66bd
000000d0: 6c91 e43c 88e3 80be 987a a8bd f50a d53e
000000e0: 53c9 873e 9459 693d 87a2 353e e07a 96be
000000f0: 36ef 77bd ee00 e93c 3821 b13c 2353 d2bd
00000100: 4adf 2b3e 6541 9e3c 5d84 263e 0e20 613e
00000110: 50e0 bb3d 7f8a 443e de23 a83d 7d5b d4bc
00000120: 56b0 e03c cc4a 5c3e ad87 bdbd e795 a13e
00000130: c2b4 323e 7ae7 763e 3180 66bd 4fb4 80be
00000140: 2b83 73bd 3286 9bbe c76b c83d 8ec3 59be
00000150: e787 64be 192f ac3e 98ed 603d cb7a 7e3d
00000160: 5174 b23e 5d01 c4bd 51bf 48bd 13d1 753c
00000170: f947 453e ea2a a8be 96ab 52be f3c0 813e
00000180: 187c 4c3e 0bc4 a8bd ab32 9c3e 187a 8fbc
00000190: d9e2 093e f81f 773e 6bdb 863e 3981 7dbe
000001a0: dd22 bf3a cedc fe3d 1389 6abe 07d8 c13d
000001b0: f5cc ba3c f862 93ba 2fc4 e9bd 8635 e03d
000001c0: 8e5d 5c3e 1d41 64be 061f 893e 4433 963d
000001d0: f0df 963e 8eca 623e 5d18 9c3e b9b7 e2bd
000001e0: 4d87 cebc 3f6e 27bf b6c8 23be 3b84 28be
000001f0: 737a e43d 8e6d 1dbe bd6f c13e e95e 87be
00000200: 664a 2abc f9e3 943d 0eb6 753d 7551 ebbd
00000210: e24b 9c3d 6136 3a3e 4452 18be 40c2 8ebe
00000220: 8048 6bbe 56ac fb3c 4b33 fdbd 56a3 4f3e
00000230: 7315 003e bc84 193e e045 383e 11aa 95bd
00000240: a300 d7bd a0ed b73d 11f9 b73e 13cc 9a3c
00000250: 0860 233d 6605 78be 63eb 533e 2b88 99bc
00000260: ffdd 52bb 7d99 773d 2976 1b3e f2da a3bd
00000270: e750 02bd c33b 73be f95e 40be 8563 7cbe
00000280: 76d8 6a3e 765f a2be 80d2 db3c 963d 20bd
00000290: 2121 863e 3602 6ebe 829a 06be 1203 1fbe
000002a0: 9c03 acbd 1e5c 443d 924c b0be 6ecc 303e
000002b0: a96a e5be d788 0fbe fc93 37be d2c1 90be
000002c0: 0a19 0c3e d05b 83be f03e 81be 64fa 403e
000002d0: cdce cd3c a3aa 703e eed6 07bf 413c 843e
000002e0: 3310 75be 1140 3bbe 1dd9 6ebe 5139 82be
000002f0: 797d fbbd 2feb d1be 9b5a 2fbe 063f 87be
00000300: ad77 833e 0783 92be d407 e7bd de5b 703d
00000310: b03c 90be 2aed 3abe 83da 85bd c4e7 7bbe
00000320: b922 0b3d 561e 97be 3c47 ddbd b399 8ebe
00000330: a1fe 30bd cae8 883e c893 1abc 269e 863e
00000340: 2596 5a3e 8945 8b3e c439 ebbd d09f 2d3d
00000350: 6087 cfbd 5a5a 953d 9f9d 60be 0a3b 14be
00000360: f707 cabc 1e7f 1bbe aefd c1be d557 5ebe
00000370: 724b 67be 2bf2 813e dc82 3d3b 8172 1bbe
00000380: 26e7 693e 3343 413e 5efa 15be 5ad0 b6be
00000390: 2800 863e 05a0 11be 10f5 763e d669 143e
000003a0: 552e 12bd 68af 8dbe b64f 643e d621 28be
000003b0: 7071 843e ac53 923b 5fd6 fc3d 9ca5 553e
000003c0: 800d 81bd 4348 fabd fedb cfbe 32d4 363e
000003d0: ff09 c63e 1d9d 5c3e 3a04 183e 95bd 85be
000003e0: 67fb 53be 5d31 a73c 1af4 493e db1f 913e
000003f0: e978 80bc 7ce7 b13c 499c 553e 90b9 7b3e

decoder.3.weight f4 [32, 16, 3, 3]
0.11231629 0.17761704 0.02452774 -0.06748443 0.17443103 -0.031724498 0.08308335 0.008449037
-0.09480709 -0.08281136 0.044390995 -0.057287578 -0.10190594 -0.031042261 -0.03752218 0.010725425
0.068118006 -0.20282923 -0.042016756 -0.104415275 -0.009214546 -0.050560705 0.0075058998 -0.08016434
-0.06930105 -0.111974664 -0.0168084 0.045645252 -0.00028455377 -0.0096426215 0.017300256 0.03861164
0.018400792 0.029318418 0.019073514 0.046247058 0.017172428 -0.050073896 0.021139411 -0.013957857
0.03573025 -0.01359432 -0.0054668 0.06726682 -0.0132531235 -0.21784976 0.018102663 -0.122401744
0.078463025 -0.054507364 -0.121258415 -0.057792865 -0.05962443 -0.11886993 -0.028163299 -0.07739877
-0.019557746 0.0021565417 0.10811713 -0.06621162 -0.025741108 0.056743998 -0.010756067 -0.17884268
-0.043389246 -0.08727887 -0.045992266 -0.015306697 -0.025647352 -0.04566868 0.06369272 -0.044072688
-0.0036120163 0.09168906 0.003297692 0.007381964 0.22846502 0.042851195 0.006878976 0.053350843
-0.044048347 0.028279744 0.017007386 -0.008814441 0.1104126 -0.11885004 0.11738909 -0.020164961
-0.12590781 0.027814649 0.067668974 0.046343036 0.06532528 0.011578218 -0.054912753 -0.008383517
0.059327856 -0.015286232 -0.021963289 -0.006249737 -0.011848535 -0.031685013 0.012722161 0.013702162
0.032399215 -0.009080357 -0.017411599 0.015559357 -0.031751707 -0.09177809 -0.020834316 0.0038650832
-0.01664625 -0.017709956 -0.01003846 -0.056885302 -0.006367569 -0.050590046 -0.014800272 -0.29119375
-0.18125975 -0.10061302 -0.032771386 0.034575 -0.005517273 -0.02512664 -0.044367388 -0.0016365474
-0.022675501 0.20192221 0.062906764 -0.016668992 -0.00754342 0.090417944 -0.04440766 0.14882042
-0.08156526 -0.09137975 0.06582485 -0.018279007 -0.11199823 0.007016768 0.060869925 -0.023431778
0.060732525 0.13477176 0.1296402 -0.06447452 0.23889032 -0.040198255 0.085511744 0.09923975
0.059613276 -0.036361106 0.05110167 0.0011866388 0.15673123 0.016787997 -0.026977768 -0.00020340727
0.03255731 0.0100610675 -0.016738733 -0.092175744 0.07143465 0.15128179 -0.015085041 0.026105758
-0.0058743237 0.05401583 0.028996896 0.0102789495 0.020978773 0.0059385146 0.008178723 0.02026093
0.0019519391 0.01916874 0.002239279 0.008983227 0.0028562832 -0.15123668 -0.012159946 0.01490328
-0.016595678 0.0120722 -0.0006080605 -0.040482346 0.0018245046 -0.30982292 0.103816845 -0.14725076
0.15631592 0.0787954 -0.06290298 -0.28701773 0.09932065 0.01624226 -0.086439565 0.119975254
-0.032352455 -0.07229237 0.029517146 0.0413513 -0.048366107 0.009056785 -0.023665855 -0.2936658
0.0014670623 -0.11182136 -0.03502687 -0.040738296 -0.024684882 -0.23926581 0.023804825 -0.008441485
0.024304733 -0.058647946 -0.015937623 0.0057989894 0.11349751 0.020320246 0.07339679 0.08647187
0.06633346 -0.05501448 0.01776992 0.0029039548 0.08899908 0.08677896 -0.008746756 -0.033547293
0.049632292 -0.014971051 -0.20159435 0.005031742 0.0856129 -0.054675713 -0.04196581 -0.2834563
0.0395235 -0.015176542 -0.0038103953 -0.00083926105 -0.02261607 0.014100209 -0.025295245 0.010801612
-0.015474343 0.008935297 0.011398185 -0.0055572987 -0.055110946 -0.021727497 -0.04076007 0.06542082
00000000: 1506 e63d 3ee1 353e 66ee c83c 4735 8abd
00000010: 0c9e 323e 8cf1 01bd 9a27 aa3d d46d 0a3c
00000020: 382a c2bd 0199 a9bd 55d3 353d 61a6 6abd
00000030: 10b4 d0bd 574c febc dbb0 19bd b1b9 2f3c
00000040: 7481 8b3d 77b2 4fbe c319 2cbd add7 d5bd
00000050: 9bf8 16bc be18 4fbd 0df4 f53b 342d a4bd
00000060: b5ed 8dbd f952 e5bd c5b1 89bc 84f6 3a3d
00000070: 2930 95b9 16fc 1dbc 44b9 8d3c 3d27 1e3d
00000080: 42bd 963c 2e2d f03c 0f40 9c3c 8e6d 3d3d
00000090: 31ad 8c3c 491a 4dbd 8f2c ad3c 7faf 64bc
000000a0: e259 123d b6ba 5ebc d822 b3bb 30c3 893d
000000b0: a123 59bc 0214 5fbe 094c 943c c4ad fabd
000000c0: 39b1 a03d 1d43 5fbd 5556 f8bd 36b8 6cbd
000000d0: bf38 74bd 1472 f3bd b8b6 e6bc 3f83 9ebd
000000e0: 9137 a0bc c454 0d3b 846c dd3d f599 87bd
000000f0: 04df d2bc 656c 683d 373a 30bc 8922 37be
00000100: ecb8 31bd 44bf b2bd 6362 3cbd f1c8 7abc
00000110: 651a d2bc 150f 3bbd 5471 823d 9085 34bd
00000120: 94b7 6cbb 79c7 bb3d 171e 583b 67e4 f13b
00000130: bcf2 693e bc84 2f3d 0869 e13b 6a86 5a3d
00000140: 0a6c 34bd ecaa e73c 1353 8b3c 726a 10bc
00000150: 0020 e23d a667 f3bd b169 f03d fd30 a5bc
00000160: faed 00be 8cdb e33c 0896 8a3d 32d2 3d3d
00000170: 43c9 853d 91b2 3d3c 32ec 60bd 055b 09bc
00000180: c401 733d 1b73 7abc 5bec b3bc 98ca ccbb
00000190: 5c20 42bc 25c8 01bd 9c70 503c 087f 603c
000001a0: 0ab5 043d c7c5 14bc c5a2 8ebc acec 7e3c
000001b0: 140e 02bd 27f6 bbbd baac aabc 564d 7d3b
000001c0: b75d 88bc 7814 91bc 5a78 24bc 9000 69bd
000001d0: 0aa7 d0bb 8237 4fbd d77c 72bc 5917 95be
000001e0: 289c 39be 330e cebd 4a3b 06bd 849e 0d3d
000001f0: 3eca b4bb 62d6 cdbc 94ba 35bd 6b81 d6ba
00000200: f9c1 b9bc b2c4 4e3e 43d5 803d 698d 88bc
00000210: cb2e f7bb 0b2d b93d cee4 35bd 6164 183e
00000220: b00b a7bd 4e25 bbbd 2ecf 863d dbbd 95bc
00000230: 545f e5bd ebec e53b be52 793d 00f4 bfbc
00000240: abc2 783d 9c01 0a3e 67c0 043e 380b 84bd
00000250: aa9f 743e eda6 24bd c820 af3d 363e cb3d
00000260: 0d2d 743d 62ef 14bd fc4f 513d fe88 9b3a
00000270: 277e 203e fb86 893c 7b00 ddbc b949 55b9
00000280: d05a 053d 2dd7 243c ab1f 89bc a3c6 bcbd
00000290: 544c 923d 9de9 1a3e 3f27 77bc bedb d53c
000002a0: 667d c0bb b43f 5d3d e68a ed3c 0a69 283c
000002b0: addb ab3c df97 c23b 0d00 063c 40fa a53c
000002c0: 35d8 ff3a c307 9d3c dec0 123b 632e 133c
000002d0: 7b30 3b3b cadd 1abe 833a 47bc e32c 743c
000002e0: a9f3 87bc 7aca 453c 4066 1fba d1d0 25bd
000002f0: 3724 ef3a 1ca1 9ebe ed9d d43d e7c8 16be
00000300: 4811 203e 7c5f a13d 47d3 80bd fdf3 92be
00000310: a068 cb3d 7d0e 853c 3a07 b1bd 96b5 f53d
00000320: 0284 04bd 060e 94bd f1cd f13c fb5f 293d
00000330: 8a1b 46bd e962 143c e5de c1bc 5d5b 96be
00000340: 714a c03a 9902 e5bd 5678 0fbd 33dd 26bd
00000350: f337 cabc 1902 75be 5602 c33c 284e 0abc
00000360: b81a c73c d438 70bd 9e8f 82bc 7305 be3b
00000370: 6271 e83d a576 a63c 0e51 963d 2a18 b13d
00000380: d6d9 873d dd56 61bd 3992 913c 4750 3e3b
00000390: 2645 b63d 2bb9 b13d 8e4e 0fbc e368 09bd
000003a0: 3b4b 4b3d 2449 75bc c06e 4ebe 50e1 a43b
000003b0: d155 af3d a4f3 5fbd 57e4 2bbd 2f21 91be
000003c0: 65e3 213d 08a7 78bc d3b7 79bb db01 5cba
000003d0: 5645 b9bc 9004 673c f937 cfbc 3ff9 303c
000003e0: 1988 7dbc 5a65 123c 74bf 3a3c 001a b6bb
000003f0: 04bc 61bd ddfd b1bc 08f4 26bd 5afb 853d

decoder.3.bias f4 [16]
0.16630225 -0.031103715 -0.10130946 0.38208267 0.65311736 0.08900182 -0.03687401 -0.32178938
0.43991554 -0.071213774 0.3159162 0.25574422 0.06314541 -0.016773177 0.053330258 0.2807513
00000000: 234b 2a3e 38cd febc 567b cfbd 57a0 c33e
00000010: b332 273f 9646 b63d 3409 17bd 94c1 a4be
00000020: 9c3c e13e 87d8 91bd c5bf a13e e8f0 823e
00000030: 6152 813d e767 89bc d470 5a3d a2be 8f3e

decoder.5.weight f4 [16, 1, 3, 3]
0.16108714 0.46001086 0.34542033 0.49186122 0.8933047 0.50448924 0.3716353 0.49971315
0.18856545 0.20662238 0.03645097 -0.20644099 0.23325564 -0.16534874 -0.444937 0.0719279
-0.21233307 -0.31191367 -0.18546756 -0.45773157 -0.3059642 -0.44814667 -0.6636606 -0.32224163
-0.3738812 -0.43820474 -0.16268928 -0.12750942 -0.12961157 -0.15904371 -0.09005281 -0.034790926
-0.159432 0.004498907 -0.1147979 -0.19816525 0.15431988 -0.12832195 -0.2288541 0.10225591
-0.32091537 -0.3095817 -0.02399923 -0.14113343 -0.030143691 -0.34642324 -0.4332643 -0.12494409
-0.7519087 -0.6946373 -0.11086947 -0.5333183 -0.42115468 0.001396813 0.14828794 0.46451765
0.36276728 0.38602763 0.76406264 0.4789906 0.28640625 0.43770412 0.18891625 0.10269584
0.1639172 0.23671888 0.11889465 0.13289152 0.19745916 0.06473565 0.06796274 0.094457395
0.09834844 0.16125308 0.0623665 -0.1926105 -0.28898683 -0.2003707 -0.32773092 -0.4505723
-0.230469 -0.039726254 0.017749535 0.027057339 -0.38645318 -0.427772 -0.18700074 -0.494245
-0.5116062 -0.15544991 -0.0020537502 -0.24977326 -0.30019572 -0.09374447 -0.45127413 -0.3102547
-0.17201336 -0.29759702 -0.15311989 0.03975345 0.050851822 0.025885176 -0.17469698 -0.18246879
-0.02558032 -0.08564734 0.010786134 0.17089882 0.10297009 0.029832562 -0.02728635 0.33875963
0.4135239 0.19726062 0.50759363 0.62447923 0.3388392 0.11278579 0.32359898 0.36091548
0.27118978 0.6037275 0.51412326 0.24043414 0.40659264 0.33392814 0.18455738 0.50733334
0.3657821 0.5437724 0.90991926 0.5106395 0.4098762 0.5323136 0.18873829 -0.02153921
-0.1937575 -0.17577218 -0.08601633 -0.36923066 -0.09235648 -0.15793636 -0.26914653 -0.11573997
00000000: 07f4 243e 8b86 eb3e efda b03e 3cd5 fb3e
00000010: 9eaf 643f 3526 013f fb46 be3e 67da ff3e
00000020: 4d17 413e d194 533e 9d4d 153d 4465 53be
00000030: 91da 6e3e 2e51 29be c8ce e3be ef4e 933d
00000040: d76d 59be 26b3 9fbe 35eb 3dbe cb5b eabe
00000050: 57a7 9cbe 7b73 e5be a9e5 29bf dbfc a4be
00000060: 5b6d bfbe 5f5c e0be 0598 26be d491 02be
00000070: e5b8 04be 5bdc 22be 9c6d b8bd ee80 0ebd
00000080: 2442 23be 916b 933b 291b ebbd d5eb 4abe
00000090: 0806 1e3e d466 03be bb58 6abe 8c6b d13d
000000a0: 054f a4be 7e81 9ebe 089a c4bc 4885 10be
000000b0: e7ef f6bc 635e b1be d1d4 ddbe b0e2 ffbd
000000c0: 177d 40bf c0d3 31bf 880f e3bd 8c87 08bf
000000d0: 96a1 d7be 4415 b73a cbd8 173e 42d5 ed3e
000000e0: a2bc b93e 6aa5 c53e 9c99 433f 423e f53e
000000f0: d7a3 923e c11a e03e 4373 413e 3252 d23d
00000100: e9d9 273e 6f66 723e 0a7f f33d b714 083e
00000110: bc32 4a3e 2094 843d 0d30 8b3d e172 c13d
00000120: e86a c93d 871f 253e 0474 7f3d b03b 45be
00000130: 15f6 93be fa2d 4dbe 59cc a7be 6ab1 e6be
00000140: 1100 6cbe ffb7 22bd 7967 913c 5aa7 dd3c
00000150: 31dd c5be ee04 dbbe 1f7d 3fbe ae0d fdbe
00000160: a0f8 02bf 432e 1fbe 3698 06bb 90c4 7fbe
00000170: 41b3 99be 1afd bfbd 670d e7be b4d9 9ebe
00000180: 4524 30be a35e 98be 76cb 1cbe 83d4 223d
00000190: 004a 503d 260d d43c c4e3 32be 19d9 3abe
000001a0: d28d d1bc df67 afbd 53b8 303c 1a00 2f3e
000001b0: fce1 d23d 6b63 f43c a087 dfbc e771 ad3e
000001c0: 68b9 d33e b0fe 493e a8f1 013f dfdd 1f3f
000001d0: 557c ad3e 3cfc e63d c4ae a53e eac9 b83e
000001e0: 63d9 8a3e e38d 1a3f 959d 033f 5e34 763e
000001f0: e92c d03e a1f8 aa3e 9cfc 3c3e 99e0 013f
00000200: cb47 bb3e ab34 0b3f 78f0 683f 45b9 023f
00000210: 4bdb d13e b445 083f 9c44 413e ff72 b0bc
00000220: 5e68 46be 9ffd 33be 5429 b0bd cd0b bdbe
00000230: 6525 bdbd 12ba 21be 93cd 89be 1409 edbd
