model_b4.pt (torch, 199311 bytes, 11 tensors)

encoder.0.weight f4 [16, 1, 3, 3]
00000000: 58ad 86be a244 0dbe 9a14 b83d f108 cebe
00000010: 23ba 08bd 265c 4b3e 100d 47bc 27da 5e3e
00000020: 2732 943e f812 8b3e 58e4 f73d 8e9d 96be
00000030: b74c 1ebe 09d9 5b3e 856a 5fbe e531 a63e
00000040: 784f 89be 871e a13c 7107 c13d f48d 6cbe
00000050: 11cd 3ebe f5ea a03d 0fd5 6abe f735 743c
00000060: 88b5 8cbe e528 ac3d 3400 323e 865e 0d3e
00000070: 4604 2f3e 2001 c0bd 98ab 233e d854 2e3e
00000080: bf22 823c 851e 3cbe 4f53 873d 1375 91be
00000090: 4d53 8ebe 1c03 8a3d 8def 753e cff0 e33d
000000a0: a156 aabe c6ce eebd 64b5 cbbd cfdc 82be
000000b0: ec67 bf3d 9c4c dd3d d4a5 203c 7baf 843e
000000c0: 3e31 3bbe bbfc 3b3e 88ac 6cbe 6897 45be
000000d0: a4c7 4bbe c04b 91be 5b4f 863d 7072 eb3c
000000e0: 5752 96be e177 be3e b410 87be 14e5 cabe
000000f0: 4a40 943e dd33 583d e871 e83d 0b5f 1c3e
00000100: 8bd0 eb3d 88c9 54bd 64a9 5dbd 81b5 d1be
00000110: e648 bbbd 74c5 8e3d d448 37be 4dbf e6bd
00000120: 4627 68be d05f 5bbe 05b9 f0bd 6227 50bd
00000130: 19cd 40be 2588 7dbe 135a a73e ebc2 e8bd
00000140: 53c1 81bd 094d 81bd 6111 123e 394b 733e
00000150: bf20 8b3e c42d 813e b816 82be 953e 7cbd
00000160: 1298 c2be ee06 d8bd b19b 17be dc79 93be
00000170: 1418 57be bb49 133e dee7 833e 7483 38be
00000180: ab3f 42be 2224 4d3d 8971 3bbe 1cc5 87be
00000190: 2680 823e 2ac0 833e 6306 973d 3d15 993e
000001a0: 68c8 a7bd 9b94 403c 7957 0e3e 769c da3d
000001b0: 776c ab3d b31a eb3d 6a02 823c 9d5c 9a3d
000001c0: bab9 003e 72da 053e 2229 14be 5a1c ab3d
000001d0: ae90 933d 1fea 943e 6506 01be c3e4 0ebe
000001e0: 2aee 753e 036a a5bd 4ce3 36be fa2f 21be
000001f0: 1b14 31bd 2e62 62be 40c9 0cbe 9227 abbd
00000200: 0763 443e ee85 40be a14d e53b 82fa e63d
00000210: b592 823e 0d9a 773d eef2 bd3d 88a6 41be
00000220: b22f 26be 14de 0ebf 8a22 973e a5db 983e
00000230: ea39 ba3d 29cc 213e 84ea b63d 86ff 2a3e
-0.26304126 -0.13795713 0.089883044 -0.40241197 -0.03338064 0.1985937 -0.01214911 0.21762906
0.28944513 0.2716291 0.121041 -0.2941708 -0.15458952 0.21469511 -0.21817978 0.32459942
-0.26818442 0.019667877 0.094252475 -0.23101026 -0.18632914 0.078573145 -0.22932838 0.014905444
-0.27482247 0.084062375 0.1738289 0.13805589 0.17091474 -0.093752146 0.15983427 0.17024553
0.015885709 -0.18371017 0.06607687 -0.28409633 -0.27797928 0.06738874 0.24017163 0.11129915
-0.33269218 -0.11660533 -0.09946707 -0.2555909 0.093459934 0.10805628 0.0098051615 0.2591513
-0.18280503 0.18358128 -0.2311269 -0.19296038 -0.19900376 -0.28378105 0.065581046 0.028741091
-0.29359695 0.37200835 -0.2637993 -0.39627898 0.289553 0.052783836 0.11349851 0.15270631
0.11514386 -0.051950008 -0.05411662 -0.4095879 -0.09144764 0.06971255 -0.17898875 -0.112669565
-0.22671232 -0.21423268 -0.1175404 -0.05081881 -0.18828239 -0.24758966 0.3268591 -0.11365303
-0.06335702 -0.063135214 0.14264442 0.23759164 0.2717342 0.2523023 -0.25407958 -0.06158312
-0.38006645 -0.10548197 -0.14805485 -0.2880391 -0.21005279 0.14383595 0.25762838 -0.18018895
-0.189696 0.050083287 -0.18305029 -0.2651757 0.25488394 0.25732547 0.07374265 0.29899016
-0.08192521 0.01175418 0.13900556 0.10674374 0.083702974 0.11479702 0.015870292 0.07537196
0.12570849 0.13071612 -0.14468816 0.08355017 0.0720533 0.2908487 -0.12600096 -0.13954453
0.24016634 -0.08076861 -0.17860144 -0.15740958 -0.043232065 -0.22107765 -0.13748646 -0.08357157
0.19178401 -0.1880109 0.0069977795 0.11278249 0.25502554 0.06044965 0.09274851 -0.18911183
-0.16229132 -0.55807614 0.2951854 0.29855075 0.090930775 0.15800537 0.08931449 0.16699037

encoder.0.bias f4 [16]
00000000: feed 94bc 35dc 273a 054b 033e d69f 0a3e
00000010: 195b 513e 74b5 91be 7af7 3fbd cae0 27be
00000020: 58da 8dbe 6d73 d33c 1c10 9bbe e13e c03e
00000030: 37e2 c73e e22a b9bd a61b 993e 6f4f 373e
-0.01817989 0.0006403358 0.12821586 0.13537535 0.20444907 -0.2845875 -0.04686687 -0.16394344
-0.27705646 0.025811875 -0.30285728 0.37547973 0.39039776 -0.09041382 0.29903907 0.17901395

encoder.2.weight f4 [32, 16, 3, 3]
00000000: 3dcd 77bd ff28 10bd 52f1 52bd 557b adba
00000010: c469 34bd 26a4 ecbc 131c a13c a440 07bd
00000020: 5b5f 293e c6a1 d3bc 8c49 473c 9430 adbc
00000030: 64cd a2bd 0883 dfbd e2fe babb 5fc3 fabd
00000040: fd51 cdbd 2b0f ea3b a59c fc3c d32b 853d
00000050: b794 8b3d 4806 1a3d 6932 b13d 8566 b03d
00000060: 19ae c93d f37e cebc 2caa 593d d3d5 09be
00000070: 9ef2 81bd 8893 9cbd 8da4 21be 5fa6 e2bd
00000080: 1323 b6bd 0137 d1bd 0e13 0bbd f4d5 aa3d
00000090: 2630 b33d a0af c83d fb4d db3d 3dbc d63c
000000a0: 7bec ce3d ba8e 48bc cd5b f83d fa21 333d
000000b0: 82c2 823c 9138 473b 46e6 623c aa36 d33a
000000c0: 607f 663c 613a c5bd cc3a 813b 1315 3e3e
000000d0: 4ffb 773d 3486 b1bd b9d6 bebd e66b f0bd
000000e0: aa28 9ebe f15e 5fbe 698d 2cbe 2d3b f5bd
000000f0: 70ba 89be 2393 2ebe b7d7 cabc c514 db3d
00000100: 2fa9 a53d 44f2 963d 3836 ff3c 50e5 2dbc
00000110: 0619 623d 7118 02bc 4fa5 3cbd 9261 4cbd
00000120: c793 773d fc05 013e ae6b d23d b9da 54bb
00000130: bc66 813c 4331 8839 0f68 fc3d a891 5a3d
00000140: 39e6 713d 4dce 323d 9300 5abd 751e 3abd
00000150: 34e4 0bbe 9160 85bd 9848 8cbd b55f 2fbd
00000160: db16 87bd e506 42be 93e4 363e 7f8c 343e
00000170: aa34 fc3d cb50 f53d 5c8b c03d 6fb6 b1bc
00000180: 5219 bd3c 779f e23c 0397 5dbc 602a 4bbe
00000190: 4338 5fbe 5717 bbbd 9baa 61bd 1353 e6bd
000001a0: 6505 44bd de3a 00be 58f2 2abe b6aa 433d
000001b0: 1ea2 f5bd 6a4f 21be ac7c 7cbd e94f f7bd
000001c0: d530 d9bd 5ae8 1cbe 42dd 37be 8ad5 82be
000001d0: a0e3 6abd a31a 1b3c fb1e 19bd 9b4f b43c
000001e0: e758 7a3d 6ca8 6fbc 8016 173d a712 8f3d
000001f0: 46d6 1dbd 9bdf ebbd 9858 f2bd bc79 4cbd
00000200: 573c c53d 312c f03c db33 34bd 8d2f 143c
00000210: 06f4 86bd b22a a3bc d131 6bbc 3ee3 07be
00000220: 542f 82bd 3fd8 a6be 1cd0 93be 55a1 8bbe
00000230: a67a b0be b40c 5fbe 6975 40be 1da4 abbd
00000240: b4f0 bc3d 2f1b 803d 48fa 423d 14aa 3f3d
00000250: 9bab a4bd b6b4 2abe 13c8 743d 65b3 e6bd
00000260: 61fc 9cbd 714c b8bd 34af 47bd 0372 353d
00000270: bee5 d03d 5ab3 6e3d e85e d43d ba4f ae3d
00000280: 61b0 0f3c 91fa 943d 4bbd de3d b7ce 63bc
00000290: 3da0 a3bd bbdf 58bd ba61 af3d c9c7 c93d
000002a0: d698 07bc 4764 003d 3d6c 733d bdeb 03be
000002b0: 59ba fe3c a1a2 f03d 869f b2bd 1583 25be
000002c0: dc8b afbd 364c bbbd 1d44 18bd e428 a93d
000002d0: 90d8 343d e65a a63d 4b5a df3d 043b cb3d
000002e0: 8c49 e9bc 0fdc d13d 5f57 21bd a1be 8c3d
000002f0: 5168 433d 0af8 fc3c 1a3e 6d3d b8f2 2fbd
00000300: 7636 14bd d476 c6bc b46e d83c 6e79 223d
00000310: ff44 0abd 46f5 aa3c 7540 3fbd dd02 03be
00000320: c3ea 49bd 9b6c 363c 8daa 5bbc 712e 12bc
00000330: a2e1 09bd 7e1d db3b 3ad1 c33a 24c7 02bd
00000340: 01df 05bd c1c4 8bbd 284c 8cbd cb2b 71bd
00000350: f13e 403d f490 86bd a0f6 f1bc e89d 913c
00000360: 4b83 143e 2a8d 833d 87ab d9bd 59b9 833d
00000370: a888 b2bb d81b 25bd 10e3 fcbc a543 963d
00000380: 0d29 82bd 7471 b2bd 2140 fdbd 60cc 673d
00000390: 9d79 ebbd ae78 3abe 1eb5 72bd 9827 20be
000003a0: 2eb0 c2bd 35a7 da3d b795 ed3d 29c2 cebc
000003b0: 6557 c3bd 6f4a e53d 6862 a03d 2d39 84bc
000003c0: b8cd c2bc 6e09 863c cd91 973d d3d7 76bd
000003d0: 10c6 d93b b4d8 273e 2123 92bd 43ea edbd
000003e0: 1145 1cbe 2ece 1d3d a768 4d3d 5f22 65bd
000003f0: d40d 4abd e8b7 b5bd d46a 173e 0ae1 02be
-0.060498465 -0.035195347 -0.051499672 -0.0013235608 -0.04404618 -0.028886866 0.019666707 -0.03302063
0.16540281 -0.025833976 0.012163531 -0.021141328 -0.079493314 -0.10913664 -0.005706654 -0.12244295
-0.10025404 0.0071429214 0.030836413 0.065024994 0.068154745 0.037603647 0.08652193 0.08613304
0.098476596 -0.025207018 0.053140804 -0.13460474 -0.06345104 -0.07645327 -0.15785427 -0.11066889
-0.088934086 -0.10215569 -0.03395372 0.083415896 0.08749418 0.09799123 0.10708233 0.026212806
0.10103699 -0.01224106 0.121268846 0.043733574 0.01596189 0.0030398706 0.013848847 0.0016114314
0.0140684545 -0.096302755 0.0039437767 0.18562727 0.0605424 -0.08668175 -0.09318299 -0.1173933
-0.308904 -0.21813561 -0.16850819 -0.119741775 -0.26900053 -0.17048316 -0.024761064 0.10697321
0.0808891 0.07370427 0.031153783 -0.010613754 0.055199645 -0.007940398 -0.046056088 -0.049897738
0.060443666 0.12599939 0.102744445 -0.0032479002 0.015796058 0.00025976644 0.12324535 0.053361565
0.059057448 0.043653775 -0.053223204 -0.045439202 -0.13661271 -0.06512559 -0.06849784 -0.042815883
-0.06596156 -0.18947943 0.17860632 0.1763172 0.123147324 0.11978301 0.09401581 -0.021693436
0.023083363 0.02766393 -0.0135247735 -0.19840384 -0.21798806 -0.09135311 -0.055094343 -0.11246314
-0.047856707 -0.12522456 -0.1669401 0.047770225 -0.11993812 -0.1575295 -0.061642334 -0.120757885
-0.10605017 -0.1532301 -0.17955497 -0.25553542 -0.057345986 0.0094668 -0.03738306 0.022010615
0.06111994 -0.014627557 0.036886692 0.069859795 -0.038534425 -0.11517259 -0.11833304 -0.049920782
0.096306495 0.029317947 -0.043994766 0.00904454 -0.065895125 -0.01991782 -0.014355139 -0.1327028
-0.063566834 -0.32586858 -0.28869712 -0.27271524 -0.34468573 -0.2178219 -0.18794788 -0.083809115
0.09225598 0.06255185 0.047601968 0.04679306 -0.08040544 -0.16670498 0.05976112 -0.112646855
-0.07665325 -0.08998955 -0.04875107 0.044298183 0.1020007 0.05827651 0.103696644 0.085113004
0.008770079 0.07274354 0.108759485 -0.013904265 -0.079895474 -0.05294774 0.08563562 0.09852559
-0.008276185 0.031345632 0.059429396 -0.12882896 0.031094717 0.11749769 -0.08721833 -0.16163285
-0.08571598 -0.091453955 -0.037174333 0.082597524 0.044151843 0.08122806 0.10905894 0.09923366
-0.028477453 0.10247051 -0.039389964 0.06872297 0.047706906 0.030879993 0.057920553 -0.042956084
-0.03618475 -0.024226584 0.026419975 0.039666586 -0.033757206 0.020868909 -0.04669233 -0.12794061
-0.04929615 0.011134292 -0.013407362 -0.008922205 -0.033662446 0.0066868654 0.0014939674 -0.031928197
-0.032683376 -0.06824637 -0.06850463 -0.058879655 0.046935026 -0.06570616 -0.029536545 0.01777549
0.1450321 0.06423409 -0.10628419 0.06431837 -0.0054484196 -0.040309757 -0.03086999 0.07337121
-0.06355486 -0.08713046 -0.12365747 0.05659139 -0.11497805 -0.18210098 -0.059254758 -0.15640104
-0.0950626 0.106764235 0.116008215 -0.025239067 -0.095381536 0.11195838 0.078312695 -0.016140545
-0.023779735 0.016361918 0.07400856 -0.06026442 0.0066459253 0.1639126 -0.071356066 -0.116169475
-0.15260722 0.038526706 0.050148632 -0.055940982 -0.049329594 -0.08872968 0.14786845 -0.12781158

encoder.2.bias f4 [32]
00000000: 33fe 3f3d 05f1 17bc 3349 9bbd bd30 8c3d
00000010: d089 70bd eadc dbbb b4dd 62bd 7bf7 00bd
00000020: 6f46 313d 6962 43bc c18c cc3c ed9d 823d
00000030: 927e 793c a45b 8bbd 34ab f23c 0b01 663d
00000040: e30d 0a3d caa7 0c3d 21a4 aabd af5e 84bd
00000050: 6efd 673d 9e71 173c 2e25 bc3b 99b4 7d3c
00000060: f6a6 90bd 4f23 52bd 90ad abbd a418 afbd
00000070: da44 27bd aaf6 bbbb 8da4 043d 59c2 c03c
0.046873283 -0.009273772 -0.07582321 0.068452336 -0.05872518 -0.0067096846 -0.055387214 -0.031486016
0.04328006 -0.011925318 0.02496946 0.06377778 0.015227931 -0.068045884 0.029622652 0.05615334
0.03370465 0.034339704 -0.08332086 -0.06463372 0.056638174 0.009243397 0.005741737 0.015484952
-0.07063095 -0.051303204 -0.08382714 -0.08549622 -0.040837146 -0.0057361918 0.03238349 0.023530172

encoder.5.weight f4 [12, 1568]
00000000: 7b20 763b 35a4 31bc 16a4 c1bc 4c73 0abd
00000010: a9b8 25bd 4e5d 09bd 7e0b 2b3a 2d35 d93b
00000020: d4e2 13bd 4f85 f83b d534 e53c 3afc eb3c
00000030: 99a1 1ebd aaf6 4ebd 9bf9 1abd 416f 07bc
00000040: 3f9f 193c eb4b 8c3d 7f9f f8bd 7a39 fc3c
00000050: 439d 49bc 00d4 e03b 6928 9dbc 283e 88bd
00000060: 85c4 70bd 5715 17be 7f89 b73d fb6d 09bd
00000070: 8f53 d5bb 02d1 22bd 97ba d7bd 456e b8be
00000080: cecc 56be 0c8f 3d3c 5a28 c3bc fbd4 f43a
00000090: 34cf 823b 99cc ab3c 0a7f 0fbe 9a23 06bd
000000a0: 2150 6fbc 1ed9 07bd 3701 11bd 109d 893c
000000b0: 6cc9 773d fc1e 223e 71f1 3cbd 21de 4e3b
000000c0: b5a9 0ebd d813 a1bc e6bf 273c 682c 733b
000000d0: 8742 0abc f7d6 5dbd 33a5 4e3b 5721 233c
000000e0: 3abb bcbb d0ff 843b c74a 88bc ebc1 803b
000000f0: fa2a 58bd fdc0 d3bc ed56 703b b411 b23c
00000100: db08 61bc 52e1 60bc 4075 52bd 973a 0c3d
00000110: 2e01 7bbd 6f50 00bd ff4d 013d a900 2dbd
00000120: 2e55 99bd 1f16 1c3d e376 87bd 250a bb3c
00000130: 0b13 ccbb da03 06bd de4d a4b9 5e04 febd
00000140: fc85 abbd 7479 babd b031 fdbc 3f8f b9bc
00000150: 3eaa 363b 1996 02bd 68b3 8e3d b286 09be
00000160: eb7e 68bd 2142 97bc 1c23 49bc 9049 e3bc
00000170: dc40 7abc 96f0 a33c 0fd5 f53d 604c 84bc
00000180: 073f cabb fb3b a33b 6107 363c f855 f4ba
00000190: eca9 8c3b 4753 07bd f149 57bd cb77 2ebb
000001a0: 593e 7b3c 2334 7f3c dac3 523c 9f98 d9bd
000001b0: 4d4d f8bd ebd9 58bd 7437 8e3c c239 d5bc
000001c0: 9c41 113d 63de cabb 20f6 5abd b8c9 cebc
000001d0: 508e c4bd 450d 5b3c ad27 02bd 0aaa 023e
000001e0: e582 643d e133 08be 095c 00be c6ff 0d3d
000001f0: e2a0 3b3d a38b 843d 8bea a63c 32eb 033e
00000200: ce1e c13c 9484 df3b 6cab a2bd 63e8 633d
00000210: 23fb 8dbc 3960 0cbd c7c5 173d d70d 33bd
00000220: 465b a3bd bef3 38bd 1378 113d 0e6c a63c
00000230: 8a1d 6fbc 8bec 063c db23 c8bd d87f 02bd
00000240: 5be7 bd3b 16a5 1ebc bcba e5bc a671 7138
00000250: 9305 103c 69aa 063e cbee 6f3e 70a3 923c
00000260: f243 ee3d dc53 03bd 3e25 82bc 721e 8fbd
00000270: d23f cfbd 689c 91bd d345 433d dbd0 c43c
00000280: 2399 5e3d 6424 293e 54af 74bc c434 49bc
00000290: 1092 173e 44b8 fa3d ae26 2dbd e49e 9f3d
000002a0: d210 d5bd 1542 33bd 2a53 ae3d c721 c43d
000002b0: 1e50 693d a48f ee3c 48f2 613d 71b1 11bd
000002c0: 97ff 04bd 1b56 7a3d 5d4b 943d 9563 c8bd
000002d0: ab0c ad3d d9d2 003e 119a aebd ca2b 2cbd
000002e0: e9b0 b5bd 3abf e1bd 1723 adbd 51d4 dc3c
000002f0: 27aa 4e3d 8874 8e3c fe1f e33b a1ee fdbd
00000300: e333 f0bd c6ce f5bd 529d bcbd 10a7 f83b
00000310: bd6d 3dbc 8ead b9ba 95e7 1cbd f99c 13bc
00000320: 739b 963c a8e5 bf3b 92e7 a0bc ddce ebbb
00000330: f1db a6bc 0e43 363c 6477 f1bc aae8 663b
00000340: ab81 dfbc 537e d3bb bfb8 e83c 7fa3 a2bc
00000350: 1b8c 24bd 586f 203d ee23 4dbc a456 273c
00000360: 9d75 4c3c c3f4 9dbb f575 7c3b f44f 00bd
00000370: 04e3 d6bd 6130 523d e913 d7bd 7fa8 8e3c
00000380: 91bf 12bc 98b0 2fbd ce52 41bd 1c67 123e
00000390: 245e f3bd e127 90bc 020a 843b c1d2 89ba
000003a0: 859f c2bc ecbd 4cbc 1063 0aba 010e b3bd
000003b0: f60a e5bc 2da0 9fbc ac6a 83bc df94 a2bc
000003c0: a3c2 18bd 041a a5bd 0918 393d a7a9 d2bc
000003d0: e9f2 08bd 58c3 69bc 827d 5fbb d418 2dbb
000003e0: 7073 873d 5a68 8d3d 4c09 8e3d 3121 4bbb
000003f0: d91c 6e3c 1bbb e1bd 9af1 94bd 1864 1bbc
0.003755598 -0.010842373 -0.023637813 -0.033801362 -0.04045931 -0.033536248 0.0006524845 0.0066286535
-0.036104992 0.007584251 0.027979294 0.028806794 -0.03872833 -0.050528206 -0.0378357 -0.008266271
0.009376346 0.06850418 -0.121397965 0.030789126 -0.0123055605 0.00686121 -0.019184308 -0.0665248
-0.058781166 -0.14754234 0.08961772 -0.03355215 -0.006510205 -0.039750107 -0.10533636 -0.3602163
-0.20976564 0.01156975 -0.023822952 0.0018679196 0.0039919857 0.020971583 -0.14013305 -0.032748796
-0.014606507 -0.033166043 -0.03540155 0.016798526 0.060494825 0.15832132 -0.046128694 0.0031565505
-0.034829814 -0.019662783 0.010238623 0.0037105326 -0.008438713 -0.054160085 0.0031531572 0.009956679
-0.005759624 0.0040588155 -0.01663722 0.003929367 -0.05277536 -0.02584886 0.0036672906 0.021736957
-0.013735021 -0.013725596 -0.05138135 0.034235563 -0.061280422 -0.031326707 0.031568523 -0.042236958
-0.0748695 0.038107034 -0.06614473 0.022831986 -0.006227856 -0.032718517 -0.00031338533 -0.12403177
-0.08375165 -0.091051966 -0.030907482 -0.022651313 0.0027872468 -0.031881426 0.06967813 -0.13430288
-0.056761663 -0.01846415 -0.012276437 -0.027745038 -0.015274253 0.020012181 0.12003528 -0.0161497
-0.006172064 0.0049815155 0.011110158 -0.0018641343 0.004292717 -0.033038404 -0.05256075 -0.0026621695
0.015334689 0.015576395 0.012864077 -0.10624813 -0.12124119 -0.052942198 0.017360426 -0.026028518
0.03546296 -0.0061910613 -0.05345738 -0.025242671 -0.095974565 0.013369863 -0.03177612 0.12760177
0.055788893 -0.1330104 -0.12535109 0.034667753 0.045807727 0.06471946 0.02037551 0.12882689
0.02357426 0.0068212245 -0.079428524 0.055641543 -0.017331665 -0.034271453 0.03705385 -0.04371437
-0.079763934 -0.045154326 0.035514902 0.020315196 -0.014594445 0.008235107 -0.09772464 -0.031860203
0.005795402 -0.009682914 -0.028043143 5.756472e-05 0.0087903915 0.13150944 0.23430936 0.017900199
0.11634053 -0.032062396 -0.0158869 -0.06988229 -0.10119595 -0.0710991 0.04767401 0.024025371
0.05434526 0.16517788 -0.01493438 -0.012280647 0.14801812 0.12242177 -0.042273216 0.07793978
-0.10403599 -0.043764193 0.08511956 0.09576755 0.05696117 0.029121228 0.055162698 -0.035569612
-0.032470312 0.061117273 0.07240937 -0.09784619 0.08449682 0.12580432 -0.085254796 -0.042033948
-0.088716336 -0.11022802 -0.084539585 0.02695671 0.05045524 0.01738955 0.006931304 -0.123990305
-0.117286466 -0.120023295 -0.09209694 0.007588275 -0.011561808 -0.0014166103 -0.03830679 -0.009009593
0.01838467 0.0058562346 -0.019641671 -0.007196291 -0.020368548 0.0111243855 -0.029475875 0.0035233893
-0.02728351 -0.006454268 0.028408406 -0.019853352 -0.040172677 0.039168686 -0.012520773 0.010213528
0.012479213 -0.0048204376 0.0038522456 -0.03132625 -0.104925185 0.05131567 -0.105018444 0.01741433
-0.008956806 -0.042893022 -0.04719811 0.14297146 -0.1188319 -0.01759714 0.0040295133 -0.001051508
-0.023757705 -0.012496453 -0.00052790437 -0.087429054 -0.027959328 -0.019485557 -0.016042076 -0.019846378
-0.037294995 -0.08061603 0.045188937 -0.025715662 -0.033434782 -0.014267765 -0.0034101908 -0.0026412504
0.06613815 0.06904669 0.06935367 -0.0030995125 0.014533245 -0.11022016 -0.07272644 -0.009484313

encoder.5.bias f4 [12]
00000000: f8b4 a7bc 7b3d 2b3c ce9b b7bc 0863 6e3c
00000010: dc65 91bc 8eab babb 684b 1a3d 845e e5bb
00000020: 6318 92bb 2862 63bc 6c51 c03c 405d 9f3c
-0.020472035 0.01045167 -0.02241316 0.014549978 -0.017748766 -0.0056967204 0.03766957 -0.0069997925
-0.0044584735 -0.013878383 0.023476325 0.019453645

decoder.0.weight f4 [1568, 12]
00000000: ca88 903f c9c6 c83f 7114 643f 526d 2abf
00000010: 6017 55bf 1bca 22bf aebe 83bf 6e71 9ebf
00000020: 6f4a 733f cf97 e1bf 132f ccbf da3a ccbf
00000030: 19f7 50bb d786 2abd f66d 4bbd 9308 41bc
00000040: 7a31 8c3d 6cad 5f3d 643a dfbd 5c45 793d
00000050: d0bf 793c 36ea a83c 7300 dabc e71b e33d
00000060: 2cc1 333d 48ca 273e 2724 1c3d f1e0 2a3e
00000070: 7c9f e03c cbc4 fcbd d889 a23d 9385 67bd
00000080: fefc a73d 381a 693e 087c a5bd e9ac a73c
00000090: b624 8d3f 4805 c03f 2b1f 563f 9afa 34bf
000000a0: e97e 64bf dd80 40bf e1fb 8cbf 6192 a7bf
000000b0: 664e 5a3f 3964 f1bf 5741 c2bf 0877 c4bf
000000c0: 8b59 2dbe 004a 123e 16f1 d03e 3621 193e
000000d0: b6b0 25be bb9a 87bd b0cf 963d f5e4 473d
000000e0: e535 31bd 32a3 cbbc 4368 a7bc 66dd f43d
000000f0: 6881 6fbd 766e 0c3e c7a6 b13e 407d 693e
00000100: f8ee cb3c fe2e 983c 88e9 4d3e 3b94 77be
00000110: 1205 a53c 5fb3 203e 5eb2 9d3c 48d5 b7bd
00000120: a737 88bd b7a4 f93d 5c9b 78bd 63e9 d03d
00000130: 02e5 6e3d 68ba 373e 0cee 22be 2391 01bd
00000140: 0385 12bd 595a 2f3e 311b a6bc dc50 2dbe
00000150: 796f b83d cd1a 9abd 5c72 88bc dcbc 8f3d
00000160: cad1 e43d 7674 c03c dcbe 1c3e c08d 5b3d
00000170: 863e 68bd a143 42be 3868 543e a817 d13c
00000180: 31a0 873f eb78 c73f c62f 5d3f 8f6d 33bf
00000190: 5115 66bf 4624 33bf baad 8cbf e228 abbf
000001a0: c576 683f 6d55 f2bf 9a47 cfbf c0fc c3bf
000001b0: 05b0 533e 7916 023e 7650 f8bd d548 2abe
000001c0: e171 a03d aa29 61bd 9fc5 093e a841 703d
000001d0: 42c2 8abd 5956 ed3d ca32 11be 89ec 163e
000001e0: a482 2d3e 8bf1 d43a 2e27 81bd 11cf 31be
000001f0: 5360 7a3e d871 2d3e 52e7 8fbd d36a 5b3e
00000200: 666f 9abd 9eaa 843e d162 15be 8aaf dc3d
00000210: 23e1 133e 6453 1e3d a33e 323e 1918 01be
00000220: 9620 8bbe 1edc 87be 1458 a9bd cb9c 70be
00000230: bc66 e43d b33b 93be 2835 5dbe b483 3ebe
00000240: fac7 1f3c bfb4 78be 1aff dc3a 6244 8d3e
00000250: 6221 6cbe 6243 5a3d 3fdd 953d d3fe 5c3d
00000260: 686b 063e 176d 2b3e 1a0e 4539 efbc 96be
00000270: 46bc 91bd 33f6 39be cb13 f03d 9106 5c3e
00000280: 4052 afbd 9f5c d2bd fc7b 0d3e b94f a9bd
00000290: 920b e83d c18c b3bd 9b5d 223e 8cc3 8ebc
000002a0: 776e 8b3e d39c b7bd 8f38 cd3d 252c 033e
000002b0: 7d7a cfbc ddbf 453e 6cc3 31bd 3742 9abd
000002c0: 0797 083e 52f5 66bd 675e 8d3d 994c 52be
000002d0: 2fe7 81be d364 8e3d eb89 ae3d 7778 aa3c
000002e0: 4a71 04bd 9f6e 213e 6045 613d 4cae 1e3d
000002f0: d4e9 5dbe ac5c a7bd 10b9 65be c2e7 f23c
00000300: 3f5a 88bd 1a0c 463e 5bf2 adbe c7de 51bd
00000310: 4cd7 c2bd 5fa6 a93c fd61 123d 08b3 943d
00000320: 428b 42bd f80b e73d 4144 42be ef0c 9abd
00000330: afee 81be bcba 2a3e 64f7 003d c0cf 313d
00000340: 2e13 9c3d a584 67be 88c8 ff3d 01ea 823e
00000350: acca 343e fb9f 083d 7fae 873b 6676 a93d
00000360: 8fc3 4a3d f8f5 a7bc 7b9d 143e a92d e43d
00000370: 798b 6dbc 6b10 14be 3ec1 983d 6171 36be
00000380: 0c31 70be 9716 453e 23f7 6a3e 70e4 fa3d
00000390: 6322 edbd 1cbe 8cbe 7ff0 f1be 7c6a ee3e
000003a0: d05c 1d3e 0609 e83e 7745 053c 0a1d 80be
000003b0: 6c7a 183e 3784 81bd ec96 fcbe d69d 083e
000003c0: 3e3f bdbe d500 21be 4535 863e bd6f b0bd
000003d0: 5202 6ebe 00a1 7dbb 347f 563d f4ca b3bd
000003e0: 4eb2 003e c084 013e aa94 793d 6cdb f13d
000003f0: b07f fa3d 2e6d ddbd c1a5 afbd 2227 023d
1.1291745 1.5685664 0.8909369 -0.6657306 -0.8323879 -0.6358964 -1.0292566 -1.2378366
0.9503545 -1.7624453 -1.5951866 -1.595546 -0.0031885563 -0.0416325 -0.049665414 -0.011781829
0.068453744 0.054608747 -0.10899809 0.060857162 0.015243486 0.020619493 -0.026611542 0.11089306
0.043885395 0.16385758 0.038120415 0.16687371 0.027419798 -0.12342223 0.07936448 -0.05652387
0.08202551 0.22763908 -0.08080298 0.020468192 1.1026828 1.5001612 0.8364131 -0.7069489
-0.8925615 -0.7519663 -1.1014367 -1.3091546 0.85275877 -1.885871 -1.517619 -1.5348825
-0.16928689 0.14286041 0.40808934 0.14954075 -0.16180691 -0.06621309 0.07363832 0.048802335
-0.04326429 -0.024858091 -0.020435458 0.11956291 -0.05847302 0.13714013 0.34697554 0.22801685
0.024894223 0.018577095 0.20108616 -0.24177639 0.02014402 0.15693425 0.019250091 -0.08976227
-0.0665124 0.1218962 -0.060695037 0.10200765 0.058323868 0.17942202 -0.1591112 -0.031632554
-0.03577138 0.17124309 -0.020276638 -0.16925377 0.09005637 -0.07524643 -0.016656093 0.07018444
0.111728266 0.023493033 0.15307182 0.05360198 -0.056700252 -0.18971111 0.20742881 0.025523975
1.0595762 1.5583776 0.8640102 -0.7008905 -0.89876276 -0.69977224 -1.0990517 -1.3371851
0.9080623 -1.893232 -1.6193726 -1.5311508 0.20672615 0.12703885 -0.12124722 -0.16629346
0.07834221 -0.054971375 0.13454293 0.058656365 -0.06775333 0.11588735 -0.1417953 0.14738669
0.16944367 0.0016246302 -0.06306301 -0.17364146 0.24450807 0.16937959 -0.07026543 0.21427469
-0.07540779 0.2591142 -0.14588477 0.10775669 0.14441352 0.038653746 0.17406707 -0.12606849
-0.271733 -0.26535124 -0.08268753 -0.23497312 0.111524075 -0.28756484 -0.21602309 -0.18604928
0.009752268 -0.24287699 0.0016860694 0.27591234 -0.2305961 0.053286918 0.0731759 0.053953957
0.1312691 0.16740833 0.00018792637 -0.2944102 -0.071159884 -0.18160324 0.11722525 0.2148688
-0.0856061 -0.10271572 0.13816828 -0.08267159 0.11330332 -0.08767081 0.1585602 -0.017427228
0.27232715 -0.08965459 0.10020553 0.12809809 -0.025326962 0.19311471 -0.04339926 -0.07532161
0.13338862 -0.0563863 0.069027714 -0.20537032 -0.25371692 0.069528244 0.085223995 0.020809395
-0.032334603 0.15764855 0.0549978 0.03874044 -0.2167123 -0.08171973 -0.22433877 0.029651526
-0.06657838 0.19340554 -0.33973965 -0.051237848 -0.09513721 0.020709215 0.03573798 0.0726071
-0.047496088 0.1128158 -0.1897135 -0.07521998 -0.25377414 0.16672796 0.03148593 0.043411016
0.07620846 -0.22609194 0.1248942 0.25569156 0.17655438 0.033355694 0.0041406746 0.08274536
0.049502905 -0.02050303 0.14513199 0.111415215 -0.014498585 -0.14459388 0.07458733 -0.17816688
-0.2345621 0.19246899 0.22945838 0.12250602 -0.11578824 -0.27488792 -0.47253796 0.46565616
0.15367436 0.45319384 0.0081342375 -0.25022155 0.1489045 -0.06324046 -0.49333894 0.1334146
-0.36962312 -0.15722974 0.26212516 -0.086150624 -0.23243073 -0.00387007 0.052367404 -0.087789446
0.12568018 0.12648296 0.060932793 0.118094295 0.12231386 -0.1081184 -0.08576537 0.0317756

decoder.0.bias f4 [1568]
00000000: 4d9f 35be 4c7e 483f 037d 743e de82 1ebe
00000010: 5494 e53e 632a 963e ff33 eb3e 8a81 e03e
00000020: dcd6 64be d6e3 62be f011 063f 7373 5a3d
00000030: bbff b8be c1e4 533e d71f 993e b16e f6bd
00000040: 5b0e 8ebe 7fc1 1f3d 21e1 87bd e685 3a3e
00000050: 964e 103e 53e1 803e 4f91 d2bd a34b 4ebe
00000060: 4fc9 acbd fb61 ff3d 190b 42be 0c5b 23bc
00000070: f567 023f db24 ab3d 0ab8 153e 816a b33d
00000080: 3639 79bc 5b6b 733d 56b7 033f 90bd 6e3e
00000090: ea97 5abe 6264 31be c774 2e3e d3dd a13e
000000a0: d19e 6cbe ae2d 7d3e 0cd9 b4bd 53b6 a63d
000000b0: c3f6 353c 0926 373e cb8d 923e a084 32be
000000c0: 8ea2 c63e 5435 383e b157 7e3e 6c55 f43d
000000d0: 829a 2f3e 76ae 93bb a6e2 27be 3b03 6a3d
000000e0: 9c5a 16be 4afc 323b f06d 4a3e e887 06be
000000f0: 5e4d 4b3e e417 16bf 76f6 d7bd 3e18 fb3d
00000100: 9143 1dbc 5203 aa3e cf16 693d daef bfbd
00000110: e036 083e 8847 b63e 6f00 d13d 6ef7 773e
00000120: 5c47 823d 0d77 94bd bfbf 98be 46c6 0e3e
00000130: ed8f f73d 8116 5abe c342 25be 0ed8 debe
00000140: 6d06 63be cb08 bc3d 3dbd 80be 277c a43e
00000150: e076 07bc 3935 9cbd ece6 83be 4eb4 95bd
00000160: dbcd fd3d 0d9a 2fbe e1dd 0b3e 52a1 273e
00000170: 4666 18bd fc93 263f bed4 d2bd c381 48be
00000180: 0c03 ca3e c33d 953d fe25 753e 1c6b ae3d
00000190: 9d24 333e 0e4b 0d3c 5b1d 75be 4e10 4cbe
000001a0: 262c d53e 9d0d 5e3d 7fe7 433d c6fe af3e
000001b0: e9d3 dcbd bcf9 993d 2c11 b9bd 1173 943e
000001c0: 385b 783e 3985 803e 228f 363e 5146 74be
000001d0: 00a7 083e e614 7abd 7d24 653e 76d6 c63d
000001e0: b4d0 7cbb 8a64 0b3c a5c4 83bd ad93 19be
000001f0: 6876 513e 0cfd c9bd 589e d43d 56cc a43c
00000200: 139c f4be 2d36 81be a4fa d73e c1f3 80be
00000210: b023 813e 500b 2e3d 90ba 1f3e b766 31be
00000220: 84d8 a03e 47e3 2abe b241 f63d e58e 963e
00000230: 4af2 33be a4ef f93c 60e7 a93e 4383 7e3e
00000240: f814 2f3e 6232 663e f088 cdbd 4a5c 2f3d
00000250: d65b d33d b1be 053e 1fcb bdbd 585a 5bbe
00000260: f22f a3be 2bb3 3fbe 77b5 b4bc 0c41 74be
00000270: 3679 15be a4c9 2cbd 9ff7 16be a33a 31be
00000280: 29c0 c13b 5011 6e3e 4455 683e 01b5 25be
00000290: 632c 6bbe 68bc 863e 2b90 e33d 1c6a e7bd
000002a0: 4c90 5bbe 8598 8c3e 068e 11be 46b8 24bc
000002b0: a38b b5bc 2207 c2be 07de cdbd 0835 89bd
000002c0: 43dc 1cbe b063 c13e 7fb1 7c3d 9e4e febd
000002d0: 783a 50be a9f5 61bd 1be6 013e 9586 7b3e
000002e0: d3ea a73c 45fc 3cbe 16e7 c33e 4351 4b3e
000002f0: 52cb debd 51ca 733e f483 313e a26f 20bd
00000300: addd 82be eac8 17bd 5b01 58bd 5aa9 b9bc
00000310: f113 cd3e 2363 1f3e 7bb3 033d 3237 cabd
00000320: 24ee 733e 908b c93d 897f 583d c782 bf3d
00000330: 8135 91be 4adc d8bc 09a8 7cbe 7552 f3bd
00000340: 957f 04be 8b9c 89bd 8c1f 513e 3c40 65be
00000350: 0343 b2be 64d1 283b 8bdf e5bd d57a a3be
00000360: 2d37 00bf 16cc a1bc f02f 4abe 8f67 d13d
00000370: 7902 33be 250a 773e ba85 3bbe a1c3 363e
00000380: 210a cd3c e17c d3bd ed2b a5be 5ca4 89be
00000390: 3ceb f0bd c321 0ebe 24f4 6abe d972 51be
000003a0: 5eb0 843e aec0 523e b252 88bd 52c0 953d
000003b0: 08f7 23be 2e0e 1ebd b58d 9f3e 27a4 303e
000003c0: 4646 b83e d7cf 043e 5646 5a3d 0fb9 883e
000003d0: e4ca 30be 4919 bdbc cd40 4fbe 11ce 55be
000003e0: 3702 cabd 1f35 483e 1062 793e 22d1 f13d
000003f0: f750 553e 7cfc 083e f6f9 863e 7c85 223f
-0.1773655 0.78317714 0.23875813 -0.1547961 0.44839728 0.29329214 0.45938107 0.4384883
-0.22347587 -0.22157225 0.5237112 0.053332757 -0.36132607 0.20692731 0.29907104 -0.120328315
-0.27745327 0.03900289 -0.06634737 0.1821514 0.14092478 0.2517191 -0.10281622 -0.2014604
-0.08436834 0.1246986 -0.18949546 -0.009970438 0.50939876 0.08356639 0.14620987 0.087605484
-0.015211394 0.059428554 0.51451623 0.233145 -0.21347013 -0.17323449 0.17036735 0.3161455
-0.23107459 0.24724457 -0.08830461 0.08140244 0.011106196 0.17885603 0.28623804 -0.17433405
0.38795894 0.17989093 0.24838139 0.119303554 0.17148784 -0.0045068813 -0.16395053 0.057131987
-0.14683002 0.002731102 0.197685 -0.13137782 0.19853732 -0.58630204 -0.105450556 0.12260483
-0.009598629 0.33205658 0.056906518 -0.0937192 0.13302183 0.3560145 0.10205161 0.2421548
0.06361267 -0.0724927 -0.2983379 0.13942823 0.120879985 -0.21297647 -0.16138749 -0.43524212
-0.2217042 0.091813646 -0.25144377 0.3212597 -0.008268088 -0.07627339 -0.25762117 -0.07309781
0.123927794 -0.1714861 0.13658859 0.16370133 -0.03720691 0.65069556 -0.102944836 -0.1958075
0.3945545 0.07287171 0.23940274 0.08516523 0.17494436 0.008623851 -0.2393698 -0.19928095
0.41635245 0.0542122 0.047828194 0.34374064 -0.10782606 0.07518336 -0.090364784 0.2899404
0.24253547 0.2510164 0.17828038 -0.23854949 0.13344955 -0.061055087 0.223772 0.09708874
-0.0038576545 0.008507857 -0.06433991 -0.1499774 0.20455325 -0.09862718 0.10381764 0.020116966
-0.47775325 -0.25236645 0.4218341 -0.2518597 0.2522254 0.042491257 0.15598512 -0.17324339
0.31415188 -0.16688262 0.12024249 0.29405895 -0.17572895 0.030509777 0.33184338 0.2485476
0.17097843 0.22480157 -0.100358844 0.042812623 0.10320251 0.13061024 -0.09267258 -0.21421182
-0.31872517 -0.18720691 -0.022059185 -0.23852938 -0.1459702 -0.042184487 -0.14742897 -0.17307524
0.0059128 0.23248792 0.22688776 -0.16182329 -0.22966151 0.26315618 0.11111482 -0.11299536
-0.21441764 0.27460113 -0.14214334 -0.0100537 -0.02216131 -0.37896067 -0.10052114 -0.06699568
-0.15318398 0.37771368 0.06169271 -0.12417339 -0.20334804 -0.05516592 0.12685435 0.24563058
0.020497715 -0.18455608 0.38262242 0.19855218 -0.10878624 0.23807646 0.17335492 -0.03916896
-0.2555975 -0.03705684 -0.052735668 -0.02266376 0.40054277 0.15565161 0.032153588 -0.09873809
0.23821312 0.098410726 0.052856002 0.09351116 -0.28361133 -0.02647223 -0.24673475 -0.11880962
-0.12939294 -0.06719311 0.2042219 -0.22387785 -0.3481675 0.0025759572 -0.11224278 -0.3192965
-0.5008419 -0.019750636 -0.19744849 0.1022483 -0.17481412 0.24124964 -0.18312731 0.17848064
0.025029244 -0.10326553 -0.32260075 -0.2688321 -0.117636174 -0.13880067 -0.22944695 -0.20453967
0.25915807 0.20581314 -0.06656398 0.07312073 -0.16012204 -0.03858774 0.311628 0.17250119
0.35991114 0.1296991 0.053289734 0.26703689 -0.17264897 -0.023083346 -0.20239563 -0.2087939
-0.09863704 0.19551514 0.24353814 0.11807467 0.20831667 0.13377565 0.2636258 0.6348493

decoder.3.weight f4 [32, 16, 3, 3]
00000000: 9bee a23c 1aeb 5e3d 5f31 59bc 0f2f 3abd
00000010: 9784 163d 0a49 b53c 576d 8a3d 18c9 a4bd
00000020: f8aa bbbd 8cdf 27be cf25 0a3e 01b2 a03c
00000030: c36e 733d 7d17 103c a38c c3bd d924 933d
00000040: 9e74 903c 4433 f03b 48e8 c13d 1129 8c3d
00000050: d4ae 96bd b73b 6ebc 6c05 f73c 56ae a5ba
00000060: 84dd 1c3e 0a2f b2bc 49cc d53c b23a 883d
00000070: 18e7 8cbc 8a9c 443b 8836 213d 67b5 92bd
00000080: ffca 7fbd dc1c 8fbd 30b6 77bc ba02 cfbc
00000090: efb0 25bd 3f3e 463c 4f15 76bd 85b6 1abd
000000a0: 69ba 90bc 5c58 77ba 33be 75bd b93a 863d
000000b0: 6942 61bd e966 da3d 2b3e 0a3d 5b3e 40bd
000000c0: c478 00be 0152 91bb 17fc d13d 2cd6 89bd
000000d0: f704 863b 9e74 bb3d 44c1 273d b9b7 0d3b
000000e0: 2ce1 00bd 6cc9 c9bc a885 613b 7a35 3e3d
000000f0: d578 86bc 162f 99bc 2e33 adbc 743e bb3d
00000100: 4f59 6d3b b1de 86bc 9a91 bebd e369 5f38
00000110: 4a39 50bc 38ca f63c a91a 26bb be17 52be
00000120: c9a7 1e3c 9930 bbbd 21cf 7ebc 7706 ec3a
00000130: 2c69 8f3c 8d78 f2bc dcb2 0ebd 179d 843d
00000140: 8530 9bbc 1cd6 393d 0518 fdbb abf3 23bc
00000150: 664c 99bc fc8c 9dbc 60ce e03c 7bc6 38bc
00000160: 5d05 e73d 7f2e 85bb bc72 b73d 0496 b83b
00000170: 2670 563d 8b36 48bd 4e74 863c 0997 a4bd
00000180: 01e8 4bbd aa7a a0bd 00d4 03be abf8 c63c
00000190: 32a3 e0bd f66d 94bd eda3 f93d 45fd 8bbb
000001a0: 0242 cdbd 60b6 c5bc e157 98bd 21d1 87bd
000001b0: 2282 3f3d a3fb 8f3c 5116 92bd 12c6 fe3c
000001c0: 139a 95bd fc37 c6bd 9663 613d ca65 74bd
000001d0: ed82 25bd 23b3 0a3d 3807 bb3c 7a68 2e3c
000001e0: 8982 593c 84b6 093c 46e1 52bc 88c5 ae3b
000001f0: c3fd 1bbd 85b3 1abd f339 d9bb b617 e5bb
00000200: e147 07bc 9aeb eb3b 6f63 f3bc 34dc bfbc
00000210: 6868 8d3c 2413 573d af3c 0c3d 8bcf dbbc
00000220: 1f31 30be f252 afbd 8758 273d e395 763d
00000230: 7a13 8b3c e90e bdbd f460 7dbe 127a 7b3d
00000240: 30a3 193d be11 dcbd 4313 5ebd f878 83bd
00000250: 4476 16bb c1c6 073c c3e4 91bd 53c4 2fbe
00000260: a1eb bcbd 4615 033d 6df1 05bd d516 d43b
00000270: ef84 1bbd adcd 92bb f735 7cbe 5518 16bd
00000280: 4c55 3ebd 0e93 123d 0c50 22bc 475c e5bc
00000290: 87b8 593b 7997 4dbc 45c3 c2bd 4a52 6b3b
000002a0: fab8 fdbe 2026 a8bd 7ff8 27be 754a 7cbe
000002b0: f18d 2abd 6a77 93bd ea12 3abe 1e2e 0abe
000002c0: 2ea5 14be 3404 1abe 13de 47bd 440f ba3d
000002d0: 8a6f a2bd 4bb6 453b 288b 6cbd 96c3 cf3c
000002e0: 4195 52be cae6 c6bc 9210 023e bb30 4bbd
000002f0: 735c a23d 2a31 1dbe 8fa6 cebd d6eb f1bd
00000300: 2461 e6bd ea4c 973c 3f55 3f3e 14bd da3a
00000310: 1120 b4bd afe1 1abd f841 a5bd 2c93 0fbd
00000320: 0d0d 113d f3b6 4bbd a892 28bd f2c7 433d
00000330: dff4 85bd a44c eebb f839 d5bc 1d9c d6bd
00000340: d013 0ebd f41f cebd ec2c b5bd 9d80 a9be
00000350: 6215 09bf a8b4 a2bd 2f28 cfbd 23c3 89bd
00000360: 3b50 b03c 328a 85be fc95 1b3c 8798 36bd
00000370: d3b1 7dbd 99a4 63bd d311 393d 0108 e73d
00000380: 77ea debc 8b44 a3bd 7c43 08be 0ff0 a53d
00000390: 33d3 a53b 17ce 40bd 89c1 f13b 59a7 28be
000003a0: 942f d5bc fd02 8ebc 154c d6bd 14c0 64be
000003b0: e9f7 c0bc 8ddc 8d3c 57f3 23bc e22f 2fbc
000003c0: 84da 9cbd b913 1bbe 93e1 7f3c cdff f33c
000003d0: f956 1dbe 171e b3bd 5da3 1bbe 0256 89be
000003e0: c6b9 30be e3c7 023e c319 5abd 0e58 fe3c
000003f0: 48d1 2dbe 682b 03be d388 3c3d de20 19be
0.019889167 0.05442343 -0.0132564 -0.045455035 0.03674754 0.022129554 0.06759136 -0.08046168
-0.09163469 -0.1639387 0.13490985 0.019616129 0.059431802 0.008794663 -0.09548309 0.071847625
0.017633732 0.00733033 0.09468132 0.0684377 -0.073575646 -0.014540604 0.030153953 -0.0012640457
0.15318877 -0.021750946 0.026098387 0.0665182 -0.017200038 0.003000053 0.039358646 -0.07163506
-0.06244945 -0.06987926 -0.0151191205 -0.025269855 -0.04045194 0.012099802 -0.060078915 -0.03777172
-0.017667012 -0.0009435469 -0.05999584 0.06554169 -0.054994974 0.1066416 0.033750694 -0.046934467
-0.12546068 -0.0044348245 0.102531604 -0.06730303 0.0040899473 0.09153102 0.040955797 0.00216244
-0.03146474 -0.024632178 0.003441194 0.046437718 -0.01641504 -0.01869921 -0.021142568 0.09142771
0.0036216562 -0.01646361 -0.09305115 5.3265958e-05 -0.012708971 0.030125722 -0.002534548 -0.2051687
0.009683558 -0.09140129 -0.015552313 0.0018007298 0.017506205 -0.029598499 -0.034838542 0.06475275
-0.018944034 0.045370206 -0.0077238106 -0.010006825 -0.018713187 -0.019232266 0.027442157 -0.01127779
0.1128032 -0.0040643807 0.08957431 0.0056331176 0.052353047 -0.04888014 0.01641288 -0.0803662
-0.049781803 -0.07835896 -0.1287384 0.024288496 -0.10968627 -0.07247536 0.121894695 -0.0042721354
-0.100223556 -0.024134815 -0.074386366 -0.06631685 0.046754964 0.017576044 -0.07133163 0.031100307
-0.07304778 -0.09678647 0.055026613 -0.059667386 -0.040408064 0.033862244 0.02283059 0.010645026
0.013275751 0.0084053315 -0.012871092 0.005333606 -0.038083803 -0.03776886 -0.0066292225 -0.006991352
-0.008256883 0.0071997168 -0.0297105 -0.02342043 0.017261699 0.05250849 0.03423756 -0.026832363
-0.17206238 -0.085607424 0.04085591 0.060201537 0.01697706 -0.092313595 -0.24744016 0.061395712
0.037509143 -0.107455716 -0.05421759 -0.06419557 -0.0022958675 0.008287133 -0.07123711 -0.17164735
-0.0922463 0.03200271 -0.032700945 0.0064724484 -0.037968572 -0.004480085 -0.24629961 -0.0366443
-0.046468064 0.035784774 -0.00990678 -0.027998103 0.003322156 -0.012548321 -0.09509901 0.0035907202
-0.49555188 -0.08210397 -0.16403387 -0.24637778 -0.041639272 -0.07200511 -0.18171278 -0.13494155
-0.14516136 -0.15040666 -0.04879577 0.09084943 -0.07931431 0.003016847 -0.057749897 0.025361817
-0.20564748 -0.02427997 0.12701634 -0.04960702 0.079277895 -0.15350786 -0.10090362 -0.1181256
-0.11248997 0.018469293 0.18684863 0.001668843 -0.08795179 -0.037812885 -0.08069223 -0.035052463
0.035412837 -0.04973502 -0.041155487 0.047798105 -0.06540846 -0.00727232 -0.026028618 -0.10478995
-0.034686863 -0.10064688 -0.08846459 -0.33105937 -0.5354825 -0.07944614 -0.10115086 -0.067266725
0.021522632 -0.26081997 0.009496208 -0.044579055 -0.061937165 -0.055576894 0.045183014 0.112808235
-0.02721141 -0.07972058 -0.13306993 0.08102428 0.0050605773 -0.047071543 0.0073778075 -0.16470088
-0.026023664 -0.01733541 -0.1046373 -0.22338897 -0.023555713 0.01731708 -0.010006747 -0.0106925685
-0.07658866 -0.15144242 0.015617746 0.029785061 -0.15365209 -0.087459736 -0.15199037 -0.2682343
-0.17258367 0.12771563 -0.053247225 0.031047847 -0.16974366 -0.12809527 0.046028923 -0.14953944

decoder.3.bias f4 [16]
00000000: cf37 cc3d 01e5 203e 9141 793c 04fa 133e
00000010: f468 733d 3f74 713e 90fb fa3e eb2e 9ebb
00000020: 83a2 22bd 3a5d 85bd bed4 0f3e 424a d43d
00000030: 956f ad3c bf50 f73e e932 ce3e fc1f f4bd
0.09971582 0.15712358 0.015213386 0.14450842 0.059426263 0.235795 0.49020052 -0.0048273704
-0.039705765 -0.06511922 0.14045998 0.10365726 0.02117137 0.48303792 0.40273216 -0.11920163

decoder.5.weight f4 [16, 1, 3, 3]
00000000: 1482 c93d a8ac 133d a909 09be 7193 fbbc
00000010: bd5d 89be 3039 cdbe cb2e 3bbe f612 b8be
00000020: fb65 aebe bf55 073e 136f e33b 111b 20be
00000030: 3d2e 833d 2a93 8fbe f49e d7be 81fe aabd
00000040: ebb5 bbbe 6af1 bfbe db78 ab3e c62b c03e
00000050: 13d1 ee3d 7f39 e33e 125e 993e 3dca f0bc
00000060: 72db 2f3e 24f4 d0bc ce1e 0dbe 9fee 9ebe
00000070: f633 debe a293 72be 9409 ebbe 07b6 07bf
00000080: bab1 5fbe 6957 6bbe 741b 37be ab58 5c3c
00000090: 77f8 b3be a800 babe 75be cfbd 2dd1 a5be
000000a0: 3395 82bc 0ada 773e 20a4 22bc 2fe7 a33e
000000b0: f3fc c13e 1c7d f93d 15a7 8cbd 4035 47be
000000c0: 3db2 453e a366 23be c859 bdbe ce50 7f3d
000000d0: d14b 9abe 33b2 bcbe 9df4 00bd 9e8f 45bd
000000e0: 623e 9cbd 467a 02be 8979 54be 2525 48be
000000f0: 667e 93bd 3f8c fbbd 2c46 d5bd 053a 733e
00000100: 55e2 da3e adb2 753e ecda d03e a759 403f
00000110: 5fea ca3e 0026 5d3e 1a17 cc3e 1e3e 503e
00000120: b456 f53d 4a24 4b3e bddf c03d 00cb e53e
00000130: 0c54 293f 6db7 d93e 7e5e 063f 2569 223f
00000140: b822 c23e 8593 a3bd dc40 333e 08f1 853e
00000150: 633d 8e3d 9b96 063f be96 f13e 0e3d ec3d
00000160: 8a05 d03e 6257 ac3e e194 a0be 0bf9 a0be
00000170: cd18 11bd b8d2 d0be f08e 5fbe 9a6a 1b3e
00000180: d63c 3ebe df3e 4f3d 3c38 6a3e 5346 ce3e
00000190: 8d78 1e3f d837 903e 4926 2d3f 1ee8 753f
000001a0: 72ba c23e d5aa 9e3e eaa7 c33e 1ac6 b93d
000001b0: 92ea 89bd 2eb2 d03d 2a6d 1c3e 4983 503d
000001c0: 3ae1 0b3f 84ce 063f f71d 1d3e 09d7 093f
000001d0: 5bc2 ec3e dfbb 323d 2982 1e3b d717 b9b9
000001e0: 4dfb 113d c12a 63be c4cb 4ebe 5ad7 8cbd
000001f0: 0870 8dbe aa51 48be 0aa9 babb 89c0 6dbd
00000200: 0b34 b9bc b93f e6bd a9b8 9bbe af1e 30be
00000210: 995a d3bd 6e05 76be f6ec 0ebe 65ef c7be
00000220: fb18 18bf 0727 93be 1475 25bf 3ce1 48bf
00000230: 6fc8 97be 7644 bfbe d4ef adbe 8648 52bd
0.098392636 0.03605333 -0.13382591 -0.030709954 -0.2682933 -0.40082693 -0.18279569 -0.35951966
-0.3406218 0.13216303 0.0069407313 -0.15635325 0.064053036 -0.28041965 -0.4211346 -0.08349324
-0.3666223 -0.37488872 0.33490643 0.37533396 0.116609715 0.44379804 0.29954582 -0.02939331
0.17173555 -0.02550704 -0.13781282 -0.31041428 -0.43399018 -0.2368913 -0.45905745 -0.53012127
-0.21845141 -0.22982563 -0.17881566 0.0134488745 -0.351505 -0.36328626 -0.10143749 -0.3238615
-0.015940284 0.24204269 -0.009926826 0.32012317 0.37888297 0.12182066 -0.06867806 -0.19453907
0.19306274 -0.15957122 -0.3698256 0.06233292 -0.30135968 -0.36854705 -0.03148328 -0.048232667
-0.07629086 -0.12741956 -0.20749487 -0.1954542 -0.07201843 -0.12282609 -0.10413775 0.23752601
0.42750803 0.2399394 0.40792024 0.751368 0.39631936 0.21596527 0.39861375 0.20336196
0.11979428 0.19838062 0.09417675 0.4488144 0.6614387 0.42522755 0.52487934 0.6344169
0.37917113 -0.079871215 0.1750521 0.26160455 0.06945302 0.52573556 0.4718532 0.11535083
0.40629226 0.33660418 -0.31363586 -0.31440005 -0.035424042 -0.40785766 -0.2183187 0.15177384
-0.18577895 0.050597068 0.22873014 0.40288028 0.61902696 0.28167605 0.67636544 0.9605731
0.3803287 0.3098971 0.38214046 0.09070988 -0.06734194 0.10190235 0.15276018 0.050906453
0.54640543 0.5265887 0.15343462 0.5384374 0.4624203 0.0436362 0.0024186468 -0.00035303712
0.03564005 -0.22184278 -0.20194918 -0.068770126 -0.27624536 -0.19562402 -0.0056964206 -0.058044944
-0.022607824 -0.11242623 -0.30414322 -0.17199205 -0.103200145 -0.24025509 -0.13957581 -0.3904983
-0.5941312 -0.28740713 -0.6463177 -0.7846868 -0.29645106 -0.3735692 -0.33972037 -0.051338695
