model_b5.pt (torch, 199311 bytes, 11 tensors)

encoder.0.weight f4 [16, 1, 3, 3]
00000000: 5961 38bd 3487 bc3d e7d8 f43d 4b5f 88be
00000010: 7243 6bbe 7f4f 0e3c 05ce 493e 1a85 7cbe
00000020: d58e c83c c8d7 b9bd fe6e 8a3e 9205 34be
00000030: c8b2 38be 3d02 79be 021f 433e 5ae7 0ebe
00000040: ade3 33be f354 b6bd caca 6f3e 336b 923e
00000050: 96bf 7e3e b0e8 20bd 7581 00bd 27e1 453e
00000060: 9488 12be bb06 823e ea7f 1c3e 892c 25be
00000070: 5434 fb3e 361b 04bc 9ef5 c1bd b5bd 7e3e
00000080: 028b bbbe e9a4 1e3e 3028 88be 0394 253d
00000090: 6b01 223d 7b80 5f3e f482 2b3e a62b 603e
000000a0: deb1 773e 7565 6ebd cf8c af3d a46c 0e3e
000000b0: 2a52 abbe ebac f13d b83e 53be 267c 9d3e
000000c0: c1a0 723e 44f4 b03d 5f2a a5be 5452 b3be
000000d0: 693d 1b3e 97f8 76be 11dd 93be f146 60bd
000000e0: 5ffc 3fbe 5c24 693e 76c0 283e 8f3f f53d
000000f0: c6a1 523e 5a67 993e 50d9 e9bd 1881 453c
00000100: 01f0 97bd 47fa 1bbe dd83 163e 24e6 85bd
00000110: 646b 9abd 90e5 73be 3c2a a8be c03b fe3d
00000120: 7cb5 c2be 48e2 8fbd 86e2 24bd 3402 8e3d
00000130: fa84 b03e 9b52 893e 8f1f 2fbe 04be ad3b
00000140: 1377 053e dfa4 eb3d 4c8f 9ebd 9c62 a4be
00000150: 61c5 37be 596b 213d d088 c93b de38 b93d
00000160: 8b8f 03be daeb b43e 9934 83be e9d3 ae3d
00000170: 4320 a83d 8506 8dbe 2003 2cbe 95d2 bb3e
00000180: 4e2d e6bd 0eac afbd 47b8 a63e c147 603d
00000190: e7dc 8f3e d86b 7a3d 7f90 953b 1465 503e
000001a0: 132e 643e 7ae4 e2be d50a 1bbe 879b 88be
000001b0: 64f1 373e 7ab5 9f3d ab3b 5c3d a9d8 863d
000001c0: fd4c b1be 2912 8e3d ea18 2f3c 87ff d2bd
000001d0: 32d2 95be c2c5 ca3d 1646 bd3a 61e3 afbe
000001e0: 30ae 1f3e 90cf d23d c676 8bbd 763f 0d3e
000001f0: 976a d83b 6f27 513e b3d5 9abe 585b 8abe
00000200: 3857 98be e187 e03d 0ca7 9ebe 4fbc 903d
00000210: 2d33 97be f8d5 6b3d 181c 2c3e d4e4 d63d
00000220: 4050 06bd 21b9 fd3d 04ae 48be b26e 653e
00000230: 75ec 423e f974 673e b5e8 013d bdfd 71be
-0.045014713 0.092054754 0.11955433 -0.26635203 -0.22974947 0.0086859455 0.19707496 -0.24660149
0.02448217 -0.0907436 0.27037805 -0.1758025 -0.1803695 -0.2431726 0.19054797 -0.13955441
-0.1756732 -0.089029215 0.23417202 0.28597412 0.24877772 -0.039284408 -0.03137346 0.1932417
-0.14309913 0.2539576 0.1528317 -0.1613027 0.4906336 -0.008063128 -0.09470676 0.24877055
-0.36629492 0.15492596 -0.2659316 0.040424358 0.039552134 0.21826355 0.16749173 0.2189165
0.24188945 -0.058202226 0.08571779 0.1390863 -0.33461124 0.118005596 -0.20629394 0.3075878
0.23694135 0.0864034 -0.3225889 -0.3502375 0.15160145 -0.24118267 -0.28879598 -0.054755155
-0.18748616 0.22767776 0.16479668 0.119750135 0.20569524 0.29961663 -0.11418402 0.012054704
-0.07418824 -0.15232192 0.1469874 -0.065380365 -0.075400144 -0.2381804 -0.32844722 0.1241374
-0.38029087 -0.070255816 -0.040255092 0.06934014 0.34476453 0.26820835 -0.17101882 0.0053021926
0.13033704 0.11506056 -0.077421755 -0.32106483 -0.17946388 0.039409015 0.0061503425 0.0904405
-0.12847726 0.3533619 -0.25626066 0.085365124 0.082092784 -0.27544037 -0.16798067 0.366841
-0.1123911 -0.08577739 0.32562467 0.05475593 0.28098223 0.061138004 0.0045643444 0.20351058
0.22283201 -0.4431494 -0.15140851 -0.26681158 0.17963177 0.07798286 0.05376784 0.065842934
-0.3462905 0.069370575 0.010687092 -0.10302644 -0.2926193 0.099010006 0.0014440443 -0.34353164
0.15593791 0.10293496 -0.068097636 0.1379374 0.0066045034 0.20425199 -0.30241165 -0.27022815
-0.29754043 0.10963417 -0.30986822 0.07067167 -0.29531232 0.057577103 0.16807592 0.10492864
-0.032791376 0.12388826 -0.19597632 0.22405508 0.19035514 0.22603215 0.031716067 -0.2363195

encoder.0.bias f4 [16]
00000000: d7e9 09be 8cc7 22be 5d0b 12be 90bb c43c
00000010: 8870 ddbd 12c3 903e 2be1 bf3e e2d6 5cbe
00000020: ac87 0e3e 9bfa 123e eeee e4bc d2df 5ebc
00000030: ef17 823e 91ab b13e 1b41 22be b240 0b3e
-0.13468109 -0.15896434 -0.14262147 0.024015218 -0.10812479 0.28273827 0.37476477 -0.21566346
0.13918942 0.14353411 -0.027945962 -0.013603168 0.25408885 0.34701207 -0.15845148 0.13598898

encoder.2.weight f4 [32, 16, 3, 3]
00000000: 8663 e43d aa8e a43d 05a6 093d 892f 9a3d
00000010: 7038 8a3d e565 a7bd 7c92 843b da8d b7bc
00000020: a882 b4bd 3176 1c3e 920d 8bbc 3742 04bd
00000030: 98d0 d23d 8de3 a83b 6206 f6bd c93c ea3c
00000040: 6f19 e238 d697 80bd 60b0 08be af29 c5bd
00000050: 27aa 69bd ed57 b73d 5eff 953c a493 1dbc
00000060: a382 a23d decb 0c3e b25b 963d 2807 0fbe
00000070: c7fc 5bbe a116 fa3d 2b21 12be b8b5 e3bd
00000080: f73c 2e3e d582 50bd 55b7 b0bc a464 393e
00000090: 5832 2cbe 1834 3ebe feaa 6d3d 536d 31be
000000a0: 3e39 9abc 1414 d63d 5714 153e 526d db3d
000000b0: 814a 383d 1aba a63c 5bb5 9abc a7be 5b3d
000000c0: 6615 ec3b f160 9fbd 9fe7 27bd bd7b a5bc
000000d0: b5b8 c9bd 0669 b9bd 7810 08be b5b5 f2bc
000000e0: c3bf 393d 654a 1b3c 1f55 d6bd 39be 003e
000000f0: 8b15 00bd b917 783d e70d 003e 4bc8 283d
00000100: 9d33 aa3d c557 063d 70e5 35bd f171 d8ba
00000110: 36ad 6f3d 9e88 003d 8698 e03c b148 babd
00000120: e2b3 a4bd c2e2 85be 1454 a73b 6854 d4bd
00000130: 5e83 73bc faab 243e b266 3a3d 2415 8d3d
00000140: 4178 3e3e f5e9 92bc ecb5 9d3d 648a e6bc
00000150: 6967 cc3d 6c6e f83d 96bf 31bc accc 64bc
00000160: afcf 813d fb6e 813d a6b2 d3bd 56a1 0e3c
00000170: 4aab 893c 8387 03bd 53c0 f43d 352c 673e
00000180: 638c 563c 118e f83d ad40 fd3d 3c7a bdbc
00000190: 9ad4 58be d538 9bbd 9db4 8a3c 00c2 90be
000001a0: acef 053e db20 a3bc b687 debc 81f4 173e
000001b0: 98c5 58bd 6836 2cbd d53e c3bd d569 b2bc
000001c0: 17c7 333d 7ccb cebd 6a9a 403d a467 a5bd
000001d0: 7bc6 09be 6d00 8ebe 26c2 a2bd a93c 973c
000001e0: 44d3 58bd 2d0e 9fbd 5754 023d a4ac 79bd
000001f0: b8ab abbc 54a0 df3d 0f45 bc3d 28bc f7bb
00000200: 85f9 a13d 4bc0 423d be88 c93d c9ac 8abc
00000210: 4a23 773d 08cd ab3d 1aa0 26bd 2fc6 05be
00000220: 58c7 88be a28b 7f3d ef4b 99bc 2f09 103d
00000230: c430 f13d cf2a a03c 2657 113d fe42 c03d
00000240: 729d ddbd 9a14 9abd 1b54 473d b8bf 10be
00000250: 7849 5a3d 2267 073e f2ef a9bd f426 e1bb
00000260: 2125 273d 7d2a e4bd f082 93bd b9d3 953d
00000270: 4e01 e8bd 99b9 bdbc 40e5 3bbc 0110 35bc
00000280: db84 323d 95cf 983d 0f01 2c3d 77bd cb3d
00000290: 88ff 1d3e f925 ed3c 5151 923d 7094 53bc
000002a0: 0d1a c3bb 2056 053e e904 993c f54b 943d
000002b0: f56b 6b3d 9e2d 233d d7af 5c3e ee4d b33c
000002c0: 2739 c4bd 92d3 9c3d e7af 3cbd 3064 013c
000002d0: 3898 ed3d 720e 833c 1936 303e 4884 c4bc
000002e0: 60c6 78bd d9cd 683d fe9a fbbc 8a7d 00bd
000002f0: 170f 3a3d 7314 4e3d c217 833d 4018 da3c
00000300: c1a6 b63d 5988 1a3d e978 e2bb ef53 bc3b
00000310: bf13 593d 3748 f9bc 2ea3 433c 14b9 94bc
00000320: c16e 8c3c 8093 853d ccb8 22be 228e cdbb
00000330: c682 c7bd dfe9 11be 5349 5dbd 5da2 53bd
00000340: f86f 873d acc0 b2bd f469 943d 5ea7 ab3d
00000350: 030d 5abd d91a 123e 5bfc 35b9 dc1a 0a3d
00000360: 6f65 be3c 77ae dd3d aa2b 133e bb47 6c3d
00000370: 804e 80be 9c91 95bd 4566 a83c 76cb aabc
00000380: bbf2 20bd c77b dbbd a120 e23b 625c 553d
00000390: 3ddf bd3c 8cae 12bc b7f2 93bd 173f 823d
000003a0: ec16 663d cdc7 5bbd ae81 eeba 7fc7 07bd
000003b0: 9639 3fbd dc21 663d 56f9 cbbd 1f3f ebbc
000003c0: af5e 5f3a 3c6e d0bd ecfb 7dbd 844d 153d
000003d0: d020 e6bb 4bc5 083d 00f7 babd a30f c8bd
000003e0: 948f 16be 55d3 45be e3e8 083d 1507 44be
000003f0: 9677 9a3d c63a f53d 8a13 103d c39e 103e
0.11151795 0.080350235 0.033605594 0.07528598 0.06749046 -0.08173732 0.0040457826 -0.022406507
-0.08813983 0.15279461 -0.016974244 -0.03228971 0.10293692 0.0051540793 -0.12012936 0.028593438
0.00010781257 -0.062789604 -0.13348532 -0.09627091 -0.057047036 0.089523174 0.018310245 -0.00961772
0.07935073 0.13749644 0.07341708 -0.13967574 -0.21483146 0.12211347 -0.14270465 -0.111186445
0.17015444 -0.05090602 -0.021571795 0.18104798 -0.1681608 -0.1857456 0.0580244 -0.1732686
-0.018826123 0.10453048 0.1455854 0.107142106 0.044992927 0.020352412 -0.018885305 0.053648617
0.0072046993 -0.07782162 -0.040992375 -0.020200605 -0.09849683 -0.09053235 -0.13287532 -0.02962766
0.045348894 0.009478186 -0.10465454 0.12572564 -0.031270545 0.0605695 0.12505303 0.04120664
0.08310626 0.032798547 -0.04440826 -0.0016513449 0.058514796 0.03138029 0.027416479 -0.09095896
-0.080421224 -0.26149565 0.0051064584 -0.10367662 -0.014862863 0.16081229 0.045508094 0.06888798
0.1860056 -0.017933825 0.077007145 -0.028142162 0.099806614 0.12130436 -0.0108489 -0.013964813
0.063384406 0.06319996 -0.10336809 0.008705458 0.01680531 -0.032111656 0.119507454 0.22575457
0.013094994 0.12136472 0.123658516 -0.023129575 -0.21174851 -0.07579199 0.016931826 -0.2827301
0.13079709 -0.019913128 -0.027164321 0.14839365 -0.052922815 -0.042044073 -0.09533469 -0.02177898
0.04389104 -0.10097405 0.04702226 -0.080764085 -0.1345462 -0.277347 -0.07947187 0.018461542
-0.052935854 -0.07766376 0.031818714 -0.06095566 -0.020955905 0.10919252 0.091928594 -0.007560272
0.0790892 0.047546666 0.098405346 -0.016928094 0.06033639 0.08388716 -0.04068003 -0.13063882
-0.26714587 0.062389024 -0.018712966 0.03516501 0.117768794 0.019551663 0.0354835 0.09387778
-0.10821046 -0.07523461 0.048664194 -0.14135635 0.05329272 0.13222936 -0.08297719 -0.0068710987
0.040806893 -0.111409165 -0.07202709 0.073157735 -0.11328374 -0.023159789 -0.011468232 -0.011051179
0.043583732 0.07461468 0.041993197 0.09948247 0.15429509 0.02894877 0.07144416 -0.012913808
-0.005954033 0.13021135 0.0186791 0.0724105 0.057476003 0.039838426 0.21551453 0.021887746
-0.095812134 0.07657541 -0.04606619 0.007897422 0.11601299 0.015998099 0.17208137 -0.023988858
-0.06073606 0.056836937 -0.030713554 -0.031369723 0.045424547 0.05031247 0.06401016 0.026622891
0.089185245 0.037727688 -0.0069113863 0.0057473104 0.052997347 -0.030429943 0.011940761 -0.018154658
0.017142655 0.06522274 -0.15890807 -0.006273047 -0.0974174 -0.14249371 -0.054025006 -0.051668514
0.06613153 -0.087281555 0.072467715 0.08381532 -0.053235065 0.14268054 -0.00017355515 0.03371702
0.023241727 0.10824292 0.14372125 0.057685595 -0.2505989 -0.073031634 0.020556578 -0.02084897
-0.039293986 -0.10716968 0.0069008623 0.052090056 0.023177737 -0.008952748 -0.072240286 0.0635969
0.056174204 -0.05365734 -0.0018196607 -0.03314924 -0.046685778 0.056184635 -0.099596664 -0.028716622
0.0008520884 -0.101772755 -0.06200783 0.036450878 -0.0070229545 0.03339128 -0.09129143 -0.097686075
-0.14703208 -0.19318898 0.033425223 -0.19143327 0.075423405 0.11974101 0.035174884 0.14123063

encoder.2.bias f4 [32]
00000000: a00a b0bc 8b85 1abd 0d06 c13c 16f6 c83c
00000010: 5e69 5d3d 7245 2d3d 4a67 f1bc 8d2c af3d
00000020: 8de2 e33b cca7 8f3d 5710 833d 7c0d 563d
00000030: 9814 683d f127 c03c 7f7e 403d d73d 22ba
00000040: 16a6 44bc 6ddb 71bb c4e1 e33c 87c0 3eba
00000050: 5c09 ad3d 0806 78bd 8127 213d 9ea4 8abd
00000060: fe38 503d 219b 9e3d 2ebc 78bd 7934 c83c
00000070: 4e55 ec3c 4b54 bd3c 7e7e 883d 0efd 953d
-0.021489441 -0.037725013 0.023562456 0.024531405 0.054055564 0.042302556 -0.029468197 0.08553419
0.006954497 0.070144266 0.06399601 0.052258953 0.056660265 0.023456546 0.046995636 -0.00061890244
-0.012002489 -0.003690447 0.027817614 -0.00072766136 0.08449051 -0.060552627 0.039344314 -0.067696795
0.050835602 0.07744432 -0.060726337 0.024439083 0.02884927 0.023111483 0.066647515 0.07323657

encoder.5.weight f4 [12, 1568]
00000000: 606e c03c dabb 8b3d 14df d03c 3d06 dabc
00000010: abe5 68bc 5a30 4fbd 5622 f53b a0ba b83a
00000020: b996 863d 1ddd 88bb ed0e c33c 2aa9 cfbc
00000030: b33d 1ebd 4ccc b23c baae 613d 1d71 0b3d
00000040: c609 0dbd 7c73 afbd ea2b 8abd fc59 33bd
00000050: 67fb dabb 37b4 a63c 3e28 6e3c 16b0 5c3d
00000060: 336a 6cbb edd0 a73d 1034 9f3d 2c70 b7bc
00000070: ec79 303d 269e 563a b1ae 43bd b1f7 77bc
00000080: 1559 ad3d bb04 afbd ea71 913c 96f7 10bd
00000090: 4bb3 283d 78cd de3c ec8c c53d ee45 46be
000000a0: 19c6 bbbc 4497 9a3a 00dd 99bc 27dc 923c
000000b0: bbac f13d a549 c5bc fdf6 483d 5ed1 213d
000000c0: 25f3 c03c 89d8 d23b d8de 883b 1484 563c
000000d0: 9286 64bc a227 f73a 496b 293d aba0 27bb
000000e0: 3bd6 20bc f1c9 6e3c 84b6 3cbd 9417 7d3d
000000f0: 7d97 a1be 18a9 8fbc 591e bdbd 5319 e93c
00000100: 6184 b43a 7aa3 a03d 50c6 953d b8e9 a2bd
00000110: 4e27 54bc 53c1 6e3b e1aa 0f3d 7f32 653d
00000120: f2c6 343e f3fa 6e3d 9bde 803d c58a a23c
00000130: f066 d43d c874 a7bb d38d 413d ee86 c63d
00000140: b785 afbd 4498 aabc c8cf 383c e24a ad3c
00000150: 8af3 533c 59e9 8d3c d2cf ac3a 1938 d93c
00000160: 6d3f 1e3e 37f8 25bd 4f76 953d 0209 283b
00000170: 823d 46bb a1c7 e339 3094 023d 0986 db3c
00000180: f5ca c5bd 77f1 8f3d de06 b43c 4964 3e3c
00000190: 7437 bb3d e7b2 913d 130b 9dbd ae6a 0fbe
000001a0: bd7e 2a3c e735 1cbc 46a7 9f3c 64fb 483d
000001b0: a060 1fbd 5819 af3a 36fe a53c 566c 1e3d
000001c0: 0080 93bd 508c b73d 657b bfbd 422d b43d
000001d0: c3c8 ccbd c78c f7bc 3826 583d 5944 823c
000001e0: f610 123d 00ac a8bd 3e8f 2c3e b402 353e
000001f0: e566 00bd a9ee a33d b1b0 83bd 059e 2e3d
00000200: cf94 6dbd 5f31 c1bc 5f6c 90bd c872 05be
00000210: 3e94 b53c 88e8 ccbc 417f 79bc 0d40 7c3d
00000220: a7ea b2bd f519 1a3b a927 0cbd 85d5 53bd
00000230: eb02 4fbd a955 853d 873b 993c 3b65 2ebe
00000240: 475c ce3d 288c 713c ccc7 33bc 2c3c 2fbc
00000250: d669 873b 0c90 d8bb 1894 313c 2261 523d
00000260: a938 a03b c890 a93c bd01 003c ad96 f03b
00000270: 253f 043d 2b04 fdbc cf93 623b 3394 373d
00000280: 4ac8 5a3d 38c5 303c 1759 273c 44cf 0e3d
00000290: 035b ac3d 3002 b23d 3041 a2bd 1f45 943c
000002a0: 71dc 11ba 1fa4 f33c 4838 be3b 63da e23d
000002b0: c69a 043e f4ab b53d b740 06bc 1a99 4bbb
000002c0: e7a9 c63c 0b42 4cbb 8456 dd3d 4072 0f3d
000002d0: fdee bf3c e3e2 b43c 9698 0f3d 1c95 8ebc
000002e0: f333 ba3c 870f 7f3d 9c5a b83c 38dc 8c3c
000002f0: f65e 073c 6be2 80bb 2845 22bb 23be 073d
00000300: c66f c43b dedc 033d e34e 1d3d 62bf f13c
00000310: d261 9a3b 3a85 263c 1eeb ffb7 13b5 8c3c
00000320: 13a8 103d bf56 123c dcd5 623c 9598 da3b
00000330: d98d 113d d3a6 a23c 576b 803d 0722 233c
00000340: 46ff 203d 0745 4d3d d518 843c 8e04 b23b
00000350: fbfb 9e3c 6cc1 113e bc5b efbd ec92 0c3d
00000360: 430c 063d 9fa2 5cba 1d45 343b d151 85bb
00000370: 9419 1a3e c109 0c3e 8ad1 d63b 1894 c63b
00000380: 8a16 163d e9ee 2abc 64ef 71bc e0c6 abbd
00000390: b42b db3c 2b71 f33c 865a c23c 2a28 233d
000003a0: cacc f53c 5aa3 b33c 2ec9 c1bb 0d4f e13d
000003b0: 34bc ab3c db7a 6db9 50bc 193b bc67 2e3d
000003c0: 4c90 d43a dcb8 a03b 8e49 a13d 9207 d23c
000003d0: e6aa 0f3d 7ba7 0f3c cf58 f93c bd7c ed3c
000003e0: a97b 143d 1917 ca3b 88c8 b73c 5a97 ad3c
000003f0: 7a6e 113d 0d8d 323c cdef ac3d 3c49 513a
0.02349013 0.06822939 0.025496997 -0.026614303 -0.014214913 -0.05058322 0.0074809 0.0014093705
0.06571717 -0.0041767494 0.023810828 -0.025349218 -0.03863306 0.021825932 0.055098273 0.03404342
-0.03443315 -0.08566949 -0.06746657 -0.043786988 -0.0066828015 0.020349605 0.014535962 0.053878866
-0.0036074042 0.08194146 0.07773602 -0.022392355 0.043085024 0.0008187018 -0.04777402 -0.015134738
0.08464257 -0.08545824 0.017754514 -0.035392366 0.041186612 0.027197585 0.09646019 -0.19362614
-0.022921609 0.0011794348 -0.018782139 0.017927242 0.11800524 -0.024082968 0.04906367 0.03950631
0.02355344 0.0064345044 0.0041769557 0.013093013 -0.0139481 0.0018856416 0.04136208 -0.0025577943
-0.0098167015 0.014574514 -0.046072498 0.061790064 -0.3156089 -0.017536685 -0.09234304 0.028454458
0.0013772362 0.07843681 0.07313216 -0.079547346 -0.012948824 0.0036431148 0.035075072 0.05595636
0.17654017 0.058344793 0.062924586 0.019841561 0.10371196 -0.005110357 0.047254395 0.096937045
-0.08570426 -0.020824559 0.011280008 0.021153871 0.012936482 0.017323183 0.0013184494 0.026516007
0.15453883 -0.04051992 0.07297956 0.0025640135 -0.0030249064 0.0004344555 0.031879604 0.026797311
-0.096578516 0.07028478 0.02197593 0.0116205895 0.09141436 0.07114201 -0.07668128 -0.14005539
0.010406193 -0.009534336 0.019488942 0.04906787 -0.03891051 0.0013358993 0.020262819 0.038677536
-0.072021484 0.08962309 -0.093497075 0.08797695 -0.0999923 -0.030218495 0.052770823 0.015901731
0.035660706 -0.082359314 0.16851518 0.17676812 -0.031348128 0.08004505 -0.064301856 0.042631168
-0.058003243 -0.023583112 -0.0705192 -0.13032067 0.022165414 -0.025013223 -0.015228094 0.06158452
-0.08736163 0.0023514007 -0.03421751 -0.0517173 -0.050539892 0.06510479 0.018705143 -0.17030804
0.10076194 0.0147428885 -0.010972928 -0.010695498 0.0041324897 -0.0066089686 0.010838531 0.051362164
0.004889567 0.02069892 0.007812914 0.0073421807 0.03228678 -0.030885777 0.0034572964 0.04481907
0.053413667 0.010789208 0.010214112 0.034865633 0.084157966 0.086918235 -0.0792259 0.018099366
-0.00055641594 0.029741345 0.005805049 0.1107681 0.12949666 0.08870688 -0.00819414 -0.0031066597
0.024250938 -0.0031167294 0.10807517 0.035021067 0.023429388 0.022080844 0.035057627 -0.017405085
0.02272985 0.062270667 0.022504143 0.017194852 0.008262387 -0.003933241 -0.0024760459 0.033140313
0.0059947697 0.032193057 0.03840531 0.029510204 0.004711368 0.0101636 -3.0507854e-05 0.017176187
0.035316538 0.008931815 0.013844933 0.006671021 0.035535667 0.019854939 0.062704735 0.009956843
0.039305948 0.050114658 0.016125122 0.005432672 0.019407263 0.14233941 -0.11687419 0.034319803
0.032726537 -0.00084165664 0.0027507015 -0.004068591 0.1504882 0.13675596 0.0065557407 0.0060601346
0.03664259 -0.010432937 -0.014766548 -0.08387542 0.026754238 0.029717049 0.023724806 0.039833225
0.030004878 0.021928478 -0.005913875 0.11001406 0.020963766 -0.00022647849 0.002345819 0.042579398
0.001621732 0.0049048495 0.078753576 0.025638375 0.03507509 0.008767958 0.030437855 0.028990144
0.036250744 0.0061673042 0.022434488 0.021190334 0.03550575 0.010897887 0.08444176 0.000798363

encoder.5.bias f4 [12]
00000000: 970e 4e3d 29c6 1f3c 6e93 95bc 3de6 773b
00000010: da33 883c c2ff e83c 9c95 253c 8a34 4dbc
00000020: 0c16 41bc 7568 2e3d 2c29 f9bb d4ca be3c
0.050306883 0.009751835 -0.018258777 0.0037826442 0.016626287 0.028442267 0.01010647 -0.012524733
-0.011785042 0.042580087 -0.007603785 0.023290075

decoder.0.weight f4 [1568, 12]
00000000: fd3e 103e 3f21 343e 6ed9 6d3d 5bc6 18be
00000010: 5487 21be 048e fb3d 77c0 813b f024 6d3e
00000020: ecee 493d bb30 bb3d e405 5abd dd1a 933d
00000030: f21b 143e 4558 98be 4067 aebe 838a 193e
00000040: cc2f 88bc f9d6 c13d db85 7abd 3450 033e
00000050: 688d d63d 26d3 77bc ae3f 2cbe a692 4f3d
00000060: de4c cf3d 7530 29be 2e70 80be de7e 263d
00000070: fcbf a63d d573 b83d 6039 083c 2d8c b93b
00000080: 447a e73c 76cd c6bd 64d2 7dbd bc35 2b3d
00000090: 612e 073d ae1d 82bc d085 12be acea 1b3e
000000a0: 511f e53d fc7a 263d ccb0 4c3e bcd9 84bd
000000b0: a50a 423e be1f f63d 1c64 28bc 111e 243e
000000c0: 3027 a8bf 91e1 ffbe 715c 00bf 6853 a0bf
000000d0: e856 b9bf f5e5 81bf 73c0 dbbf 2ed0 8f3f
000000e0: 423e 793f 0287 96bf 5935 513f 3b41 4abf
000000f0: 8f7f b1bf 36a2 13bf 8d6b 2dbf 523b a8bf
00000100: 2369 c2bf ced5 86bf 5fa7 fbbf a41c 963f
00000110: 57ac 953f ee7c a6bf 1999 823f ab92 61bf
00000120: c40a acbf 8c08 22bf 0729 29bf 4098 a5bf
00000130: 7cb1 c2bf b5d0 71bf 58ef debf 7794 a03f
00000140: f492 863f 8cd7 9fbf 2614 4d3f d6e8 60bf
00000150: b030 6cbe 4bc4 b0bd 2312 adbd 3d66 883d
00000160: 617a 5abe 2a90 2ebd 58fc 153e d179 2a3e
00000170: 8b21 54be b13b bc3d f95e 2ebe 3a97 0c3e
00000180: e882 77bb e1b7 263c ae44 0c3e 65c6 04be
00000190: 25fc 6ebd f516 a9bc cf6a 863d e254 893e
000001a0: afa8 933b 41ea 0dbd 343b 57be 4ae5 8fbe
000001b0: 4fd5 1b3d fb4d f6bd 15b6 d4bd 8348 3f3e
000001c0: 27b7 ba3c 197e a13d c7af 6cbe 10e9 2fbd
000001d0: cc0e 973c 51dc fabd 324e 49be 8331 e63d
000001e0: 648a 0cbd b6fa 9fbb 2d1e 1ebd 32fa 8abe
000001f0: 9068 573d 835a a0be 4500 8a3c 63c5 c63d
00000200: 998f 5c3b e8a1 5cbd 8d9e ccbc dfbf 073e
00000210: b89c 08bf f52f 97bd 02a5 103e 7878 3c3e
00000220: 31a6 a63e a441 85be ac4c 213e f414 893e
00000230: 388c 2bbe e405 3d3e cca7 4c3c 9c74 22bf
00000240: 968b 93bf 22ac 03bf 01ac 3ebf 5b14 9bbf
00000250: 8bed b9bf 76be 5cbf ceaa b1bf 972e 983f
00000260: 0f1f 8a3f b682 80bf 32a3 533f 051d 56bf
00000270: 3ce5 e2bd 0b4b 82be b776 a7bc a3df 213d
00000280: 7cb6 873d 9f44 2fbe 7acb 173d 043c d9bc
00000290: 2461 febc 28b3 fa3d 75cb 973d 3dfb 10be
000002a0: 8db7 d5be 8e42 f1bd 225e b1bd 5023 b4be
000002b0: 0223 e8be bdd6 6cbe 3da2 ffbe 39b0 c93e
000002c0: 0f61 8d3e 9b83 b5be d60d 843e bb7b 90be
000002d0: 23bd 173e 9792 0ebe d942 53bd f89c 2a3e
000002e0: 91de 063d d443 153d dc01 023e 5e25 2b3e
000002f0: 3710 3b3c a1bf c53d 3151 8ebc 0df8 273d
00000300: 6847 dc3c 47f9 953d 8db8 46be 0538 6a3e
00000310: fd6e 863e 57f7 18bd 7bf2 06bc e551 9f3d
00000320: 60dc 683e cfc2 823d 502c 383d 493c 193d
00000330: 5ff4 2dbe 5e63 2fbe ac22 bd3d 7245 b73e
00000340: be43 e63d f223 47be 6407 953d 6ec2 9cbd
00000350: eb4b 7d3e 73d7 a6be ed22 acbe fff2 10be
00000360: 793e 453e 173e 02be 6afe 013e 201b 38be
00000370: da44 313e ecad 2e3c cdf7 623e fbae 02be
00000380: c899 0b3e c731 0cbf 1f95 a1bc 6f3c 2d3e
00000390: dfcf 1abe de51 853e bc3a 83bb 568b cabe
000003a0: dea0 59bd 6636 81be ae84 8e3d b159 d3be
000003b0: aa5a bcbe d2d0 5bbb d509 e13d 9a55 ac3e
000003c0: 74c8 9a3d 3650 2bbc d3e0 14bc a0c6 423d
000003d0: f3d5 1cbe a31f 28be 8350 193e fb64 63bd
000003e0: e0a0 833d ae4c 1c3e d41d 1b3c 2cd7 183e
000003f0: b8db b0bf 41da 19bf 39bf 3bbf f04f a0bf
0.14086528 0.17590807 0.058068685 -0.14919417 -0.1577428 0.12282947 0.003959711 0.23158622
0.04930012 0.09140154 -0.053228274 0.07182858 0.14463785 -0.29754844 -0.34063148 0.14994244
-0.016624354 0.09464831 -0.06116281 0.12823564 0.1047619 -0.015126025 -0.16821167 0.050676964
0.10122083 -0.16522391 -0.25085586 0.040648334 0.08142087 0.09006468 0.0083144605 0.005662462
0.028256543 -0.09707157 -0.061968222 0.041799292 0.033003215 -0.015883293 -0.14308858 0.15226239
0.11187614 0.04064463 0.19989318 -0.06486842 0.18949373 0.12017773 -0.010277774 0.16027094
-1.3136959 -0.4997678 -0.50141054 -1.2525454 -1.4479647 -1.0148302 -1.7168106 1.1235406
0.9736062 -1.1759951 0.8172203 -0.79005784 -1.3867053 -0.5766939 -0.67742234 -1.3143103
-1.5188335 -1.0533998 -1.9660453 1.172749 1.1693219 -1.3006876 1.0202972 -0.8811442
-1.3440785 -0.6329429 -0.6607823 -1.2937088 -1.5210414 -0.94459087 -1.7416792 1.2545308
1.0513597 -1.2487655 0.8010887 -0.8785528 -0.23065448 -0.0863119 -0.08450725 0.066601254
-0.21335746 -0.042617954 0.14647043 0.16648032 -0.2071592 0.09191073 -0.17028417 0.13729563
-0.0037767235 0.010175676 0.13698074 -0.12966307 -0.058345933 -0.02064083 0.06563341 0.26822573
0.0045061926 -0.03464723 -0.21018678 -0.2810462 0.038045224 -0.12026592 -0.10386292 0.18680005
0.022792412 0.07885379 -0.23113929 -0.042946875 0.018439673 -0.12249053 -0.19658735 0.11239912
-0.034311667 -0.004882182 -0.038602997 -0.2714401 0.052589953 -0.31319055 0.016845832 0.09705617
0.0033654927 -0.053865343 -0.024977947 0.13256787 -0.53364134 -0.07382194 0.14125445 0.1840533
0.3254867 -0.26026642 0.15751904 0.26773798 -0.16752708 0.18459278 0.012491178 -0.6345918
-1.1526973 -0.5143453 -0.7448121 -1.2115587 -1.4525617 -0.8622812 -1.388025 1.1889218
1.0790728 -1.003989 0.8267089 -0.8363803 -0.11078879 -0.25447878 -0.02044235 0.039519917
0.06626603 -0.1711602 0.037059285 -0.026517875 -0.03105218 0.122412026 0.07411853 -0.1415834
-0.417416 -0.117802724 -0.086605325 -0.3518319 -0.4533921 -0.23128791 -0.49928465 0.3939226
0.27613112 -0.3545197 0.25791806 -0.282194 0.14818244 -0.13923107 -0.051577423 0.16661441
0.0329271 0.03644164 0.12696022 0.16713473 0.01141744 0.09655691 -0.0173727 0.041008044
0.026889518 0.073229365 -0.19406338 0.22872932 0.26256552 -0.037345257 -0.008236523 0.07779292
0.22740316 0.06384813 0.044964135 0.037411008 -0.16987751 -0.1712775 0.09235129 0.3579517
0.112433895 -0.19447306 0.072768 -0.07654272 0.24735992 -0.3258625 -0.33620396 -0.14155196
0.19262113 -0.12718998 0.12694708 -0.17979097 0.17311421 0.010661583 0.22164841 -0.12762062
0.13632882 -0.54763454 -0.019724427 0.16917585 -0.15118359 0.26039022 -0.0040048044 -0.3955943
-0.05313193 -0.25236815 0.069589004 -0.41279367 -0.3678792 -0.0033541215 0.109882034 0.3365906
0.07557765 -0.0104561355 -0.009086805 0.047552705 -0.1531599 -0.16418318 0.14972119 -0.055516224
0.06427169 0.15263626 0.009467561 0.14925832 -1.3817053 -0.60098654 -0.7333866 -1.2524395

decoder.0.bias f4 [1568]
00000000: a22a 3a3e 4d40 ad3e 2419 ab3e f59a ab3e
00000010: a804 8bbc 59a4 64be 0d1e aebe fda3 653e
00000020: 40e8 713e 96ac c1bc 4f11 93bd 6934 903e
00000030: 8ed1 a8be 2f37 5fbe 181d 1a3e da03 113e
00000040: 0353 4ebe b238 73be 185c 01be 0af0 afbe
00000050: 93cc b53e 85e1 dcbe 221c 5b3e 1e88 653e
00000060: 06b9 46be 3ae2 27be 8105 293e 6d3f 8d3e
00000070: f8ee d6be 8cde 07be 7e06 60bc dacf 163e
00000080: 319c 383e c630 f4bc 3978 d0be d3fd 1cbe
00000090: f1dc babe 329c 803e a0b0 c6bd 51e1 ccbe
000000a0: 6653 4abe dc79 f4bd 4d70 923d 80d2 923e
000000b0: 3545 8f3e f6ef 7dbe bc7b 60be 8885 08be
000000c0: 4be6 8f3d faad e7bd d55e 48bd bb9d b5be
000000d0: 1d48 4e3d 56f7 bd3e c7e9 3cbe fa2b dc3d
000000e0: a46b 823e 3e2e 163e cff2 e33c f3fd e93d
000000f0: 6f40 a1bd 3214 b1bc 9203 aebe e998 a43d
00000100: d090 033e dfbc 0a3e 0420 debd b8e3 b2be
00000110: 0bfa 1fbe 32c8 d83e b0cf 1f3e 0917 4b3e
00000120: 9bc0 c6bc c39d 013b 1baa 94bd f39d 913d
00000130: 4c01 bb3e ce1f 97bd b46c 82bd de48 353e
00000140: 9ae7 e3bd a2e3 353e 2b6e 87be 4b0a a33e
00000150: f488 a8be 38d7 e43e 5f1b 693e 6a75 2cbe
00000160: ad28 1d3d a2f8 61bc 820f 7abe 96f5 d13d
00000170: bf57 263e ca27 3e3e 44a2 25be 62f7 313e
00000180: 02e6 f73d 50d9 4ebe 769a a2bc 0a50 193e
00000190: e365 d43e 30e8 92bc b85c 163d 891e 0f3f
000001a0: eccc ab3e e305 423e dcf4 983d 0de8 56be
000001b0: aea3 8bbc 6e28 9dbe d086 80be 9e91 bf3d
000001c0: bc9f 523e e767 d33d 1ff1 c5be f797 eebd
000001d0: c22c f8bd c251 d93d c74f 8fbe 7c83 04bd
000001e0: ff62 4a3e 3437 f0b9 82b8 8bbe 74de 9fbe
000001f0: ca59 253d beb7 833e da68 b73e f639 1bbe
00000200: e214 643c 809b 14be e461 abbe 157a 1fbe
00000210: 8e59 a1be c8c1 683e 7d9a 8ebd b451 08bd
00000220: a4b8 ca3d d9bd ae3d 8578 86be 5793 adbd
00000230: ec73 f8be 14ae 4f3e 96f2 25be eb5e 27bd
00000240: 1765 16be 42a0 ddbd bf90 d33d 7e52 623e
00000250: d48b f4be ed90 efbd de16 6f3e 343a 9bbe
00000260: 6415 14be 82d4 34be 5d87 5cbd c977 863d
00000270: b179 af3e 46ba 96bd 7d8e 4abe 15ea d23c
00000280: 99e2 a6bd b6d2 a63d ad9a d83e cd54 43be
00000290: a9f2 703d 58b4 82be 9b6e 0bbe 56f9 dabd
000002a0: 833e 9ebe 89b5 403c 0cd5 88bc 232b 293d
000002b0: e293 a33b aeb7 3abe 3e84 dbbe 942b 9fbe
000002c0: 7b9e 873e cbe9 683e 35c2 8c3e 3321 0bbd
000002d0: 60ca 94be 393d 71be 3881 8e3c 9482 923e
000002e0: 6732 83bd e553 b93c 0547 77be baf0 8bbe
000002f0: 7eea ff3d e2a5 96be 7fc4 93be 63fe 313e
00000300: 98b9 98be af78 a7be 9be5 f1bd 7878 4b3e
00000310: 1bf2 4cbe ccac f43d d7c4 863e 5e58 1f3e
00000320: 7b4e 003d a62b 2d3e 0845 04bd 66e0 e0bd
00000330: 8344 16be e0dd bebe eae3 283e f2a3 58be
00000340: eb25 4c3e abf5 cc3e f111 903e 4889 8ebc
00000350: 54e0 c4bc ccc2 5fbc c436 02be bcb8 553e
00000360: 25cf 4a3e f073 333d 5658 c63b 39cf b0be
00000370: 0d1c cebe a2b8 21be 273f 7cbd 4514 2d3e
00000380: 669a abbe 104b b4be 7f98 d9bd bf79 573e
00000390: 7b63 cebb 8029 d7bd 215b 093e 5331 423e
000003a0: 2345 053e e684 5abe dd55 9dbe 170e 78bd
000003b0: 4705 90be 508c 97be c2d1 33be 7b5f 30be
000003c0: ef44 943e 7eb2 65be e908 08be 7646 03bd
000003d0: e9b8 13be 5c08 a53e 5aff 1a3d 713d b5be
000003e0: 7a6a bdbe 8df1 8d3d 887f b23d f8fe c63e
000003f0: c9f4 f0bd 79ff af3c ce40 3c3e e577 0ebe
0.18180326 0.3383812 0.33417618 0.3351666 -0.016969994 -0.22328319 -0.34007302 0.22425838
0.23623753 -0.023641866 -0.07181036 0.28164986 -0.32972378 -0.21798395 0.15050161 0.14161626
-0.20148854 -0.23752096 -0.12632787 -0.34362823 0.3550764 -0.43140808 0.2139745 0.22415206
-0.19406518 -0.16394892 0.16506006 0.27587453 -0.41979194 -0.13268489 -0.013673423 0.14727727
0.18028332 -0.029808413 -0.40716723 -0.15331201 -0.3649669 0.25119168 -0.09701657 -0.40015653
-0.19758376 -0.11937305 0.07150326 0.28676224 0.27982488 -0.24798569 -0.21922201 -0.13332188
0.07026347 -0.1131248 -0.048918564 -0.354719 0.05036174 0.37102765 -0.18448554 0.10750575
0.25472748 0.14666077 0.027825741 0.1142539 -0.07873618 -0.021616075 -0.339871 0.08036978
0.1284821 0.13548611 -0.1084595 -0.3493936 -0.15622728 0.42340237 0.1560657 0.19833006
-0.024261763 0.0019777871 -0.072590075 0.071102045 0.36524427 -0.07379113 -0.0636839 0.17703578
-0.11128159 0.17762616 -0.2645124 0.3184379 -0.32916987 0.4469545 0.22764347 -0.16841665
0.03836887 -0.013792189 -0.24419978 0.1025192 0.1624441 0.18569866 -0.1617518 0.17379525
0.121044174 -0.20200086 -0.019849043 0.14971939 0.41483983 -0.017932981 0.036709517 0.5590597
0.3355478 0.18947558 0.07468578 -0.20986958 -0.017045822 -0.30694908 -0.25102854 0.09353946
0.20568746 0.10322552 -0.38660523 -0.11650079 -0.12117912 0.10611297 -0.27990553 -0.032351956
0.19764327 -0.00045817497 -0.27289206 -0.31224406 0.040368833 0.25726122 0.35822183 -0.15158829
0.0139209945 -0.14512444 -0.33473122 -0.15573914 -0.31513637 0.22730172 -0.0696306 -0.033281043
0.09898499 0.08532304 -0.26263824 -0.084753685 -0.4852594 0.2028125 -0.1620582 -0.040862005
-0.14687 -0.108215824 0.103303425 0.22101781 -0.4776293 -0.11697564 0.23348567 -0.30317843
-0.14461285 -0.1765919 -0.05384003 0.06565816 0.3427253 -0.073597476 -0.19780917 0.025746385
-0.08148689 0.08145659 0.42305508 -0.19075318 0.05882517 -0.25528216 -0.13616411 -0.10692088
-0.30907068 0.011762031 -0.016703151 0.041300904 0.0049919942 -0.1823413 -0.4287433 -0.31087935
0.26488099 0.22745435 0.27491918 -0.033967208 -0.2906065 -0.23558511 0.0173956 0.28615248
-0.06406098 0.022623012 -0.24148186 -0.27332097 0.12495898 -0.29423434 -0.28860852 0.17382197
-0.29829097 -0.32709262 -0.11811372 0.19870174 -0.20014231 0.11947021 0.26322052 0.15561053
0.031324845 0.16911182 -0.032292396 -0.109803006 -0.14674573 -0.37278652 0.16493192 -0.2115629
0.1993634 0.4003118 0.28138688 -0.017399445 -0.02403275 -0.013657283 -0.12716204 0.20871252
0.19805582 0.04381174 0.006053011 -0.34533098 -0.40255776 -0.15793088 -0.061583664 0.16902263
-0.33516234 -0.35213518 -0.106247894 0.21042536 -0.00629848 -0.10505962 0.13413669 0.18964128
0.13014655 -0.21339759 -0.3072957 -0.060560312 -0.28129026 -0.29599237 -0.17560485 -0.17223923
0.28958842 -0.2243137 -0.13284649 -0.03204962 -0.14426006 0.3223294 0.03784118 -0.3539844
-0.36995298 0.06930838 0.08715731 0.388664 -0.11765439 0.021484124 0.18384096 -0.13912924

decoder.3.weight f4 [32, 16, 3, 3]
00000000: 9b0c 443d 5eaf 2e3d ea8a 4d3d 1323 06bd
00000010: 2b45 a2bc 9c28 193d 57b8 5abd 5c81 f33c
00000020: 8387 95bc 5673 01bd 317c 8e3d 17b1 adba
00000030: afef 163e 852e c8bc 1663 43bd 2de4 04bd
00000040: 9dbb afbd be29 3d3d e304 fe3b ed76 133c
00000050: 0a0b 183d c5db a3bd 48e6 79bc 995c 2f3c
00000060: c7e1 ff3b 78e2 233d 4eec 803c b643 dc3d
00000070: 8f0f 07bd 39d2 06bd 63f6 d4bd 1885 8bbb
00000080: 670f 323c cc02 ce3c 15b0 06bd d56d 69bd
00000090: de13 ae3b c509 00bd 9faa debb e92a 903d
000000a0: 9a3e ddbd e24b da3c c4fb b8bd ad5e bd3b
000000b0: 5081 5e3c 11d3 b5bc 92ea 76bc 08b0 153d
000000c0: 09dc 6a3d 1fa1 b63d 928a 83bc 511f 893c
000000d0: e912 11bd d932 693b dea9 0bbd 9f68 6a3d
000000e0: 6130 5dbd 1e80 ecbd c79b 1a3d e1cc 1e3e
000000f0: 1066 7dbd 65c6 a9bd 0e6b a1bd 6530 de3d
00000100: c993 263d adf7 a0bc b7c9 453e 7748 13bd
00000110: 10a7 0cbe f014 253e f579 b53a 94dc 3bbe
00000120: 7284 663c a024 12bd ff70 0f3d 1560 903d
00000130: c594 53bd b99e 6abc 9216 8c3a cb97 68bd
00000140: bfc0 533c e05f 80bd 4645 4dbd 96a7 cfbb
00000150: 5ad0 213d 7221 b83c af94 e23c c1ff 503c
00000160: d754 033a 7a95 c23a 42a4 08bd 9a6c 453b
00000170: 4264 8dbd 3ef9 f53c 4326 603d 8a40 633d
00000180: c3ac 2dbd 13d1 a83c 5074 423d 9dd5 9abc
00000190: 1b87 23bc 908b 733c 2417 f73d 7063 e3bd
000001a0: bc2d bdbd 63f9 12bb 251d c2bd 4b6e 52bd
000001b0: 3253 1abd be70 5bbb 8fb6 0ebc 115d 003b
000001c0: bf63 03bd b213 d73b 85e3 9fbc a78b 7bbc
000001d0: e70d b2bb c7be 16bd 6bdf abbd 53d3 3abd
000001e0: a631 90bd 8528 5f3d 4c8b a0bd f76d 99bc
000001f0: 21a1 36bd 70f1 8b3a 9783 933b ea88 f83b
00000200: 2e1e 2dbd 485a 84bd abe8 c23d f5ae 803d
00000210: b29a 4fbc a087 293d 1a03 783d ae72 2dbb
00000220: 7df2 23bd ba19 4a3d 874c 46be c2aa 503c
00000230: 78c0 883d 35f4 b73c f92b 973d a704 e4bc
00000240: f474 a5bc 6d5e c0bd d67c 86bd 5691 d0ba
00000250: 154e 6ebc 4cde 233d 8afc a33d c622 9bbd
00000260: 9a5a 203d 8e53 cabc dc1b 16be fd87 3abd
00000270: c3fd 063e 6621 313e 2663 e43d d529 8fbd
00000280: fb55 9abd da62 643a d3e1 5d3c 56a0 a13d
00000290: 8104 afbc fbe2 9e3d 3c1f 2abd 9638 e5bc
000002a0: 5a49 66bc e89f 24bc 178a 35ba 8ec7 053e
000002b0: 103b b5bc e25d 003e 464c 843c 780a 81bd
000002c0: d2d3 c2bd 2d62 293e 4343 9fbc 2d77 0a3d
000002d0: f005 f63d 5fb5 a0bc 1abc 4c3d 681d cebd
000002e0: 985f 523e 67c7 23be 9189 f23d 9cf2 aabc
000002f0: 8d64 15bd 6b0f 45bc 13d9 34bd 76ce a03d
00000300: 54ed 5a3d 22a9 3bbb fdcc b63c fcd9 8b3c
00000310: 9233 903d e233 a13b 97de 44bd 8688 903d
00000320: e01c 82bd 0622 24bc b272 06be 974a 30bd
00000330: 2688 913c 4c86 1f3e 7579 81bd 31d8 71bd
00000340: 7730 43bb 7a45 b13d f5cb 85bc da58 3fbd
00000350: ed6f 203d 901f f4bc a950 7d38 bded c1bc
00000360: 9d77 51bb 3be7 11bc 32b9 6cbd ce0a 773e
00000370: 38aa 983c 3406 963d 79c2 47bb 1584 93bd
00000380: 2368 92bc 02c8 1cbd a514 fa3c bd0b 55bd
00000390: cd50 6abc 0d6a b93d 59c4 4f3d 5d6a 5abd
000003a0: 6a7c da3c c8b1 95bc c73c a33c 84f9 673d
000003b0: 8672 98bc 9f38 01bc 22e4 01bc d7f5 6f3d
000003c0: c58c 63bd 4121 9bbc 3420 fe3c 67e6 b7bb
000003d0: 979b 233e d984 abbd 7a53 213e 8f0a 913e
000003e0: 455c a53d 1162 74bd e269 c83d b14d 10bc
000003f0: 446d 22bd 3901 34bd fad9 fd3c 2db1 41bc
0.047863584 0.042647712 0.050181307 -0.032748293 -0.019808372 0.037392244 -0.053398456 0.02972477
-0.018253094 -0.031604134 0.069572814 -0.001325163 0.1473987 -0.024436245 -0.047701918 -0.032444168
-0.08580706 0.046182387 0.0077520474 0.009000522 0.037119903 -0.08000902 -0.015252657 0.010703229
0.007808897 0.0400109 0.015737679 0.10755102 -0.032973822 -0.032915328 -0.10398557 -0.0042578094
0.01086793 0.025147818 -0.03288277 -0.05698951 0.005312427 -0.031259317 -0.006795242 0.070394345
-0.10802956 0.026647512 -0.090323955 0.0057791085 0.013580635 -0.02219537 -0.015070574 0.03654483
0.057338748 0.0891745 -0.016057286 0.016738566 -0.035418425 0.0035583286 -0.034097545 0.05722868
-0.054001216 -0.11547874 0.037746217 0.15507843 -0.061864913 -0.08289794 -0.07881747 0.10849074
0.040668283 -0.019649351 0.1931523 -0.03595778 -0.13735604 0.16121268 0.001384555 -0.18345863
0.014069663 -0.03567946 0.03501987 0.07049576 -0.05165555 -0.014320069 0.0010687879 -0.056785386
0.012924372 -0.06268287 -0.050114892 -0.0063371165 0.03950534 0.022476885 0.027658788 0.012756289
0.00050098955 0.0014845573 -0.033359773 0.0030124546 -0.06903888 0.030026074 0.05472399 0.05548147
-0.042401087 0.020607507 0.047474205 -0.018900687 -0.009980942 0.014864817 0.120649606 -0.111029506
-0.09237239 -0.0022426478 -0.09478215 -0.051374715 -0.037676997 -0.0033483948 -0.008710518 0.0019586722
-0.032077547 0.006563627 -0.01951767 -0.01535312 -0.005433786 -0.036803033 -0.08392223 -0.04561169
-0.0704072 0.054482 -0.07839069 -0.018729193 -0.04458726 0.0010676812 0.0045017707 0.007584681
-0.04226511 -0.06462532 0.09517034 0.062833704 -0.01267116 0.041389108 0.060549833 -0.002646606
-0.040026177 0.04934094 -0.1936513 0.012736024 0.066773355 0.022455314 0.07381434 -0.02783425
-0.02019737 -0.0939301 -0.06566779 -0.0015912454 -0.014544983 0.04000692 0.080071524 -0.07574992
0.039148904 -0.024698045 -0.14659065 -0.045539845 0.1318274 0.17297897 0.111517236 -0.06990401
-0.07535931 0.000871224 0.01354261 0.0789191 -0.021364452 0.07758137 -0.041533694 -0.027981084
-0.014055574 -0.01004789 -0.0006925179 0.13064405 -0.02212289 0.12535813 0.016149651 -0.06300825
-0.09513058 0.16541357 -0.019441253 0.03380506 0.12012851 -0.019617734 0.049984075 -0.100642025
0.20544279 -0.15994035 0.11842645 -0.020867638 -0.036472846 -0.012027602 -0.04415233 0.07851879
0.05344899 -0.0028634747 0.022314543 0.017071716 0.07041086 0.004919515 -0.04806384 0.0705729
-0.06353164 -0.010017877 -0.1312969 -0.043039884 0.017765116 0.15578574 -0.06321994 -0.059044067
-0.0029783526 0.0865583 -0.016332606 -0.046715595 0.03916924 -0.029800206 6.039502e-05 -0.023672933
-0.0031962164 -0.008905227 -0.057793804 0.24125215 0.018635854 0.07325402 -0.0030480905 -0.07202927
-0.017871922 -0.03827668 0.030527422 -0.052013148 -0.014301491 0.09053431 0.05072436 -0.053324092
0.026670653 -0.01827325 0.019926442 0.05663444 -0.018609297 -0.007887035 -0.007927926 0.05858406
-0.05555417 -0.018936755 0.031021215 -0.005612183 0.15977322 -0.08374948 0.157545 0.28328368
0.0807424 -0.059663836 0.097858205 -0.008807586 -0.039654985 -0.04394648 0.030987728 -0.011822027

decoder.3.bias f4 [16]
00000000: c876 e63d ced4 b5bd 6371 363e ba3d ce3d
00000010: 9de5 d13d 9e12 a63e 2680 99be c61b 813e
00000020: 853e d33c 654b 5d3e 114f 963e 3724 313e
00000030: 4dd6 0c3e 1cf7 6bbe c4e4 033e dcf5 863e
0.112531245 -0.0887848 0.17816691 0.10070367 0.102488734 0.3243608 -0.29980582 0.25216502
0.025786648 0.21610792 0.29357198 0.17298971 0.13753624 -0.23043483 0.12880236 0.2635945

decoder.5.weight f4 [16, 1, 3, 3]
00000000: feac c6bd 5cd2 993d 620e 77bd 7d9a 91be
00000010: 523b 49bd fdf0 8cbe d2d2 82bd bdb3 18be
00000020: a86c 383d ad12 173f cde1 fd3e 6b2a cc3d
00000030: e4ea f33e cb15 b23d 56c7 4ebe 6675 c63d
00000040: c695 55be b842 47be f6a9 6bbe 71cd a5be
00000050: 2fbf 3ebd 93d5 8ebe 9110 82be 2e15 8d3d
00000060: 1a07 083d 248e 60bc 6ca6 c83d 6813 753e
00000070: cae7 de3e c7fc 7a3e cb7f 0c3f 7e6a 593f
00000080: 8472 dd3e a6b6 993e c494 b63e 19eb 0d3e
00000090: 1939 b7be a681 a9be 04ab af3d 1f72 e7be
000000a0: 0d90 39be a20b ae3e ae66 4abe e917 143e
000000b0: a22d b13e 3cae b23c cb2b 2cbd d905 f53c
000000c0: 3ebf 97bd 735d a7be 2c22 28be cf3d 893d
000000d0: 3868 8dbe f9d8 28be 827b a23e 4343 293f
000000e0: 0e1e db3e 2e2f 553e 9bfc 083f 89d5 8b3e
000000f0: 61a1 32bd 4153 e53d 198c 91bb e5f3 d7bd
00000100: e20e bdbe 02b3 b1be c9bd a8bd 3334 08bf
00000110: 07f9 ebbe 3d24 e7bb 608d 8ebe 8918 6fbe
00000120: c6dd 6abd 3d6f 053d 3d30 8b3e 973b 56bc
00000130: 2bb1 9c3e 7cb1 163f 3c87 833d 02c4 cd3e
00000140: 0514 003f 5356 74be 522f 46be 923e fa3c
00000150: 4592 f2bd 739e 17be 74cd cc3d 67b5 c2bd
00000160: 271a 6d3d 0c99 c13d 621b 6fbc b194 b93d
00000170: c223 d23c 5cc5 2bbe 26d4 88be d8e2 5abe
00000180: 61bb 333d 20f9 0dbe e608 69be d313 67bc
00000190: c866 aa3e d933 913d 8d7c c43e 7c6a 7c3f
000001a0: bbb8 9b3e 0055 823e 852e fd3e 5d32 bc3c
000001b0: c33a 67be c875 ad3c 1a97 35bd 74bf 61be
000001c0: 47b5 1e3e 8a7a 0fbe e42c dfbb f139 6c3c
000001d0: 7c5d 1bbe 0a19 8ebe 9c88 e5be e4f0 37be
000001e0: 23b5 d1bd 1242 babd bc4c 143e a3b0 5c3e
000001f0: 036b b73e 5bbf b23e 584d ecbd a076 5fbe
00000200: 557b 09be 063a 05bd fcef 4fbe 73ea e2bd
00000210: 9a98 04be e868 4bbe 8784 bebd 8466 1d3d
00000220: a7b0 b53d 6e83 6dbc c3e0 d73c b7a4 3fbe
00000230: f7db 91be 9051 97bd b941 94be fc32 90be
-0.097009644 0.07510826 -0.06031645 -0.28438178 -0.049128838 -0.2752761 -0.06387867 -0.14912315
0.045025498 0.5901287 0.49586335 0.09969028 0.47640145 0.08695563 -0.20193228 0.09690361
-0.20857915 -0.19459045 -0.23014054 -0.32383302 -0.046569046 -0.2789732 -0.25403264 0.06888805
0.033209898 -0.013705764 0.097973675 0.23933184 0.43536216 0.2451049 0.54882497 0.8492812
0.4325143 0.30022162 0.35660374 0.13859214 -0.3578575 -0.33106726 0.085775405 -0.45204255
-0.18121357 0.3399325 -0.19765732 0.14462246 0.34605128 0.021811597 -0.04203395 0.029910015
-0.074095234 -0.32688484 -0.16419286 0.06701242 -0.27618575 -0.16489018 0.31734854 0.6611826
0.42796367 0.20818779 0.53510445 0.27311352 -0.043610934 0.1119752 -0.00444175 -0.10544566
-0.36925417 -0.34706885 -0.08239324 -0.5320465 -0.4608843 -0.0070538805 -0.27842236 -0.23349203
-0.057340406 0.03257679 0.2718524 -0.013075731 0.30603918 0.5886457 0.06422278 0.40188605
0.5003055 -0.23861055 -0.19353989 0.030547414 -0.11844305 -0.14806537 0.100001246 -0.09507256
0.05788627 0.094530195 -0.014593931 0.09061564 0.025651816 -0.16774505 -0.26724356 -0.21375597
0.04387987 -0.13864565 -0.227573 -0.014103848 0.3328154 0.07089967 0.38376275 0.9859998
0.30414376 0.25455475 0.49449554 0.022973234 -0.2258101 0.021174327 -0.044333555 -0.2204569
0.1549884 -0.14011589 -0.0068107713 0.014418111 -0.1517238 -0.27753478 -0.44830787 -0.17962986
-0.10239627 -0.09094633 0.14482397 0.21551757 0.3582383 0.34911618 -0.1153819 -0.21822596
-0.13425954 -0.03252604 -0.2030639 -0.11079874 -0.12948838 -0.19864237 -0.09302621 0.038427845
0.088715844 -0.014496667 0.026352292 -0.18715177 -0.28488132 -0.07388604 -0.28956392 -0.28163898
