model_b8.pt (torch, 199311 bytes, 11 tensors)

encoder.0.weight f4 [16, 1, 3, 3]
000000 04 36 96 be fe 1c 3d be cc 3a 83 be cd a6 9e bc
       -0.29338086 -0.18468091 -0.25630796 -0.019366646
000010 a9 c4 66 3e 17 02 f2 bd 48 55 6d be 64 e6 0e bd
       0.22535957 -0.11816805 -0.23177063 -0.034887686
000020 7f 20 2c 3e 77 4f 21 be b2 a1 05 bd 12 fa 20 be
       0.16809271 -0.1575297 -0.032624908 -0.15720394
000030 db 53 2b be ab 08 1c 3e 4e 3f bc bd 31 9c bb 3d
       -0.16731207 0.15237682 -0.09191762 0.091606505
000040 ff f7 b5 3d 77 a6 02 3e f9 98 83 3e 43 64 1b be
       0.08885192 0.12758814 0.25702646 -0.15174966
000050 04 ef cc bd 7e 83 8a be 29 31 84 be 8a ae c8 3d
       -0.10006526 -0.27053446 -0.25818756 0.09798916
000060 66 9f 02 3e ff d2 29 be 35 7d a1 3d 8a 1d 1a be
       0.12756118 -0.16584395 0.078852095 -0.15050331
000070 45 b7 67 be 60 0a cb 3e 67 ed 86 be f1 00 7d 3e
       -0.22628506 0.39656353 -0.26353 0.2470739
000080 34 a1 cc bd 2a dc 3b be 2a 55 55 be 62 d4 b7 3e
       -0.099916846 -0.18345705 -0.20833269 0.35904223
000090 92 d2 0d 3d 47 e0 25 be e5 ef 99 be 61 a7 e8 3d
       0.034624644 -0.16198836 -0.30065838 0.1136005
0000a0 8f c2 5d be d7 f0 21 3e 2f 44 42 ba 23 e0 5f 3e
       -0.2165625 0.1581453 -0.0007410673 0.21862845
0000b0 3b 66 83 3e a5 d8 73 bb 41 46 8d be eb d9 b3 bc
       0.25663933 -0.0037207988 -0.27592662 -0.021954497
0000c0 b5 a4 2f be 00 93 92 3e 6e d6 9e 3d e2 4e 04 3e
       -0.17152674 0.28627777 0.07755743 0.12920716
0000d0 c5 f3 ed 3d 89 44 42 3e a0 21 22 bb c3 59 56 be
       0.11618761 0.18971457 -0.002473928 -0.20932679
0000e0 60 f7 01 3e 91 23 aa 3d e0 65 8a be 8f dd cf be
       0.12692022 0.08307565 -0.2703085 -0.40598723
0000f0 c6 f2 ac 3e 07 f2 8c 3d 8f 36 1e 3e 97 63 5c 3d
       0.3377897 0.068821006 0.154505 0.053805914
000100 15 d2 db 3d e5 94 7d 3d 17 22 56 be 6a 9b 41 be
       0.10733429 0.061909575 -0.20911442 -0.18906942
000110 e6 8b b9 3e 64 fc 6b be 86 6b 8e bc aa 7e b1 3e
       0.36239547 -0.23045498 -0.017385256 0.3466695
000120 1a eb 16 be 8e f0 20 3e 9a a9 1b be f8 06 31 be
       -0.14738122 0.15716764 -0.15201417 -0.17287815
000130 08 ec d6 bd 09 ae 26 be a6 64 20 bd 1f 09 56 bd
       -0.10494238 -0.16277327 -0.039158486 -0.052254792
000140 1f 4f 19 bd fa c8 9a 3d b2 6d 1c 3e ac 75 80 be
       -0.03742897 0.075578645 0.1527622 -0.25089777
000150 01 af f9 3d f4 79 b1 3e 53 7d da bb 20 26 11 bc
       0.121915825 0.34663355 -0.006667772 -0.008859187
000160 d0 1b 5d 3c e4 e6 fa bd 56 0f 89 3e c9 54 35 3e
       0.013495401 -0.1225107 0.26769513 0.17708124
000170 0f 15 cb 3e 5f a5 8d be 4b 26 91 be 10 d6 b4 bc
       0.39664504 -0.2766523 -0.28349528 -0.02207473
000180 ec 3b ee 3d 64 a0 81 be 85 1f bd 3d bb 3e a0 bd
       0.11632523 -0.2531768 0.092345275 -0.07824465
000190 8c 4a 98 be 3d 48 a7 be ee 2b 25 be bd 53 eb 3d
       -0.29744375 -0.326723 -0.16130039 0.11490581
0001a0 92 26 33 3e 24 97 32 be af 4a 8b 3e 89 c6 6e 3e
       0.17495182 -0.17440468 0.27205417 0.23317923
0001b0 24 8e ee bd 02 48 56 3e 4c 27 91 3e 3b 0e 39 3e
       -0.11648205 0.20925906 0.28350294 0.18071835
0001c0 6d d9 34 bd 18 dd 0d 3e b9 a8 06 3d e7 a6 88 3e
       -0.044152666 0.13853872 0.03287575 0.26689836
0001d0 4e 2e 1d 3d 18 3c 6c be 49 dd 58 bc df 9c 8a 3e
       0.038374238 -0.23069799 -0.013236352 0.27072808
0001e0 06 fc e9 3d 11 77 3d be df e4 9f be 13 8f 81 be
       0.11425023 -0.18502451 -0.31229302 -0.2530447
0001f0 42 92 82 bd 58 60 02 3e 9c 5b 7e 3e 16 6a 38 be
       -0.06375553 0.12732065 0.24839634 -0.18009219
000200 d5 3a 95 3c 5b d5 6a be 25 b6 e8 bd 02 24 37 3e
       0.01821653 -0.22932951 -0.11362866 0.1788483
000210 3c d9 1a bd c3 a8 e3 bd 7b f5 14 be 62 a6 0c 3e
       -0.037804827 -0.11116173 -0.14546768 0.13735345
000220 0b 8f 0c 3d 16 ca 43 be 81 ae 94 be 77 67 87 be
       0.034316104 -0.19120058 -0.29039386 -0.26446125
000230 f9 13 58 3e 0a 19 b5 3d 19 f1 4e be cd 30 03 3d
       0.21101369 0.088426664 -0.20209159 0.032028962

encoder.0.bias f4 [16]
000000 5f 30 4e be 1a 1b 3e 3e 9c 32 6b 3e c7 9b c1 bd
       -0.2013564 0.18565026 0.22968525 -0.0945354
000010 c3 2e 88 3e 38 b0 ac 3e 80 96 e2 bd 2b 2b 8e 3e
       0.26598176 0.33728194 -0.11063862 0.2776731
000020 fe f6 81 be 14 7e 9e 3e 54 fe bf 3d 65 ec 80 be
       -0.25383753 0.30955565 0.09374681 -0.25180355
000030 21 fe 5a 3e cf 8d 5a bb eb cf 8b 3e 9e b8 a8 be
       0.21386005 -0.0033348685 0.27307066 -0.32953352

encoder.2.weight f4 [32, 16, 3, 3]
000000 fa c4 4b bc a9 7b b0 bc 9b e0 5f 3d 75 d9 a5 3d
       -0.0124371 -0.02154334 0.05465756 0.08098117
000010 4b d7 c5 3b 49 d9 ab bd dd 58 9a bc e0 8d 0e 3d
       0.006037628 -0.08391053 -0.018841201 0.03480327
000020 a3 ed 01 3d 2d 0f 42 bd 93 bb ae 3d 51 c7 f0 bc
       0.03172077 -0.047377754 0.08531871 -0.029391916
000030 12 83 6b 3a 6a 82 cb bc 64 86 83 ba 9a 12 ba 3d
       0.00089840696 -0.02484246 -0.0010034558 0.09085579
000040 f1 cf 22 3d d4 28 a0 3d f8 87 44 bd fd 35 e1 3c
       0.03974909 0.07820287 -0.047981232 0.027491564
000050 28 9d 9d bc d2 92 40 bd 73 ea 81 bc bf b3 82 3a
       -0.019239977 -0.04701502 -0.015858864 0.0009971781
000060 43 70 b3 3c 1d 02 39 3d 49 88 df 3c b7 a1 86 3d
       0.021904116 0.04516803 0.027286666 0.065738134
000070 ac d7 58 bd bd 8b cb bb 15 84 06 3d 07 8c 87 3d
       -0.052940056 -0.0062117265 0.032840807 0.06618505
000080 d0 fb 34 bb 1f ff 53 bd 7e 1f 9a 3d a6 c0 b0 bc
       -0.0027615912 -0.051756974 0.07525538 -0.021576237
000090 45 36 1d 3d 9b fa 76 3d 85 fb 9e 3d 97 35 6c bd
       0.038381834 0.06029759 0.07762817 -0.057668295
0000a0 72 64 96 bd c4 59 c7 bc 39 2d bd 3d 1b 02 45 3d
       -0.07343377 -0.024334796 0.09237141 0.04809771
0000b0 de ad 80 3d 88 38 64 3d 09 ce 23 3d dd 1e 15 3d
       0.062831625 0.055717975 0.039991412 0.036406387
0000c0 35 21 93 3d 44 3a 44 3d 67 6f ab bc 67 79 50 3d
       0.07184068 0.04790713 -0.020927144 0.05089703
0000d0 db 79 04 3c 5f f9 8b 3d c2 27 90 3d dc 3e fd 3d
       0.008085693 0.06834673 0.07038833 0.12365505
0000e0 eb e4 66 3d eb a3 1b bd a4 81 b7 3d cb 97 04 bd
       0.056370657 -0.03799812 0.08960274 -0.032371324
0000f0 da e0 50 3c 96 36 41 3e a2 ac 5b 3d 81 12 1d bd
       0.012748921 0.18868479 0.053631432 -0.038347725
000100 9a a6 6e 3d f5 aa ae bb 22 ba 45 bd ff f2 7d 3c
       0.058264352 -0.0053304383 -0.048273213 0.015499829
000110 89 27 15 bc 20 ea e6 bc 56 6f db bd 92 a0 2b 3d
       -0.009103664 -0.028187811 -0.10714595 0.04190118
000120 dd bf 5b 3c 35 22 c0 3c 6d ff 86 bd 51 7a 61 bd
       0.013412443 0.023453811 -0.06591687 -0.05504829
000130 c0 ef 18 3d 5d 37 2b 3d 08 6d b1 3d 78 e8 e9 3c
       0.03733802 0.041800845 0.08663374 0.028553233
000140 32 a1 48 bd 6d de 84 3d 5f 32 5c 3d bd 94 cf bc
       -0.048981853 0.06487737 0.053758975 -0.025339479
000150 59 af 9d 3c 6a 0d bd 3a 39 89 c8 bc 47 75 23 bc
       0.019248651 0.0014423553 -0.024479495 -0.009976692
000160 ab 5f fa bc 87 00 c5 bd dd 31 4e bd 45 ef a9 bd
       -0.030563196 -0.09619241 -0.050340522 -0.0829759
000170 ba ad 35 bd 16 53 61 3d 5f a0 b7 3b 98 6c 65 bd
       -0.04435513 0.055010878 0.0056038345 -0.056011766
000180 36 27 c1 bd 03 8c 79 3d 36 8f 41 3d 5b 27 e6 3d
       -0.09431307 0.06092454 0.047255717 0.11237975
000190 db 09 c5 3d 01 84 cd 3b a4 b7 44 3d e5 13 94 3c
       0.096210204 0.0062718396 0.048026696 0.018075893
0001a0 8f 7d 46 bd 19 f2 b5 3d 76 00 b1 3d 39 8a 16 bd
       -0.048459586 0.08884067 0.08642666 -0.036752913
0001b0 fc ae e6 3b 08 62 bd bd 15 31 25 bd 7d 82 04 be
       0.0070399027 -0.092472136 -0.04033001 -0.12940402
0001c0 55 5f a6 bd d3 77 96 bc 7e 5a a0 3c a0 de df bd
       -0.08123652 -0.018367684 0.0195744 -0.10931134
0001d0 f0 33 15 bd 54 cc b4 3c f5 c1 84 bc b2 55 31 3d
       -0.036426485 0.022070087 -0.016205767 0.043294616
0001e0 c0 cb ce 3c 49 a8 13 bd 11 42 0f 3d 91 69 af 3d
       0.02524364 -0.03604916 0.034975115 0.08565057
0001f0 51 c7 e2 bc a2 6d 32 bd a0 71 dd 3c 59 4b 7c bd
       -0.027682932 -0.043561585 0.02703172 -0.061595295
000200 ba 5e 16 3c 27 39 c2 bc 32 1d 6d bd 7c 17 06 bc
       0.009177858 -0.023708893 -0.05788917 -0.00818431
000210 60 24 90 bd 6e 54 45 bd 57 15 81 3d 89 1f 8d bd
       -0.07038188 -0.04817622 0.063028984 -0.068907805
000220 98 15 45 3c d3 e7 0a bb c3 7f 02 bd 0e 3c 35 3d
       0.012029074 -0.0021195307 -0.031860124 0.044246726
000230 ab 47 5c 3c d4 05 87 3d 69 60 77 bd 84 8e 9f bc
       0.013444821 0.065929085 -0.06039468 -0.019477136
000240 49 54 d9 3c 66 41 03 3e 56 da 35 bd a1 f5 c9 3d
       0.026529448 0.12817916 -0.044397675 0.09861303
000250 e6 24 d0 3d d8 4f 73 bd a8 80 c2 3d 0f 57 22 bd
       0.10163288 -0.059402317 0.094971955 -0.039633807
000260 dd b5 01 be eb 0a d1 3d 8e 96 97 bd 16 06 4f bb
       -0.12667032 0.102071606 -0.07401763 -0.003158932
000270 5a b8 80 3d 41 2a 6e 3d 30 cd 1a 3b 3f 62 73 3b
       0.06285162 0.058145765 0.0023620836 0.0037137417
000280 b1 8b f7 3c 15 96 13 3d 5e b8 9d 3d 47 eb 08 3d
       0.030217977 0.0360318 0.07701181 0.033427503
000290 62 b3 5b bd 9e 4b bc 3d 08 49 87 3d a2 ec 92 bd
       -0.05363787 0.0919411 0.066057265 -0.071740404
0002a0 8f ae c2 3c 3e f0 bb 3c 10 da 70 3c 63 76 cc 3c
       0.023764877 0.022941705 0.014700428 0.024958795
0002b0 59 98 69 bd 2d 1f 0e 3e 3e f7 c4 3b 01 bd d0 3c
       -0.057030056 0.1387908 0.006010919 0.02548075
0002c0 a0 d0 14 3e f6 56 1e 3d 7e 74 80 3c 14 ef 6d 3d
       0.14532709 0.03865715 0.015680548 0.05808933
0002d0 4f 66 03 3b f6 84 ec 3b 07 e5 9d bd 0d 0c 1d 3e
       0.0020049994 0.0072179986 -0.07709699 0.15336628
0002e0 2e c3 c0 3d 24 50 a1 3b e2 f8 9d 3d 70 57 97 bb
       0.094122276 0.0049228836 0.07713486 -0.0046185777
0002f0 c6 83 e2 bd c3 aa 1d bd 30 68 d5 bd 4e 59 d9 bc
       -0.1106029 -0.03849293 -0.10420263 -0.026531842
000300 8d 2b a8 bc 72 c0 93 bd a4 da 3d 3e 70 90 2c 3d
       -0.02052858 -0.072144404 0.18540436 0.042129934
000310 fd 4a e8 3d 16 c6 2b 3d c8 5d 17 bd 03 df 48 bd
       0.11342428 0.041936956 -0.03695467 -0.049040806
000320 65 8c 16 3d ca 25 94 3d 32 cd 96 3d 8d c0 f7 bc
       0.036754984 0.0723377 0.07363357 -0.030243183
000330 9c a0 08 3d 53 9f 28 be e5 10 a0 bd 97 c6 9a bc
       0.033356294 -0.16467027 -0.078157224 -0.018893523
000340 d4 ab 47 3c 77 78 b8 3d fe f1 b0 bd a9 66 af 3d
       0.012186963 0.09007352 -0.08639906 0.08564503
000350 62 64 11 3e 7f 33 81 3c 43 ba e5 3c 02 ba ac 3d
       0.14198449 0.015771626 0.028042918 0.08433916
000360 cf 1a 78 3e b7 84 5b 3e 3d 1f 66 bd a5 c5 86 3e
       0.24228977 0.21437345 -0.056182135 0.26322666
000370 40 37 b8 3d 69 fc be bd 66 0e 82 3d 62 f0 87 bd
       0.08994913 -0.09325487 0.063504025 -0.06637646
000380 b4 08 59 be 68 c1 4d bd 97 d6 6f 3d 19 81 c7 3d
       -0.21194726 -0.050233275 0.05855426 0.0974142
000390 54 04 c5 bd 6f 7a 5b bd 33 94 1c 3e 8a bc 2f 3e
       -0.09619966 -0.05358356 0.15290909 0.17161766
0003a0 7a d5 d5 3c 6b 09 d4 3d 9e 88 0e 3d 4b d1 af 3d
       0.02610277 0.10353359 0.034798257 0.08584841
0003b0 5a 1d 69 3d 6b 38 c2 3c 0c 6f 57 3c 78 ba 96 bd
       0.056912757 0.023708543 0.013149034 -0.07359785
0003c0 50 f4 d0 3d 8d 62 17 bd 4f 1f 5f bd bd c3 3f 3d
       0.10202849 -0.03695922 -0.054473218 0.04681753
0003d0 09 66 2a be 75 c2 02 bd 95 89 05 be c1 c9 40 be
       -0.16640486 -0.03192373 -0.13040765 -0.18826963
0003e0 99 7f b4 bd 92 a7 72 3d 75 e8 34 3d a2 43 03 3e
       -0.088134 0.05924184 0.044167 0.12818769
0003f0 a7 60 ca bc a3 08 0a be b2 16 a2 3d 49 8f e9 3c
       -0.02470429 -0.13479857 0.07914485 0.028510706

encoder.2.bias f4 [32]
000000 8e e1 48 3d 4b d5 f2 3b 8c 20 f9 3c d2 98 1f bd
       0.04904323 0.0074106804 0.030411027 -0.0389641
000010 36 78 25 bd 28 c0 69 3d dc 18 ee bc 51 ff 54 bd
       -0.040397845 0.05706802 -0.029064588 -0.0520013
000020 eb be 4e 3d 0f 99 9e 3d 0d 3d 68 3d 0b 67 43 bc
       0.050475042 0.07744037 0.056698848 -0.011926423
000030 f1 e2 b1 3c ec 8b 02 3d c0 a8 a5 3d c2 02 9f bd
       0.02171466 0.03187172 0.08088827 -0.07764198
000040 21 13 6f 3d 82 f3 8e bd 19 77 9c bd c9 7c 95 3d
       0.058367852 -0.06980039 -0.076399036 0.072991915
000050 6a c1 40 bb 32 44 42 bc 1d a7 46 3d e5 bf 94 bc
       -0.0029412159 -0.011857079 0.048499215 -0.018157909
000060 80 59 5e bd 3e 29 fb bc 84 e6 9a 3d 6c e8 a8 3c
       -0.054284573 -0.030659314 0.075634986 0.02061864
000070 19 db d4 bc f2 6f 6a 3d 53 2b c0 bb 75 ff bb bc
       -0.02598338 0.057235666 -0.0058645396 -0.02294896

encoder.5.weight f4 [12, 1568]
000000 ae 94 64 3c e9 9e 36 bc c8 f2 a9 bb f0 57 02 3d
       0.013951464 -0.011146286 -0.0051864125 0.031822145
000010 6a 1f bd 3c e5 ef e6 3c 2c fa 0e 3c 22 63 db 3b
       0.023086268 0.028190563 0.008726638 0.006695167
000020 41 28 23 3c ab 81 2d bb 25 23 9c bc 8a f5 4a bd
       0.009958328 -0.0026474993 -0.019059727 -0.04955057
000030 8c d3 0b bc 82 80 36 bc 20 b7 c6 39 f7 72 82 39
       -0.008534323 -0.011139037 0.00037901942 0.00024881188
000040 50 54 25 3c 1c 10 1e 3c b2 1b 06 3d 2c 2c fd 3c
       0.010090902 0.009647395 0.032741256 0.030904852
000050 39 92 7f 3c df 72 f5 bb 78 30 1b 3d 73 ff 20 3b
       0.015598827 -0.0074905003 0.03788802 0.0024566322
000060 3a 27 7f 3d 83 0a e0 3d c6 60 67 3d d1 40 ea bc
       0.06229327 0.10939505 0.056488775 -0.02859536
000070 49 c8 a0 3c be 05 55 bc 45 ed bd bc 0a 8b 40 3b
       0.019626753 -0.013001857 -0.023184428 0.0029379749
000080 8f 68 9e bb 21 85 a6 3c a0 e8 e5 3c 0e da 0b 3c
       -0.0048342417 0.020327153 0.028065026 0.008535875
000090 d9 1f fa 3b 07 7c 93 bc d0 7c 20 3d 0a 97 55 bd
       0.007633191 -0.018003477 0.03918153 -0.052145995
0000a0 0a b8 b0 bc 19 47 92 3c 2e 23 33 3c 33 a2 83 3c
       -0.021572132 0.017856168 0.01093368 0.016068554
0000b0 cf 0d 25 3d 69 95 2f 3d e8 56 ad 3c 9e c4 cd 3c
       0.040296372 0.042867098 0.021159604 0.025118168
0000c0 93 2b b7 3b 15 44 9e bc 96 35 b4 3c 3e 48 2a bc
       0.0055899112 -0.019319573 0.021998208 -0.0103932
0000d0 ef bf e0 39 b6 2b 9a 3b 42 85 41 bc 45 87 fa 3c
       0.0004286761 0.004704918 -0.011811556 0.03058208
0000e0 0e 01 29 bd af 1b 84 bc e1 01 d1 3b 3c b8 1a 3e
       -0.04126077 -0.016126482 0.006378398 0.15109342
0000f0 15 0b 55 3d 5d 8c 7b bd b6 71 93 bc 10 be 6d bd
       0.05201252 -0.061413158 -0.017998558 -0.058042586
000100 91 85 33 bd 30 7e 81 3d e6 62 e6 bc 74 8d 9c bd
       -0.04382855 0.063228965 -0.02812333 -0.076441675
000110 7b 23 9c bd 60 8e e5 bc f3 ef 13 bd 2f 24 21 3c
       -0.07623955 -0.028021991 -0.036117505 0.009835287
000120 6d 57 02 3e f8 10 8f bd 81 c0 15 3d 75 62 04 3e
       0.12728663 -0.069856584 0.03656054 0.12928183
000130 6f 4b 79 bb ad 16 23 3c 7b d0 55 3d 60 ba e3 bb
       -0.0038039347 0.009954137 0.052200776 -0.006949708
000140 58 28 af bd 50 6d d7 3c 67 ff a6 3d 88 c8 bf 3c
       -0.08552617 0.026297241 0.08154183 0.02341105
000150 ec 28 1f bd f8 f8 b1 3d 2a 92 b3 bc 94 ef 14 3c
       -0.038857386 0.08690065 -0.021920282 0.009090323
000160 80 46 0f 3d 5a 9b 9d bc 64 66 40 3c 74 37 06 3d
       0.034979343 -0.019239116 0.011743162 0.032767728
000170 f2 95 b1 3c d6 06 9e bd d0 69 46 be 91 67 38 bc
       0.021677945 -0.077161476 -0.19376302 -0.011255161
000180 be 93 81 3d 46 0f b2 3c 18 33 03 bc d8 15 4e bc
       0.06327008 0.021735799 -0.008007787 -0.01257845
000190 64 c9 8c 3c b3 7b eb 3b ec 3f 25 bc 1c 5e 8a bc
       0.017185874 0.007186377 -0.010086041 -0.016890578
0001a0 45 c5 a1 bc ea 58 df 3c 6b 47 95 3c b9 5f 82 3c
       -0.019747386 0.027264077 0.018222531 0.015914785
0001b0 7f 6e 19 3c 70 b5 da 3b 22 fb 9f bb 97 58 b5 3c
       0.009364723 0.006674461 -0.0048822323 0.02213697
0001c0 56 49 14 3c 45 ec 0a 3b bf 51 c3 3c 3b b0 17 bc
       0.009050688 0.0021197957 0.02384269 -0.009258325
0001d0 cd 30 b7 3d b0 13 0e 3c 96 c6 d1 3b 8b f3 80 bb
       0.08944855 0.008671686 0.006401847 -0.0039352826
0001e0 55 b6 62 3c 59 12 7e ba 55 74 1c 3d ef f3 01 3e
       0.013837417 -0.0009692065 0.03819688 0.1269071
0001f0 73 d5 29 3d ce 11 a6 bc b8 dc dc bb b0 81 a3 3c
       0.041463327 -0.020272162 -0.006740179 0.0199593
000200 40 c9 14 3d 63 49 04 bd 42 ae 88 3d 4d 52 e8 3c
       0.03632474 -0.03229655 0.06673862 0.028359557
000210 1a 0b 03 3d fe f5 22 3c ed 5c 53 bc b7 4d 37 ba
       0.03199301 0.009946344 -0.012900573 -0.00069924764
000220 e4 9b 12 3e e4 19 39 bd dd 01 0b 3d d8 3b 75 3c
       0.1431728 -0.045190707 0.033937324 0.014967881
000230 80 67 cf 3b 3c 70 43 ba 03 b2 47 bd 7b 21 99 bd
       0.006329477 -0.0007455384 -0.04875375 -0.07477089
000240 91 b0 cf 3c f7 5f d0 bb c0 15 7f bb 59 33 c4 3c
       0.025352748 -0.006359096 -0.0038922876 0.023950266
000250 bb 34 e5 bd 5c c2 46 be ae b2 bc 3d bf c0 76 3d
       -0.11191698 -0.1941008 0.09213768 0.06024241
000260 d5 24 cf bc 60 26 c4 bc cf 9a 98 bc 06 01 a7 bd
       -0.025286118 -0.02394408 -0.018628506 -0.08154492
000270 52 25 14 bd 5d 61 07 be 3c 5a 85 bd 71 0e 0d be
       -0.036168404 -0.13220735 -0.065113515 -0.1377504
000280 89 43 7f 3b d6 e0 5d bd ae 31 c0 bd f2 4b d2 3d
       0.0038950166 -0.0541695 -0.09384476 0.10268392
000290 cf 46 a2 3d 01 8b 40 bd 19 e6 6f bd bf 6a 0b bd
       0.07923662 -0.047007564 -0.058569048 -0.034037348
0002a0 f8 2b 91 3c 79 41 4b 3d 9f 3e 70 bc a2 e7 73 3e
       0.017721161 0.049622986 -0.0146633675 0.2381883
0002b0 13 12 26 3d d1 25 d7 bd be c5 2c 3b 3b e6 c6 bc
       0.04054458 -0.1050526 0.002636298 -0.024279704
0002c0 9c 03 77 3d f4 60 4b bd 93 2d 84 3d 55 a1 44 3d
       0.060306177 -0.04965301 0.06454005 0.04800542
0002d0 fc 9f a8 3c f0 51 10 3b 7a 20 b8 3d 6b fc 04 3c
       0.020584099 0.0022021495 0.089905694 0.008116822
0002e0 44 67 94 bd 59 a5 73 be 19 d6 c4 bd 58 64 36 3d
       -0.07246259 -0.23793544 -0.096111484 0.04452929
0002f0 b0 52 08 bd 1d c2 d0 3c c8 73 8f 3c 63 19 1d bd
       -0.033281982 0.025483185 0.017511263 -0.03835429
000300 35 c2 2f be d8 df f6 bd 51 6c d0 bc 96 02 f1 bb
       -0.17163928 -0.120544136 -0.025442274 -0.0073550446
000310 df 30 1c b9 2f b6 d7 bc 66 7f 6a bd 53 a9 3f 3d
       -0.00014895525 -0.02633199 -0.057250403 0.04679234
000320 2f ac 7a 3d 57 53 36 3d 89 c0 97 bb f4 e7 8f 3b
       0.061199363 0.044513073 -0.0046311063 0.0043916646
000330 e1 af 50 3c 91 9a e0 bb af 6b d3 3a f6 a5 0d bb
       0.012737245 -0.0068543633 0.0016130115 -0.0021613813
000340 2c 54 f9 3c 2a 8a b8 3c 16 5a 84 bc 97 de 79 3c
       0.030435644 0.02252682 -0.016156238 0.015250823
000350 ac bd b4 bd b6 a3 7d bd 7a 61 75 be ca 39 45 3c
       -0.088252395 -0.061923705 -0.23962966 0.012037704
000360 fa 18 12 3c 4a c6 cf 3c b2 e0 6f 3d 56 a0 7d bc
       0.008917088 0.025363106 0.058563896 -0.015480122
000370 bc 57 0b be 21 3c 15 3e fd bf f1 3a 6b 60 a0 bb
       -0.13607687 0.14573719 0.0018444058 -0.0048943064
000380 b3 97 ed bb 9a 04 3c 3c 28 b5 b6 3c a6 d8 60 3d
       -0.00725075 0.0114757065 0.022303179 0.054894112
000390 0b d1 53 3d 72 88 02 3e 59 a6 97 ba e0 6b d9 37
       0.05171303 0.12747362 -0.0011569961 2.5918649e-05
0003a0 c1 45 a3 bc 0f f8 a7 bd 88 f2 f8 3d 73 c9 82 3d
       -0.019930722 -0.0820161 0.12155634 0.0638608
0003b0 d1 b4 c5 bc 97 c6 05 3d 24 39 02 3d bd 8a d4 3b
       -0.024134072 0.032660093 0.031792775 0.0064862655
0003c0 b5 8c b3 bd 51 4b f6 bd 8c b4 68 3d aa 07 bc 3b
       -0.08767072 -0.12026084 0.056812808 0.0057382183
0003d0 07 97 64 bb fd ae 08 bc bd 24 9c bc 28 8a b5 bc
       -0.0034880058 -0.008342502 -0.019060487 -0.022160605
0003e0 37 62 f6 3a 90 0a 90 bc aa 64 2e bd dd df d4 bc
       0.0018797581 -0.017583162 -0.04257647 -0.025985653
0003f0 4c af d9 bb f6 3e 55 bd db aa e0 3c 16 c3 af 3d
       -0.0066432115 -0.052061997 0.02742522 0.085821316

encoder.5.bias f4 [12]
000000 a8 e0 83 bb 85 e6 de bc a0 33 ca ba f7 50 d5 bb
       -0.004024584 -0.02720953 -0.0015426762 -0.006509896
000010 f1 04 b3 3c c6 e1 e5 bc fc 67 ec bb 7f 9e e5 3c
       0.021852942 -0.028061759 -0.0072145443 0.028029678
000020 f2 1b c5 3c 7e ba 20 bb 4a b4 3a 3d b0 ad 40 bd
       0.024061177 -0.002452522 0.045582093 -0.04704064

decoder.0.weight f4 [1568, 12]
000000 c0 0b be 3d ea 41 90 bc 1b 00 92 3d 0d 47 66 bc
       0.09279585 -0.017609555 0.07128926 -0.014055026
000010 66 0a de 3d 89 83 88 be fd e5 48 3d ff 1b ff 3d
       0.10841827 -0.26662853 0.04904746 0.12456512
000020 47 d3 db 3d 22 50 11 be 96 98 2b 3b 2e 16 f1 3c
       0.10733657 -0.14190724 0.0026183478 0.029429521
000030 e4 a9 f6 3d 9a 31 a0 3d 6e 92 16 3d ed 6c 82 bc
       0.12044123 0.07821961 0.03676074 -0.01592108
000040 ce 6e 94 3e 95 e3 34 be 05 f4 9a 3c 3c 66 4e bb
       0.28990787 -0.1766494 0.018915186 -0.0031494042
000050 5e 18 e8 3d d6 8e 20 be 2f 85 2b 3e 82 b5 00 3e
       0.11332773 -0.15679488 0.16750024 0.1256924
000060 be 86 7e bf 9b b6 93 3f d9 44 c3 bf ee d0 d4 3f
       -0.9942435 1.1540102 -1.5255386 1.662626
000070 b4 bd d1 be 20 2d cf 3e 54 0e c6 3f ad b5 82 bd
       -0.40965044 0.40464115 1.5473123 -0.06382308
000080 21 79 aa bf b2 88 8f be e4 ae c5 bf c7 4f 06 40
       -1.3318216 -0.28033978 -1.5443997 2.0986192
000090 c9 d0 88 bd 14 6a f8 bd 91 38 f2 bd 28 e4 10 3e
       -0.066804476 -0.12129608 -0.118271954 0.14149535
0000a0 b8 ac da 3d 47 6b db bc 9b f0 34 bc 80 c0 09 3e
       0.10677475 -0.026784552 -0.011043693 0.13452339
0000b0 16 e4 ca 3d 55 94 39 be 21 cc 55 3e da 61 94 bd
       0.09906785 -0.1812299 0.2087865 -0.07245226
0000c0 be 6c 96 bc 0d 02 97 be 40 3e bf 3d fe 0d 8b ba
       -0.0183624 -0.29493752 0.09338045 -0.0010609028
0000d0 eb d5 2f 3e 3c 65 11 be a6 1e d8 bd 9a 77 30 3e
       0.17171447 -0.14198774 -0.10552721 0.17233124
0000e0 21 66 26 3d be 79 97 ba a7 49 06 3d 3f cc 93 3d
       0.04062474 -0.0011556668 0.032785084 0.07216691
0000f0 17 08 3a 3b 8a 52 1e be 23 c5 8f 3e f5 8e d1 bd
       0.002838617 -0.15461174 0.2808009 -0.10232345
000100 bf b1 7c 3d 83 a6 62 bd 5f 68 ee 3b bf 61 69 ba
       0.06169295 -0.05533458 0.0072756256 -0.000890281
000110 93 db ea 3c 98 e2 37 be 41 99 e1 bc 22 17 05 3d
       0.028669154 -0.17957532 -0.027538897 0.032492764
000120 7e f7 97 bd 1c 7d dd bc c9 be 6c bd 30 47 f8 bd
       -0.07420252 -0.027037196 -0.057799134 -0.12122953
000130 12 15 a2 bd 07 ba 3a bd 91 fc ae 3d bc 85 b0 bd
       -0.07914175 -0.045587566 0.08544267 -0.08619258
000140 1e 6c 00 3d fe c6 33 3d f6 74 a4 3c cd 6f 0f 3d
       0.03135311 0.043890946 0.020075303 0.03501873
000150 25 3d 12 bd 7b d0 12 bd 6d 06 ac bc db ff 08 3e
       -0.035702843 -0.035843354 -0.020999158 0.13378851
000160 26 82 48 3e f0 4c 1f be 14 72 0c be ad 83 ac 3d
       0.19580898 -0.15556693 -0.13715392 0.08423553
000170 07 0c 87 bd 9f 3d 31 3d 31 78 10 3b 32 87 e0 3d
       -0.06594091 0.043271657 0.0022044296 0.109632865
000180 5e 7f 5d bf 88 ad 9d 3f ba aa a4 bf 9d cf c3 3f
       -0.8652247 1.2318583 -1.2864602 1.5297734
000190 ca 78 d7 be dc 3b dd 3e 66 88 b6 3f 02 04 7b bd
       -0.42084342 0.43209732 1.4260375 -0.06128312
0001a0 03 a4 ab bf 10 ac 92 be 47 84 c4 bf aa 54 00 40
       -1.3409427 -0.28646898 -1.5352868 2.0051675
0001b0 d3 69 14 3e 90 e9 15 3d 09 70 d2 3d 16 9e ca 3c
       0.14493494 0.036599696 0.10275275 0.024733584
0001c0 c5 8a 5d 3e 86 1d d8 3d 1b 47 e6 bc c4 e8 8f 3e
       0.21634968 0.10552506 -0.028110078 0.28107274
0001d0 34 af 8a 3d 44 e5 c0 bd a9 45 02 3e fc e7 87 3e
       0.067716986 -0.09418729 0.12721886 0.26544178
0001e0 01 35 83 3e 0e 5b d6 bd d5 43 15 3e 20 d7 f2 3d
       0.25626376 -0.10466586 0.14576657 0.11857438
0001f0 71 a9 92 bd 93 93 0d 3d 01 5b 00 3e 4c 0f 4a 3e
       -0.07161225 0.034564566 0.12534715 0.19732398
000200 6a 37 36 3e 94 05 17 be 16 2f ba 3d 98 d6 d7 3d
       0.17794576 -0.14748222 0.09091012 0.105389774
000210 6c 8c 91 3e f8 80 2e 3e 22 47 27 3c db c7 04 3e
       0.28427446 0.17041385 0.0102098305 0.12966864
000220 75 ba 45 3e b6 09 be 3d 1b 55 36 be f4 ad 62 3e
       0.19309409 0.09279196 -0.17805903 0.2213667
000230 30 98 46 3d 24 90 98 be 7f 67 98 bd e3 fa db bd
       0.04848498 -0.2979747 -0.07441615 -0.10741212
000240 48 19 6f bf 90 24 86 3f c9 4c b9 bf 0f 56 d5 3f
       -0.9339795 1.0479908 -1.4476558 1.6666888
000250 25 4e dd be 4c a0 cb 3e e4 23 ad 3f 5d 10 de bd
       -0.43223682 0.39770734 1.3526578 -0.10842965
000260 88 a8 ac bf c4 a3 61 be 8f 18 b5 bf ab 9c 04 40
       -1.3488932 -0.22035128 -1.414812 2.0720623
000270 ca 06 6d be 56 c5 27 bc 53 bc 02 bc 2e 7d 7e 3c
       -0.23147121 -0.01023992 -0.00797947 0.015532775
000280 ad 4c 8e bd a7 b4 0f bd 1f fd e2 bd ec aa 55 bd
       -0.069482185 -0.035084393 -0.11083435 -0.052164957
000290 78 64 c6 3d 8f 29 2d 3c f2 67 59 be e4 d7 6a 3a
       0.09687132 0.01056899 -0.21231058 0.0008958562
0002a0 c2 a2 1e 3e 87 b3 fc bd 89 1a e4 bd ce 8e be 3d
       0.15491775 -0.123389296 -0.11137874 0.093045816
0002b0 34 47 a7 3e 67 4d bd bd 09 b6 4a 3d e6 79 62 3e
       0.3267151 -0.09243279 0.04949001 0.22116813
0002c0 81 ee 91 3c dd 15 8a bd 26 3c 25 bd ed f1 10 3d
       0.017813923 -0.06742451 -0.040340565 0.03538697
0002d0 dd 4a 67 bf f3 10 86 3f ea e2 b5 bf a3 d1 c8 3f
       -0.9034861 1.0473922 -1.4209874 1.5688976
0002e0 37 d9 ea be b6 bb c9 3e dd 4c a9 3f 08 bc b0 bd
       -0.45868847 0.39401025 1.3226582 -0.08629614
0002f0 60 0f 95 bf 02 b8 61 be 4e b8 ad bf 33 e4 f7 3f
       -1.1645317 -0.2204285 -1.357187 1.9366516
000300 69 2e 3c be 82 c2 4b be 2a b6 f1 3c 69 30 28 3e
       -0.18377079 -0.19898418 0.029505808 0.16424717
000310 ce 66 91 be 55 0b 97 be 55 db e9 3d 99 18 42 be
       -0.28398746 -0.29500833 0.114187874 -0.18954696
000320 2f 28 84 3e e3 41 d4 be 84 d0 35 be 35 d2 46 be
       0.25811908 -0.41456518 -0.17755324 -0.19416125
000330 ee f3 2e 3e 5c 12 04 bd 3a 0a 19 3e ec 3a dc bd
       0.1708524 -0.03224407 0.14945307 -0.10753426
000340 9e 7e e1 3e 17 0a 95 39 fd 47 63 3d 2f 9a cf be
       0.44041914 0.00028427012 0.055488575 -0.4054732
000350 66 fa a0 be d2 a1 31 3f 79 0a a9 3d 4e f6 d7 3e
       -0.3144104 0.69387543 0.082539506 0.42180103
000360 04 75 04 be e5 d7 a9 3e a3 77 b1 3b 9c 25 86 bd
       -0.12935263 0.33172527 0.005415873 -0.06550142
000370 d8 a0 a8 3c 10 df 3f 3e 2d df a8 bd 4a 87 8a be
       0.020584509 0.18737435 -0.082456924 -0.27056342
000380 bf ea e5 3d 54 94 8a 3d 08 9d 92 3d c7 72 59 3e
       0.11226415 0.067665726 0.071588576 0.2123519
000390 0a d9 93 3e 13 fd f5 bd bd 64 3e bf 9b 66 4c 3d
       0.28876525 -0.12011161 -0.74372464 0.04990254
0003a0 31 4c 90 be e2 1f 30 3e 28 94 82 3d c9 ae 6a 3e
       -0.2818313 0.17199662 0.06375915 0.22918238
0003b0 bb be 5b 3e a5 a9 84 be 75 d4 d8 3d 41 f1 a2 be
       0.21459477 -0.25910679 0.10587398 -0.31824687
0003c0 c5 4b 05 bf 76 a3 2b 3f a2 43 42 bf ff 0c 85 3f
       -0.5206874 0.67046297 -0.7588445 1.0394591
0003d0 2d 9e 67 be 1b 5b 57 3e d7 48 52 3f aa 4b 97 bc
       -0.22618933 0.21030848 0.82142395 -0.018468697
0003e0 6a 02 68 bf c0 98 5e be e5 28 6b bf cc 8b ab 3f
       -0.90628684 -0.21737957 -0.91859275 1.3402038
0003f0 49 b8 13 3e ea 2f 9b bd b1 5a 5d bd 54 bf 2c 3c
       0.14425768 -0.07577498 -0.05404157 0.010543663

decoder.0.bias f4 [1568]
000000 fd d3 26 3e 03 39 f7 b9 9a dd 8f bd 1c 23 ff 3e
       0.16291805 -0.00047153988 -0.07024689 0.49831474
000010 1e c3 b3 3e 7e d0 1f 3e d6 4a a2 3d 59 fd bc 3c
       0.351098 0.15606877 0.0792443 0.023070024
000020 c1 d0 6f be 81 3b bf 3e f2 03 c7 bd 30 a4 f3 bd
       -0.23419477 0.37350085 -0.097175494 -0.11896551
000030 14 10 44 be e4 9c 0c be ba 63 22 3e 59 33 8d be
       -0.19146758 -0.13731724 0.15858355 -0.27578238
000040 75 43 90 3d f9 74 60 bd fd 9b 01 3c 58 1b f0 bd
       0.070441164 -0.054799054 0.007910726 -0.117239654
000050 d9 90 7a 3e 5b 07 b1 3e 3b c5 d2 3e 0d 65 41 3e
       0.24469317 0.34575924 0.411661 0.18886204
000060 24 99 b0 3e 0c d1 ab be 79 92 e9 3d 6a b7 c3 3d
       0.34491837 -0.33557928 0.114048906 0.09556468
000070 0c 4b 67 bc b2 79 52 3e 20 29 b8 be 4e 55 b2 bd
       -0.014117014 0.20554236 -0.35968876 -0.08707677
000080 c4 17 09 bf 92 2c 2c 3e 1f 63 84 be a6 22 82 3e
       -0.5355189 0.16813877 -0.25856873 0.2541706
000090 ca cd 9b 3e f6 f7 41 be 2f 80 cb 3e 69 db 5c be
       0.30430442 -0.18942246 0.39746234 -0.21568073
0000a0 58 25 6b 3e 3f 55 c5 be 37 06 ee 3e 76 17 a0 3e
       0.22963464 -0.385416 0.46489117 0.312679
0000b0 ac 03 ba 3e 7d 30 27 be e2 58 4d be ab bc 70 bd
       0.36330926 -0.1632709 -0.20053437 -0.058773678
0000c0 c0 1e b7 3d 47 a3 64 3e 17 51 b4 3e f2 57 28 3d
       0.08941412 0.2232791 0.35218117 0.041099496
0000d0 13 5b 20 3e 4e 64 3f 3d c4 3f 61 3d 07 06 b3 3e
       0.15659742 0.046726517 0.054992452 0.34965536
0000e0 97 7e 12 3f 2a 51 80 3e ee 4b 5b be 50 4a fd 3d
       0.5722441 0.25061923 -0.21415684 0.123676896
0000f0 99 dd 8c 3e 21 f3 4e ba 9f 8d 25 be be bb bd 3d
       0.27512816 -0.00078945054 -0.16167305 0.092643246
000100 a1 b3 23 3d 1b 2f 9a bd 14 02 cb bd e9 58 77 3d
       0.03996623 -0.07528516 -0.09912506 0.060387526
000110 f2 71 09 be d8 69 df bd 11 a7 a5 bd 71 80 18 3e
       -0.13422373 -0.1090886 -0.08088506 0.14892747
000120 4f ee b8 ba 86 89 ba be ad 43 92 be bd 5a b0 bd
       -0.0014109107 -0.36433047 -0.28567258 -0.08611057
000130 db 14 c2 bd ca 8c 0c 3e a8 11 97 bd 4b ea 59 be
       -0.09476634 0.13725582 -0.073764145 -0.21280782
000140 49 4c b2 be ae a1 93 bd 86 b4 09 3d bf d1 11 be
       -0.34823826 -0.07208572 0.033619426 -0.14240168
000150 08 34 af 3e 25 d6 db 3d cf fa 02 3e 5b bc 57 bd
       0.34219384 0.10734204 0.12790988 -0.052669864
000160 fe f9 fc bd f8 25 e0 be d0 87 7e 3e e5 71 b1 3e
       -0.1235237 -0.43778968 0.24856496 0.34657207
000170 e9 1b 54 3e 23 3d bd 3d 7c 6e 13 be 56 7e 0a 3e
       0.20713772 0.092401765 -0.14397615 0.13524756
000180 ac f0 e5 bd 9f 65 ce 3e 9a 81 97 3d 35 88 b3 3e
       -0.11227545 0.40311906 0.073977664 0.35064855
000190 2f 38 41 3d 4c f2 62 bd 85 7b 3e 3e f1 2d ac 3e
       0.04717272 -0.055406854 0.18601806 0.336288
0001a0 77 9e 50 3e 9f 0f e1 bd b0 12 29 be c2 8b 4b be
       0.2037295 -0.109893076 -0.16511035 -0.19877532
0001b0 93 cd 7e 3d e4 50 7d 3e fd f3 c1 3d 97 0d 99 bd
       0.06220777 0.24737889 0.09470365 -0.07473295
0001c0 ca 9c ff bd ee 0b 37 3e 69 aa 10 bd 05 18 d6 be
       -0.12481077 0.17875645 -0.035318766 -0.418152
0001d0 e1 d5 fc bd 94 03 4e bc ad 2f 3c 3e 7b 9c ea 3d
       -0.12345482 -0.012574095 0.18377562 0.114556275
0001e0 5c fe b1 3c 54 b0 02 be bc f8 ee 3d 23 fe 8f be
       0.021727733 -0.12762576 0.11668536 -0.28123578
0001f0 e4 5b 93 3e 75 01 c0 bd 70 f7 d7 bd db 5c c1 bd
       0.28781044 -0.09375278 -0.10545242 -0.09441539
000200 58 39 78 3d 81 fc 5c be 7d 48 46 3e 08 c9 14 be
       0.060601562 -0.21580698 0.1936359 -0.14529812
000210 9f 46 54 3d 3e 98 45 3e 5e 70 0d 3d fa 84 bf 3c
       0.051825162 0.19296357 0.03453099 0.023378838
000220 e8 24 a4 3b d7 03 e6 bd ac c6 42 3e 00 67 1c 3e
       0.0050092824 -0.11231201 0.190211 0.15273666
000230 e2 2a cb 3e 2f 6f bc 3d 5e e8 03 be 59 df 97 be
       0.39681154 0.09200894 -0.1288161 -0.29662588
000240 cb 2d b3 3d 89 7b 74 be b6 10 80 be a4 02 41 3e
       0.08748969 -0.2387525 -0.2501275 0.18848664
000250 99 64 9b 3e 5c 1e 72 be 9d b1 c4 bd b3 ca 92 3e
       0.30350187 -0.23644394 -0.096041895 0.28670272
000260 20 49 1e 3d 7d 7c 89 bd f5 5f 97 be cf 5a 60 3e
       0.038643956 -0.067131974 -0.29565397 0.2190964
000270 24 26 17 3d 48 bc 92 3d de 7f 8e be fa c9 3b 3e
       0.036901608 0.07164818 -0.2783193 0.18338767
000280 8f 91 26 3e 3b 73 89 3e 01 7d 8d be cc ba 44 bd
       0.16266464 0.26845726 -0.27634433 -0.048029706
000290 80 8b f4 bd 3c a4 8b be 15 b6 b1 bd 20 a6 ce 3d
       -0.1194067 -0.27273738 -0.086773075 0.100902796
0002a0 5e c9 ce 3d 21 dd 4c 3e 6b 96 50 be 6a 48 52 bc
       0.100970015 0.20006229 -0.2036988 -0.012834648
0002b0 75 aa 14 3e 7b 51 78 be e4 8c 91 bd 44 93 8a be
       0.14518149 -0.24249832 -0.07106951 -0.2706548
0002c0 d8 5b 50 3e 30 05 00 3d a9 b8 29 be b7 30 33 be
       0.20347536 0.031254947 -0.16574349 -0.17499052
0002d0 18 9c 70 bd 50 93 73 be f1 df 8d bd 7f cb 8d 3e
       -0.058742613 -0.23786664 -0.06927479 0.27694318
0002e0 a1 27 b1 3d 84 e9 97 3d e6 92 b7 bd 0c c0 1e be
       0.08650137 0.074175864 -0.089635655 -0.15502948
0002f0 eb 39 79 be 2c d7 86 3b c6 df 86 3e 1d 4c 8e be
       -0.243385 0.004115006 0.263426 -0.27792445
000300 2a cc 8f be 84 cb 2a 3e 8e 8d 77 3e 3c 1a 5d be
       -0.28085452 0.16679198 0.24175093 -0.21592039
000310 01 0d 9d be 7a 46 c5 bd 0f 89 06 3f 5b 64 98 be
       -0.30673984 -0.09632583 0.52552885 -0.29764065
000320 3d 81 15 3e da f1 a9 3e f4 3d 7e be 6f b0 c9 3e
       0.14600082 0.3319233 -0.2482832 0.3939242
000330 60 6c de 3e 2a db 42 3d 6b ba 55 3d 77 cc 84 be
       0.4344206 0.047572292 0.052179735 -0.25937244
000340 42 55 65 3e 91 d0 28 ba cf 44 70 3b b5 b2 90 3e
       0.22395805 -0.000643977 0.0036662107 0.28261343
000350 e7 f8 73 3e 3a 82 36 bd 6a d9 79 be dc 2e 0a be
       0.23825417 -0.044557787 -0.24399343 -0.13494438
000360 44 56 18 be 18 a9 3c 3d 91 de cb 3d 53 78 e3 bd
       -0.14876658 0.046059698 0.099545605 -0.111069344
000370 a0 d4 93 be e1 60 6b be 3a 98 6c 3e 17 ec 5d be
       -0.28873158 -0.22986175 0.23104945 -0.21672092
000380 cc 69 51 3e 73 f1 88 3c c8 6d 5b be a3 d2 58 3e
       0.20450515 0.016716694 -0.21428597 0.21174102
000390 36 20 ac be 19 a0 1b be e6 cc 38 3e 9e f2 20 3e
       -0.33618325 -0.15197791 0.18046913 0.15717551
0003a0 0c b5 34 3e 1c 2f 89 3e 6f 35 df be 39 29 99 3e
       0.17647189 0.26793754 -0.43595454 0.29914263
0003b0 92 c0 a6 3d 2b bc f7 bc a9 11 02 3d b5 68 43 3d
       0.081421986 -0.030241093 0.031755123 0.04770728
0003c0 52 c4 20 3d f1 ca 8f 3e c7 63 be 3d f1 6a 3f be
       0.039249726 0.2808452 0.09296375 -0.18693139
0003d0 d7 04 57 3e 5e cc 5d 3e 08 c5 5a 3e fe 75 0e 3e
       0.2099794 0.21659991 0.21364224 0.13912198
0003e0 f0 46 80 be 9a 21 31 3e 18 d9 a8 3e 88 b9 2a 3e
       -0.2505412 0.17297974 0.3297813 0.16672337
0003f0 91 a6 28 bd 8a b3 36 be cf c3 70 bd a2 a1 60 be
       -0.041174475 -0.17841926 -0.058780488 -0.21936658

decoder.3.weight f4 [32, 16, 3, 3]
000000 96 a2 85 3b 5b f4 ee 3c ca a5 93 3c 25 fd f0 3c
       0.0040782196 0.029169252 0.01802339 0.029417584
000010 1f 3d 80 bc a1 38 ea ba 14 66 3a 3d dc f8 b7 bd
       -0.015654145 -0.001786966 0.045507506 -0.08983013
000020 81 40 8e bc 96 f8 2f 3d 1a 5a 2a 3d 51 c3 9e bc
       -0.017364742 0.04296168 0.041589834 -0.019380243
000030 3b 6c 19 bc 51 cd 6d 3d b4 8a 1f bc 11 a6 93 3d
       -0.009364183 0.058057133 -0.009737659 0.07209409
000040 d3 e0 8e 3d f3 72 39 bb 80 aa a2 bd a6 fd 4b bd
       0.069764756 -0.0028297275 -0.079426765 -0.049802445
000050 57 fc 5a be 2f 24 0f be 08 05 23 bd 22 30 36 3d
       -0.21385323 -0.13978647 -0.03979972 0.044479497
000060 1d b3 a4 bd 01 27 0e bd 71 62 22 be 23 a9 16 be
       -0.08041976 -0.034705166 -0.15857865 -0.14712958
000070 ee 4f 89 3b 39 33 7e bd 94 ae be 3d 20 36 92 3d
       0.0041904366 -0.06206057 0.09310642 0.0713923
000080 ce cc 83 3c c1 cd 08 be 8b a1 88 3c 9a 1e fa 3c
       0.01608887 -0.13359739 0.016678592 0.03053217
000090 0c c0 c0 bd eb 86 19 3c 1a 5c 9b bd c2 8c b0 bd
       -0.0941163 0.009370546 -0.07585926 -0.086205974
0000a0 c8 9d 33 be e7 d9 15 be 62 28 ce bd fb 57 45 bd
       -0.17540658 -0.14633904 -0.10066296 -0.048179608
0000b0 86 28 b5 bd 76 23 e3 bc 1c 49 56 bb f1 e9 80 3d
       -0.0884562 -0.02772687 -0.0032697385 0.06294621
0000c0 ec 45 a4 bd 9a 5e 08 bb 46 55 62 3d 02 c7 55 3d
       -0.08021149 -0.002080834 0.055257104 0.05219174
0000d0 1a df ef 3d 21 05 2c bd 3c 4d da 3b 8d d0 8e 3c
       0.11712475 -0.04199708 0.006662039 0.01743343
0000e0 e4 ef e3 3c 3a cb 97 bc a8 f2 ea bc bf d6 b2 bd
       0.02782435 -0.018529523 -0.02868016 -0.08732366
0000f0 b0 10 1a bd a9 3f c6 bb be 98 84 bb 85 05 76 bd
       -0.03761357 -0.0060500694 -0.0040465286 -0.060063858
000100 3b 19 95 bb 76 63 4b be 7f 05 d6 3c ed 32 c3 3d
       -0.004550127 -0.1986216 0.026125668 0.09531198
000110 65 10 61 bc 5d cd 0f be fa 04 a2 3c 17 3a 17 be
       -0.013736819 -0.14043184 0.019777764 -0.14768253
000120 ec 52 0b bd 89 b0 87 bd 99 3a e7 3c 41 6c 5a be
       -0.034014627 -0.06625468 0.028226184 -0.21330358
000130 22 0b 2a be 0a a8 64 3c 23 ac 26 bd c1 b2 a0 3d
       -0.1660581 0.013956079 -0.040691506 0.078465946
000140 41 4c 60 bd 10 76 2f bd 1e 5c f1 bd f2 0b 5b bd
       -0.05476022 -0.042837203 -0.11785148 -0.05347819
000150 7a 22 89 bc 83 ef 0f 3d c9 a1 b0 bc 0f 34 44 bd
       -0.016740073 0.035140526 -0.02156152 -0.04790121
000160 95 94 f1 bd f7 d4 96 bc d5 33 4f 3d 10 ac 77 3d
       -0.11795918 -0.018412096 0.05058654 0.060466826
000170 8e bc 4b 3d 87 e3 8d 3d 91 d0 77 3c 42 df 07 bc
       0.049740367 0.06928163 0.01512541 -0.008292975
000180 72 57 90 3d e8 61 94 bc 94 fd 31 be d1 17 fe 3b
       0.07047929 -0.018113092 -0.17381889 0.007754304
000190 16 c3 00 bd 5b 02 93 bc 57 83 42 3d e0 1d 59 3d
       -0.03143605 -0.01794546 0.047488537 0.053007007
0001a0 ab 71 28 3d 18 28 22 bd 88 25 c2 bd 35 4d 80 bc
       0.041124027 -0.039589018 -0.09479815 -0.015661815
0001b0 63 7a 36 bd 31 57 e4 bc c0 a3 0a 3d cf 8e 3e 3d
       -0.04455031 -0.027873607 0.03384757 0.04652291
0001c0 35 63 84 3d e8 64 bd 3d 25 70 97 bd dd 48 63 3c
       0.06464235 0.09247762 -0.07394437 0.013872352
0001d0 7a d5 52 bc 3b ca 28 be bd 43 dc bd a4 83 9d be
       -0.01286828 -0.16483395 -0.107551076 -0.30764496
0001e0 2f 4c 18 bd fd 74 56 bc fc ae e0 bd d7 2d 6d be
       -0.03718203 -0.013089416 -0.109708756 -0.23162018
0001f0 0b 81 33 3c 45 a4 98 bd ea 85 e0 3d 95 9c e0 3c
       0.010956059 -0.07453207 0.10963042 0.027418414
000200 dd 94 18 bd 9b a7 c6 3d 0c 20 b9 3c 12 97 15 3c
       -0.037251342 0.09699937 0.022598289 0.009130256
000210 d3 48 80 3b 72 3c 1f bd a6 59 4a 3a c5 e3 0d bc
       0.0039149313 -0.038876005 0.0007719047 -0.0086602615
000220 51 67 a1 bd 4a 41 1a bd 4e 9b e8 b8 87 ff a3 bc
       -0.07881034 -0.03765992 -0.0001109155 -0.020019306
000230 42 ce 37 be 88 14 88 3c 68 0c 08 be 86 06 19 3d
       -0.17949775 0.016611353 -0.13285983 0.037359737
000240 bf 26 ae bb c4 74 15 3d 71 7c 7e bc 0b dd 0e 3c
       -0.0053146775 0.03648831 -0.015532599 0.008719693
000250 78 d1 5d 3d 9d 33 13 bd d4 ae 42 bc b3 ec 00 bd
       0.054154843 -0.035937894 -0.011882503 -0.031475734
000260 4a 01 4b ba 17 a0 e3 bc bc 57 31 3d 29 72 0d 3d
       -0.00077440275 -0.027786298 0.04329656 0.0345327
000270 91 01 36 3d f6 b3 09 3d c6 d7 8e bd 46 5d 1e 3d
       0.044435088 0.03361889 -0.06974749 0.03866317
000280 54 cd 36 3d 4d 63 fe bb 16 e0 6f bc 26 99 f8 bc
       0.04462941 -0.0077633024 -0.014640829 -0.030346464
000290 46 ca 4f bd 62 af df bd 4e 9a 34 be e0 6a 8c ba
       -0.050730012 -0.109221235 -0.17636988 -0.0010713004
0002a0 03 a0 ac bb d2 cc cb 3c 1f cf 53 bd cc b1 9c 3d
       -0.0052680983 0.02487794 -0.051711198 0.076510996
0002b0 d9 39 9b bc 68 a2 ec bd 71 6f d8 bc c1 5b 90 3d
       -0.018948482 -0.11554414 -0.026420327 0.07048751
0002c0 b6 50 31 3d 27 11 21 be 7c ab 84 3c 57 c3 0e bd
       0.043289863 -0.157292 0.016195051 -0.03485426
0002d0 9c 40 b9 3b a2 70 0d bd e3 5c c3 3b 3c 3d 06 bd
       0.005653454 -0.034531243 0.0059620007 -0.03277324
0002e0 ff 31 dd bd e1 f3 ca bc 9b 7e 1b bd 0e 59 e9 bc
       -0.108005516 -0.024774494 -0.037962537 -0.028484847
0002f0 6f 98 18 bd 5e 1c 95 bd e1 d3 04 bd 89 2b 48 3d
       -0.037254747 -0.07280801 -0.032428626 0.048869643
000300 90 ea 62 bd f3 df 47 3d 16 1b 2e 3d 34 91 ad 3b
       -0.055399477 0.04879756 0.0425063 0.0052968506
000310 ba 7a c1 3c a5 f9 2f 3d c5 82 dd bc ff 1f 0c be
       0.02361809 0.04296269 -0.027039895 -0.1368408
000320 1b 5c 2d bc ca e8 a3 3c cc 65 95 bc ec fa 0d 3d
       -0.010581042 0.020008463 -0.018237017 0.034663126
000330 e7 9f 00 bd 33 b9 1d be ee f7 d7 3d 4b a3 1b bd
       -0.031402495 -0.15402679 0.10545336 -0.037997525
000340 0c 55 a5 3c ff 1a 79 bd 76 c8 0a 3d a6 48 08 bc
       0.020182155 -0.06081676 0.03388258 -0.008318102
000350 46 70 c0 bc 36 bf 2e 3c ba 08 8b bc 8c fa 1a bd
       -0.023491036 0.010665705 -0.016971935 -0.037836596
000360 95 a6 13 bd d6 e6 0c 3c 14 77 16 3c b1 7f 11 bd
       -0.036047537 0.008599957 0.009183664 -0.035522167
000370 ec da 81 be 57 b4 71 bd a8 d1 ab bc 25 e8 63 bd
       -0.25362337 -0.059009876 -0.020973995 -0.055641312
000380 bd 1d dd 3b 07 ed c2 bc a1 fb 56 bd a6 55 c3 bb
       0.00674793 -0.023794664 -0.052486066 -0.005961138
000390 99 f6 c6 3c c8 18 bc 3c b8 f4 95 bb 30 96 15 bc
       0.024287509 0.022961035 -0.004576292 -0.009130046
0003a0 79 7e 81 be 37 a6 59 bc 3b 68 e8 3d 8c 24 90 bc
       -0.25291803 -0.013284258 0.113480054 -0.017595552
0003b0 15 c7 32 bd df 14 17 3c f9 07 31 3d 85 bc 30 3d
       -0.04364689 0.009221285 0.043220494 0.043148536
0003c0 92 39 c7 bd 8c 5d a2 3b 79 30 5d bd f7 7a 82 3d
       -0.097277775 0.0049549993 -0.054001305 0.0637111
0003d0 cb f7 ad 3c 69 5d 95 3c 6c 45 67 bc 31 08 cb 3a
       0.021236321 0.018233018 -0.014115673 0.0015490112
0003e0 35 42 bd bc 90 d7 2b 3d 4d b0 9b bc 1e fd 02 bd
       -0.023102859 0.041953623 -0.019004965 -0.031979673
0003f0 57 30 6f bb 5f 76 90 3b df 0a 1b bd e7 76 0a bd
       -0.0036497319 0.004408642 -0.037852164 -0.0338048

decoder.3.bias f4 [16]
000000 e6 32 04 3e 30 5c 64 3e d2 ff 7a 3e 65 35 02 be
       0.12910041 0.22300792 0.2451165 -0.12715681
000010 72 d3 be bd a6 4a 43 3e 73 fc 00 b9 49 b4 c5 3e
       -0.09317674 0.19071445 -0.00012301076 0.3861411
000020 8d ea a2 3d e5 1a 2f bd 11 71 93 3e cb 91 df 3d
       0.07954893 -0.042750258 0.287972 0.1091648
000030 d8 da ca 3e 07 95 ac 3e 6e 48 74 3e 9c f3 d0 bc
       0.3962009 0.3370745 0.23855755 -0.025506787

decoder.5.weight f4 [16, 1, 3, 3]
000000 bb 65 0b be a6 57 7f bc d5 64 f7 3c ba 89 b7 be
       -0.13613026 -0.015584862 0.030199448 -0.35847265
000010 dc 3b 9c bc 6b e6 dc bd 45 dc 4b be 38 ce 21 3e
       -0.019071512 -0.10786136 -0.19908245 0.15801322
000020 b6 28 84 3d aa dd 78 bd 44 76 4d bd 96 6e ce bd
       0.064530775 -0.06075827 -0.050161615 -0.10079686
000030 dc c2 99 bc c3 6b 4c be 88 e0 84 be e0 7d b5 3d
       -0.018769674 -0.19962983 -0.25952554 0.088618994
000040 89 c2 2c be c1 00 4a be 8f f2 ef be c4 d2 ef be
       -0.16871084 -0.1972685 -0.46864745 -0.4684049
000050 3f 4c 0b be f9 20 06 bf 9b 30 e7 bc d8 68 b1 3e
       -0.13603304 -0.5239406 -0.02822142 0.34650302
000060 a3 d0 cb bc b1 58 06 3f 65 ad 0e 3f 62 3b 2c 3e
       -0.02487976 0.5247908 0.5573333 0.16819528
000070 68 a8 98 3e 53 80 20 bd 0f 71 ab 3e 9d 79 0e 3f
       0.29815984 -0.03918488 0.33484694 0.5565432
000080 cd e2 46 bd 9a 38 36 3e 63 2e 13 3e 37 94 5e be
       -0.048556138 0.1779503 0.14373164 -0.21736227
000090 3b 45 0c 3e b9 3e 4d be 18 9b 04 bf 61 7a 7a 3e
       0.13698284 -0.20043458 -0.51799154 0.24460746
0000a0 ae 63 ce be 7d ab 47 bf c9 d1 b3 3b 11 27 01 bf
       -0.40310425 -0.77996045 0.005487655 -0.50450236
0000b0 40 71 20 bf 76 03 97 bd c4 d5 49 be ef a2 c7 bd
       -0.62672806 -0.07373707 -0.19710451 -0.09747874
0000c0 9e 66 d9 bd d9 05 bb be 5e 52 35 be ab 8e eb bd
       -0.10615276 -0.365279 -0.17707202 -0.11501821
0000d0 9b 62 94 be 12 fa 17 be 83 43 9a 3d 2a c8 74 3e
       -0.2898148 -0.14841488 0.07532408 0.23904482
0000e0 cf 11 79 3e a0 fe 6d 3e e5 74 0d 3f ab cd e8 3e
       0.243232 0.23241663 0.5525649 0.45469412
0000f0 d9 7f 28 3e fe 2e b2 3e 02 33 81 3e 4a a5 58 3e
       0.1645502 0.34801477 0.25234228 0.21156803
000100 4f 28 89 bd cc 70 34 3e a8 3f a1 bb d1 cb b2 be
       -0.066971414 0.17621154 -0.0049209185 -0.34921125
000110 a5 0f e2 bc 96 b1 a2 bd f4 40 35 be 00 1c 69 be
       -0.02759535 -0.07944028 -0.17700559 -0.22764587
000120 61 18 02 3f bf e5 61 3f ec cb e5 3e 77 d6 43 3f
       0.5081845 0.8824119 0.44882143 0.7649912
000130 7d f4 83 3f cb e1 ae 3e 4d 6c 8e 3e 2e 4a a2 3e
       1.0308987 0.3415664 0.27817002 0.3169722
000140 be f9 f1 3c 0c 4f 0c 3f e8 71 8a 3e 5d 75 b3 bd
       0.029538032 0.54808116 0.2704003 -0.0876262
000150 36 a6 45 3f 75 1a 13 bd 93 e0 f1 be 1d fe c2 3e
       0.7720674 -0.035913903 -0.4724165 0.38084498
000160 5c c4 ba be fa eb e7 be ec 72 87 be 78 10 0b 3c
       -0.36477935 -0.45297223 -0.26454866 0.008487813
000170 13 26 31 bc 58 83 7d be 26 3b 82 be e5 49 85 3d
       -0.0108123 -0.24757135 -0.25435752 0.06508235
000180 5f 66 27 bd 18 e4 51 bd 9f 6b ef 3d e2 97 03 be
       -0.040869113 -0.051242918 0.11690449 -0.12850907
000190 0e 7d 40 be 38 a3 68 be 8d 5f 6a be 1b 7f 00 be
       -0.18797705 -0.22718513 -0.22888012 -0.12548487
0001a0 6a 75 86 3d 57 b0 7c bc 60 0a 8a bd 94 66 27 bc
       0.06565364 -0.015422902 -0.0674026 -0.010217328
0001b0 d2 ea 56 3c a3 73 05 be ba 89 98 bd df 09 54 3d
       0.013117509 -0.13032393 -0.07448144 0.051767226
0001c0 79 23 af be a5 ad af be 9b 98 5e 3e 84 49 02 be
       -0.3420675 -0.34312168 0.21737902 -0.12723356
0001d0 34 8c 01 be 01 02 dc bc 34 2f 86 3e 30 0f 80 3e
       -0.1265114 -0.026856424 0.26207888 0.25011587
0001e0 33 b5 44 3e 13 aa 4b 3f 63 32 2a 3f 83 e3 19 3e
       0.19209747 0.7955639 0.66483134 0.15028195
0001f0 2c 57 0a 3f 95 0d ca 3e c8 40 e8 3d 1c f7 96 bd
       0.54039264 0.39463487 0.11340481 -0.07371351
000200 88 33 b0 3d 5f c0 e5 bc 09 11 90 be d6 60 28 be
       0.08603579 -0.028045831 -0.28137997 -0.1644319
000210 6b 60 35 be d0 72 a6 be f4 9e 5a be 0b 73 ef 3c
       -0.17712562 -0.3250947 -0.21349698 0.029229661
000220 03 3b ee 3d 3b 9e 8b 3e ef 0f 4d 3d 38 4f 6a 3e
       0.11632349 0.27269158 0.050064024 0.22881782
000230 d4 bd a3 3e 7a 9e 56 3e 5e dc 90 3e 4f ff a1 3e
       0.31980765 0.20958892 0.28293127 0.31640097
