models/model_b4.pt (torch, 199311 bytes, 11 tensors)

encoder.0.weight f4 [16, 1, 3, 3]
00000000: 24ec 293e 1003 493e 45b8 943d 5077 873e
00000010: c6b6 2bbd 1b64 153e b9ef 803d d0d0 883e
00000020: 762e 923e c68a 813e 0182 ca3d e157 d1bd
00000030: 4e5c 56be 223f acbe 4bf2 8cbe 0754 eabc
00000040: f797 f33d 9005 ba3e 458a a83d a36c 19be
00000050: cb51 263e 42fb 493e 2646 aa3e 4568 a63e
00000060: 3d44 f03d 9416 ea3c aa04 85be 8a2d e03d
00000070: 3870 9b3e 3ccd 6ebe 98b1 163d d634 473e
00000080: ea41 b5be ca2c 673e 69d0 983e cce4 50be
00000090: 4146 55be 87f2 0dbe 3326 3b3e 23b1 95be
000000a0: b539 7ebe 694c 76be bdf0 73be ae86 30be
000000b0: 9736 64be 643c 46be 34e6 b0bc 7694 93be
000000c0: 4060 c83e 9e23 bf3e 400d 27be 5f6b 1c3e
000000d0: 1f33 b83c d974 ab3d 204f 67be a7cd ed3d
000000e0: 6259 713e ca26 133c 90de a63e a530 e53b
000000f0: 39be 64be 6575 6f3e ebf3 a3be ee4f 4bbe
00000100: 6ea8 bdbd 6f3e 8dbe f728 02be fa7c 8fbd
00000110: 29fc 363b 9def 7f3e 37d6 77be ff1b 19bd
00000120: ffa0 41bc 5bcd 17bd 4d75 9c3e 1248 97be
00000130: a1ae 33bd 6379 ed3d 1656 3bbe 4635 99be
00000140: ba99 283d d66a 4bbe f881 d1bc 03a3 93be
00000150: ba53 84be dc61 7abe b0e8 36be b316 4ebe
00000160: f997 8a3e cea2 893e 534e bb3e ad06 71be
00000170: 5068 d8bd 9680 4fbd 9093 6bbe 3a83 913e
00000180: 0b07 a53e 442f 3fbe 4695 0ebe 467d 72be
00000190: b132 3d3d a4ab a53d 80f3 aabe d6fb 9a3e
000001a0: 6972 1e3d 90b7 64bd 3a3b 853e 614d 7e3e
000001b0: 8fcf 4a3e e185 52be 51cf 59be 53fb 83bd
000001c0: c7fd c1bc d1de 46be f8c7 303c 9a7d 9e3e
000001d0: 081c 6abe 6e98 463e 0f62 963e 5bc3 80bc
000001e0: cb08 abbd 0f09 4d3d ca66 993e 3862 c7bd
000001f0: 0b82 4ebe 22de 2ebe 0de1 73ba 687d 97be
00000200: 482c 2ebe d591 303d ceda d5bd 96e2 403c
00000210: 0b19 963e 0420 c33e 4bc7 883d 7f48 62be
00000220: 18ea bbbc 9c7a af3e 67de 9dbe 713f 26be
00000230: 1f75 d93e ec87 283d 3d35 cebb 3a65 a13e
0.16593987 0.19630075 0.07261709 0.26458216 -0.041922353 0.14588968 0.062957235 0.2672181
0.28551072 0.25301188 0.098880775 -0.1022184 -0.20933649 -0.33641917 -0.27528605 -0.02860452
0.11894219 0.3633237 0.08229498 -0.14982848 0.16242139 0.19724753 0.33256644 0.32501426
0.117317654 0.02857522 -0.2598012 0.10946186 0.30359054 -0.23320478 0.03679046 0.19453749
-0.3540185 0.2257568 0.29846504 -0.20399779 -0.20827581 -0.13862048 0.1827629 -0.29236707
-0.24826701 -0.24052586 -0.23822303 -0.17238876 -0.2228645 -0.19358975 -0.021594144 -0.28824204
0.39135933 0.3733186 -0.16313648 0.15275334 0.022485314 0.08371896 -0.22588778 0.11611491
0.23569253 0.008981416 0.32591677 0.0069943243 -0.22338189 0.23384626 -0.32022032 -0.1985471
-0.09260641 -0.27586696 -0.1271094 -0.07006259 0.0027921295 0.24993749 -0.2420281 -0.037380215
-0.01181817 -0.037061077 0.30558243 -0.29547173 -0.04386771 0.11595418 -0.18294558 -0.29923457
0.04116223 -0.19864973 -0.02557467 -0.28835306 -0.25845128 -0.24451393 -0.178622 -0.20125847
0.2706907 0.26882023 0.36583194 -0.23537703 -0.10566771 -0.05065974 -0.2300551 0.2842043
0.32231936 -0.18670374 -0.13924131 -0.236806 0.04619092 0.080893785 -0.333889 0.3027026
0.03868333 -0.05583912 0.2602175 0.24834205 0.1980574 -0.20558883 -0.21270491 -0.06444421
-0.02368058 -0.19420935 0.010789864 0.309552 -0.22862256 0.19394085 0.29371688 -0.015718153
-0.083512865 0.050057467 0.29961234 -0.097355306 -0.20166795 -0.17076924 -0.00093032495 -0.29587865
-0.1700908 0.043107826 -0.10442124 0.011772772 0.2931598 0.38110363 0.06678637 -0.22097968
-0.022938773 0.3427323 -0.30833742 -0.16235138 0.4247217 0.04114525 -0.0062929676 0.31522542

encoder.0.bias f4 [16]
00000000: e768 313e 7bd6 e1bd 7efb 6a3e d076 ac3c
00000010: e63c acbe e3a7 b23e d4e2 fb3d ea27 aabe
00000020: 2cf5 bebd 5320 04be 534e cf3c 3d99 6bbc
00000030: d172 19be e280 833e 5bd5 6c3e 72a7 c93e
0.17325173 -0.11027237 0.22947499 0.021052748 -0.33640212 0.34893712 0.122991234 -0.33233577
-0.093241066 -0.12902956 0.025305903 -0.014379797 -0.14985205 0.25684267 0.23128264 0.39385563

encoder.2.weight f4 [32, 16, 3, 3]
00000000: bab5 0a3d 9648 04bd b621 cfbd 2bc1 94bd
00000010: 8740 88bd 37ef e5bd fe53 31bd 4f05 1bbe
00000020: 47ec 24bd c8c3 34be 47e0 c0bd 443e 2cbe
00000030: 140e a0bd bcab 673c 09eb a63d 2641 e13c
00000040: 5e79 ab3d 435c 4f3e cc1c 72bd e7b8 92bd
00000050: 463f 11be 11cd 82bc 5140 34bd ad7f 61be
00000060: 83d8 083c e72b 59bb d029 87bd 5bfe 4abd
00000070: 0436 f9bd 769c 0abe 8428 cf3d 9d18 403d
00000080: bacf 6a3e f7de ac3d a9d4 c73d 4a8e 3fbd
00000090: c7b3 673d 08a6 153d 8232 8d3d fc70 6abd
000000a0: b746 67bd 6b9d ae3c 3d7c a6bd 6de0 08be
000000b0: 75b0 2fbd 01fe a73d daf2 c0bd 15d4 67bd
000000c0: 5423 d33d 2745 fc3b 562b 2bbe d482 1f3e
000000d0: 13bd d23d 65fe e23d 3fc7 803d a654 5ebe
000000e0: f962 d9be 5756 053e d617 d03a 4072 80be
000000f0: 3928 243e 9931 893d bd59 37be 06ba 653e
00000100: 42e3 fe3d 2b02 ff3d 4a69 043d 5d4a 793c
00000110: 8c7f 9d3d 8a43 7dbd dba2 a0bd bfb0 333d
00000120: 2a4d 51bd 2bd4 72bd 7f6f 133d 9ee0 2c3e
00000130: 8ddf 24be a72f a6bd efcd aa3c de6c a0bd
00000140: 6efc c8bd 8035 873b eff2 913d e874 00bb
00000150: 0bb9 1abe 45ab 3dbd 442e 943d 294c 05be
00000160: 9063 4bbd c25c 793d aeb2 063e 7dd2 b23d
00000170: c621 19be 00de f33c cbfa da3a ba3d 20be
00000180: fa94 48bd 5daf dd3c 27f9 9a3d ff01 85bc
00000190: f364 a3bd 4d76 3ebe 6c6f 9dbb 11bb d93c
000001a0: c4eb 16be 1a16 383d 57ea dc3c 55f1 c3bd
000001b0: 96e0 203e b2f2 c23d f8e5 063c 0c12 d63c
000001c0: 8fac 833d ac41 383d 9ffa 47bd 724c 9d3d
000001d0: 92f8 433e 0a71 0d3d c372 d2be e654 a9be
000001e0: 99fb 0c3e 726d 82bb ba3a 79be b784 fe3d
000001f0: 26a2 8c3c ce70 81bd 7b49 e03d ca0f bf3d
00000200: a39f 983d a947 143e 09bd a93d bdac bfbd
00000210: 7c17 043e ad94 a03d 6a6e 403c c5e7 143c
00000220: 12e3 2abe b47c 17bf 39b2 4c3d 0c06 3f3d
00000230: acfe d1be 0d44 933d 0bc6 853d fa19 5fbe
00000240: a90d 04be 898f ecbd 927e 62bc 47e2 0bbe
00000250: b880 07be ae4c 9fbd 6c14 cd3d a03f 16bc
00000260: cdf8 d3bd 28fc 65bb 48f1 4b3c 6a3b c13c
00000270: ac74 79bd f571 143d f44a 6e3d c97a 7ebe
00000280: 85ff c1bd 596c 83bd 8110 f6bd 08b9 05be
00000290: d353 01be 8972 2abd a687 f0bd f907 ba3c
000002a0: 6321 91bd 33d2 0abe 5160 d6bd cc6f cb3d
000002b0: 8866 0a3d 97ef 68bd 33b1 0bbe 68ea 98bc
000002c0: 8bbe aabd e30d 3ebe cdc1 fabc 8787 3bbd
000002d0: 919f 713d 83f1 2fbc 0e18 ce3d 3e59 ecbb
000002e0: 7931 16be 0f24 1bbe 23d1 643e d0b8 283e
000002f0: 7a98 0a3d 0681 c33c 06c3 3c3e 21f2 843d
00000300: 13c7 043e c929 ad3e 7958 513e 8a35 c7bd
00000310: 72ad 2a3d fbdc 063e ad9c fb3d d7cb af3d
00000320: 845b 623d 9401 b13c 8b4c ec3d 8556 0a3e
00000330: c11d eebd 5b23 46bd d369 0f3e c98c e43d
00000340: f5b1 1e3d 0345 143e 43d3 90bd 7c28 84be
00000350: b2da cb3b df72 4e3d 7be9 c9bd 4659 2abe
00000360: 73af 253d c1a6 b93d c869 00be fd1e 6ebd
00000370: 7b00 9f3d ed1c a7bc f484 2d3e f073 6c3e
00000380: 8c78 3c3d 1c1d 9e3d acba 45bd 95b8 9a3c
00000390: 5810 e6bd 3b5b 7ebe 516f 2ebe 9751 0a3d
000003a0: 5d08 50bd 852e 15be d05e e7bb 78b9 233e
000003b0: bb16 803c 54fc 873c b2de 44bd b0e4 ac3d
000003c0: fc9f 59be 4edc 22bd af88 9dbd fec5 ddbc
000003d0: 4461 24be d77f c73b 85a8 d2bc 1b3b 83bd
000003e0: 67f3 dd3c be8a 12bd 8e62 56bd e53e f0bb
000003f0: 9ce8 2b3d 5934 253e 19cd 393e 4742 5bbd
0.033864714 -0.032295786 -0.10113852 -0.07263406 -0.066529326 -0.11227267 -0.04329299 -0.15138744
-0.040264394 -0.1765281 -0.094177775 -0.16820627 -0.07815185 0.014140066 0.08150298 0.027496886
0.08372758 0.20250039 -0.059109494 -0.071641736 -0.14184293 -0.015966924 -0.04400665 -0.2202136
0.008352402 -0.003313774 -0.06599772 -0.04955898 -0.12168506 -0.13536248 0.101151496 0.046898473
0.22930804 0.08440965 0.097573586 -0.046766557 0.056567933 0.036535293 0.06894399 -0.057236657
-0.056463923 0.021315297 -0.08129165 -0.13366862 -0.042892892 0.08202744 -0.0942132 -0.05659874
0.10309473 0.0076986733 -0.1671575 0.1557725 0.10289969 0.11083678 0.06288003 -0.21711978
-0.42458323 0.13021217 0.0015876244 -0.25087166 0.16030969 0.06698913 -0.17905326 0.22434244
0.1244569 0.124515854 0.032326974 0.0152154835 0.07690343 -0.06183199 -0.07843562 0.04386973
-0.05109898 -0.05928437 0.035995003 0.1688256 -0.16100903 -0.08114558 0.02085015 -0.07833265
-0.09813772 0.0041262507 0.07126414 -0.0019600932 -0.15109651 -0.046305913 0.07235387 -0.13017334
-0.049655497 0.060879476 0.13154098 0.08731554 -0.1495429 0.029768944 0.0016706822 -0.15648547
-0.0489702 0.027061159 0.07567053 -0.016236303 -0.07978239 -0.18599816 -0.0048045423 0.026578458
-0.14738375 0.044942953 0.02696721 -0.09567515 0.15710673 0.09518947 0.00823354 0.026131652
0.06429397 0.044984505 -0.048822995 0.076805964 0.19137791 0.03453163 -0.4110318 -0.33072585
0.13767852 -0.003980332 -0.24338809 0.12427657 0.017167162 -0.06320344 0.10951515 0.093291834
0.07452323 0.14480461 0.08288009 -0.09359119 0.12899584 0.07840858 0.011745075 0.009088461
-0.16688183 -0.59174657 0.049974654 0.046636626 -0.41014612 0.07190714 0.06531914 -0.21787253
-0.12895836 -0.11550815 -0.013824122 -0.13660537 -0.13232696 -0.07778297 0.10013661 -0.009170443
-0.10350189 -0.0035092924 0.012447663 0.023587901 -0.060902283 0.03624149 0.05817695 -0.24851526
-0.094725646 -0.0641715 -0.120148666 -0.13058865 -0.12629633 -0.041613135 -0.11744623 0.02270888
-0.07086446 -0.13556747 -0.1046759 0.09933433 0.033789188 -0.056869116 -0.13641815 -0.018666461
-0.083371244 -0.18559985 -0.03060999 -0.045783546 0.058990065 -0.010738733 0.10063182 -0.007212787
-0.1466731 -0.15150474 0.22345404 0.1647675 0.03383682 0.023865234 0.1843377 0.06491495
0.12966566 0.33820942 0.20443906 -0.09727009 0.041669317 0.13170235 0.12285743 0.08583801
0.055263057 0.021607198 0.11538037 0.13509567 -0.11626769 -0.04837356 0.14005212 0.11159665
0.03874393 0.14479451 -0.07071545 -0.25812137 0.006221139 0.05040252 -0.09858986 -0.16635618
0.040450525 0.09065009 -0.12540352 -0.05813502 0.077637635 -0.020399535 0.16945249 0.23091102
0.0460134 0.07720396 -0.048273727 0.018886844 -0.11233586 -0.24839489 -0.17034651 0.033769216
-0.050789226 -0.14568527 -0.007060863 0.1598872 0.015635839 0.016599812 -0.04806394 0.08442056
-0.21252435 -0.03976088 -0.07692086 -0.02707195 -0.16052729 0.0060882377 -0.025715122 -0.06407758
0.027093602 -0.035776846 -0.052340083 -0.0073317164 0.04196988 0.1613325 0.18144645 -0.053530004

encoder.2.bias f4 [32]
00000000: 68a6 213d c240 7fbd 1f45 d73c b023 c73d
00000010: 6ee3 963b 4913 3e3d 6e92 ab3c 2469 c1bd
00000020: 9078 483d 745c 36bd b0f5 91bb 7fb5 bfbb
00000030: f588 033d 78cd 6f3d cbfc 1fbd 5625 50bd
00000040: 4697 a8bc 0283 fa3c 322f fb3c e4ca 90bd
00000050: 5dc8 74bd c115 b43c ff93 90bd d999 093d
00000060: cbd0 94bd 276f d23d e9c6 493d f9f9 3f3d
00000070: 8472 a83d caf6 e33d 4f31 433d 4bef d2bc
0.039465338 -0.062317617 0.026278077 0.09723604 0.0046047485 0.04640511 0.020943847 -0.09443882
0.048943102 -0.044521764 -0.004454337 -0.0058504934 0.032113034 0.05854556 -0.03905944 -0.050816856
-0.020579945 0.030580048 0.030662153 -0.07069948 -0.059761394 0.02198303 -0.07059478 0.033593986
-0.072663866 0.10275107 0.04926196 0.046869252 0.08224967 0.11131056 0.047654446 -0.02574887

encoder.5.weight f4 [12, 1568]
00000000: ac1e 853c 068a 053d bde8 d63c c6cf d93c
00000010: 9cfd 193d 75fc 9b3c f04c 783d 3281 b5bc
00000020: c56d fbbd 0eba 9f3c 075a 803d 612a 453c
00000030: e5b8 863c 1254 ec3b 88b0 10bc efc7 0e3d
00000040: 6d33 40be 94c6 d33d a40d dfbd 9ae7 3d3d
00000050: c988 3a3d 9369 efbb b33a c03b b1a8 3cbe
00000060: 6845 623d c086 80be e9ca 8f3d 19ef b13d
00000070: f8fd 36bc 714d 4abe 2135 e8bc ccd8 d43a
00000080: 2e84 94bd 7cca e0bc 3d4e cbbb e0e9 833c
00000090: 97c2 07be 631f a83c dd98 7f3c e73b 38bd
000000a0: be02 09bc e7c3 283c daea 003c 127a 523c
000000b0: 49f2 d7bc a9cf 053d a34e b6bd 1e24 3b3d
000000c0: 4258 083d cd99 093c c1b4 80bb d16e 05bd
000000d0: fada 713c a534 d3bb abfb 09bd e364 94bb
000000e0: df02 88bd 0790 003d a3f6 d83d 15f3 3b3e
000000f0: 4f0d a33d d1f9 483d c82b 063c db3b a4bd
00000100: db46 0cbe a357 95bd 0fbb 87bd a8d5 03bd
00000110: 92ed ba3d 3bfe 49be b011 183c e559 98bd
00000120: 41b1 e6bc 8ac3 7b3d 492b a6bd 5f3e f23d
00000130: 7612 88bc e57a e93d 3907 66bd 8dff 15be
00000140: 588e 1abc a34a 18bd 021c 22bd c0cf 8d3c
00000150: 96b5 a1bd a4ab 94bb 3148 61bd 5ba1 72bd
00000160: 3284 053d 0746 b23d 564d 113c 83be 953d
00000170: 6809 0cbd 1575 a13d 5adc b83d 53f0 e63d
00000180: dad7 b13d ff47 153e 86ba fb39 219a 0dbb
00000190: 296e e83b 9b13 1ebd 548c 08bd a49d 26bc
000001a0: 6827 0bbd 485a f2bc d59a 353b af76 593d
000001b0: 972a 193e 6289 013d b7f5 b93d cfe3 01bc
000001c0: ad14 a43c cac4 84bd baec 2cbe 5bbc 183d
000001d0: f7e1 4c3d 7ccf 8bbd 355a 96bd c2f9 9c3b
000001e0: 8654 51bd 4668 46bd d2b5 143c e7ba 2c3e
000001f0: c42e 67be 7c72 fcbd cc28 c53b 7aca a2bc
00000200: a39f eabd bc0b 033b 322b babc b028 943c
00000210: 732e d939 2c48 abbb 1fba 56bd f35b e9bd
00000220: 3681 02bc 92f5 f4bd 78ea 15bd e925 f43a
00000230: 189b b5ba 8e92 2ebd 3563 023d de71 fe3c
00000240: 5253 e13a 5509 23ba ce87 f6bc 5f0b e23b
00000250: 4e98 953c a9b7 4abe 6818 bd3d 3515 07bb
00000260: c64a db3d 9d0f 5f3c 4594 483c ed5a d33c
00000270: a49f 55bc 2209 dc3c 88e1 21bd 73cd 0abb
00000280: 33e6 0bbd 6873 84bd 12e3 c5bd 8c94 cfbd
00000290: ee0e 7ebd be5b 2ebb 2acf 2abd 5385 233b
000002a0: e7ff cf3d 3ad4 8dbd 3534 e6bc 4395 aabd
000002b0: dab7 c4bd 5370 d33c 53ea 82bd 5b7f 1f3d
000002c0: 6a6e 833d c9cc e13b d291 b4bc b32f 903d
000002d0: a52c 41bc 432d 43bd 2596 3abc e7a9 913b
000002e0: 9b21 65bc 0406 de3b 78c9 be3c f376 5b3d
000002f0: a7c5 fbbd 5125 e9bc 9289 fbbd 293b 4abd
00000300: 179c bfbc 204f 903d 990d ee3c a28f c63d
00000310: 06e4 23bd ec5e 05bc 1aaa 03bc eb24 50bc
00000320: 962f 8fbc bd0c c8bc 4879 a7bc 507e d2bc
00000330: e49e 2cbd 83ed 5b3d bd01 d3bc 3c9e 5e3c
00000340: 17e2 a33c 93eb 213c c1bd 03bc 5b91 e0bc
00000350: d97d 1bbd 8363 2cbc 1b36 e03c 51d7 f23d
00000360: a810 04bd e5e6 4ebc e987 e7bc ea8c 8ebc
00000370: 15ea 9abd d812 6d3d 38c8 7c3d 21d1 dabd
00000380: 79ff 8cbc 0839 c8bc 1c76 9abd c682 29bd
00000390: 3c67 97bd 164f ee3b 6514 f43c b9a8 10bc
000003a0: eae4 a7bc 592c f3bc cf23 0fbd 50a6 5b3b
000003b0: 34ba 42bd 0086 7cbc 89dc 493c ac15 f43c
000003c0: 7de2 ae3d 752b 353d 526c babc 0f23 07bc
000003d0: e597 c6bc 68a3 6b3c fdaa 6abd 16bf 6a3d
000003e0: d504 ec3c cc7e ffbd 3725 5cbc ea7a 40bd
000003f0: 3ec2 9fbc 7da4 8d3d 8ca8 d33c 7011 3c3d
0.016249977 0.032602333 0.026234025 0.026588332 0.037595376 0.01904128 0.06062025 -0.022156332
-0.12276796 0.019497897 0.06267171 0.01203403 0.016445586 0.0072121704 -0.008831151 0.03485864
-0.18769617 0.1034061 -0.108912736 0.04636345 0.045540605 -0.0073062866 0.0058663725 -0.18423726
0.055241972 -0.25102806 0.07021124 0.086881824 -0.011168949 -0.19756104 -0.028345646 0.0016238927
-0.07251774 -0.027440302 -0.006204395 0.016102731 -0.13257824 0.020522779 0.01560041 -0.044979002
-0.00836247 0.010300613 0.007868493 0.012846487 -0.026360648 0.032668743 -0.089017175 0.04568874
0.033287294 0.008398485 -0.0039277975 -0.032576386 0.014761681 -0.0064454847 -0.033687275 -0.004528628
-0.066411726 0.031387355 0.10593917 0.18354447 0.07961523 0.04906637 0.008189149 -0.08019229
-0.13698904 -0.07292106 -0.066274755 -0.03218618 0.09127344 -0.19725887 0.009281561 -0.07439021
-0.028160693 0.061465777 -0.08113725 0.118283026 -0.016610365 0.114003934 -0.05615923 -0.14648266
-0.009433351 -0.037180554 -0.03957749 0.017310977 -0.07895963 -0.0045370627 -0.055000488 -0.05923591
0.032596774 0.08704763 0.008868536 0.07311728 -0.034188658 0.0788366 0.09026404 0.11276307
0.086837485 0.14578246 0.00048013421 -0.002160676 0.0070932102 -0.038592916 -0.033336952 -0.01016942
-0.033973128 -0.029584065 0.0027710695 0.0530917 0.14957653 0.03162516 0.090800695 -0.007927849
0.02002939 -0.06482847 -0.16887179 0.037289005 0.050020184 -0.06826684 -0.073414244 0.0047905156
-0.051106 -0.048439287 0.009076552 0.16868173 -0.22576433 -0.12326524 0.0060168263 -0.019871939
-0.114562295 0.0019996008 -0.022725675 0.018085808 0.00041424073 -0.0052271094 -0.052423593 -0.11394491
-0.007965377 -0.11960901 -0.03660056 0.0018627021 -0.0013855426 -0.042620234 0.031832892 0.031060155
0.0017190969 -0.0006219347 -0.030094054 0.006898328 0.018261101 -0.19796623 0.09233171 -0.0020612006
0.10707621 0.013614562 0.012242381 0.025800193 -0.01303855 0.026859824 -0.039521724 -0.0021179586
-0.034155082 -0.064673245 -0.09662451 -0.10135755 -0.062025957 -0.0026604976 -0.041701473 0.0024951294
0.101562314 -0.06925245 -0.028101066 -0.08329251 -0.096053794 0.025810396 -0.0639235 0.038939815
0.06417544 0.0068908674 -0.022042189 0.07040348 -0.011790429 -0.047650587 -0.011388336 0.0044453028
-0.013985063 0.0067756195 0.023289427 0.053580236 -0.122935586 -0.028460177 -0.12282099 -0.049372826
-0.02338986 0.07046342 0.029059218 0.096953645 -0.040012382 -0.008140307 -0.008036161 -0.012704114
-0.017478745 -0.024420137 -0.020443574 -0.025694996 -0.042143717 0.053693306 -0.025757665 0.013587531
0.020005269 0.009882825 -0.008040846 -0.02741306 -0.037961815 -0.010521772 0.02736955 0.118574746
-0.032242447 -0.012628292 -0.02826305 -0.017401177 -0.07564179 0.0578793 0.06171438 -0.106844194
-0.017211663 -0.024441257 -0.07542059 -0.04138448 -0.07392737 0.0072726114 0.029794881 -0.008829289
-0.020494897 -0.029684233 -0.03494626 0.0033515878 -0.04754086 -0.015412807 0.012320646 0.02979549
0.08539293 0.044230897 -0.02275673 -0.008248105 -0.02424235 0.014382221 -0.057291973 0.05731114
0.028810898 -0.124753565 -0.013436607 -0.04699222 -0.019501802 0.06916139 0.025837205 0.045915067

encoder.5.bias f4 [12]
00000000: c0e9 16bb e656 6fbb becd 3ebd 6363 8fbc
00000010: 4151 cb3b 8505 66bc 029c 743d 7797 f13b
00000020: 9a96 e33b df26 373d 3b8c 2b3c c095 9d3c
-0.002302751 -0.0036520301 -0.04658293 -0.017503446 0.0062047546 -0.014039402 0.059719093 0.0073727923
0.0069454433 0.044714805 0.010470445 0.019236445

decoder.0.weight f4 [1568, 12]
00000000: 7ee8 c63f a5b6 b5be 1c14 893c 4773 f53d
00000010: 18b0 0840 3115 7f40 a627 87c0 79f6 86bf
00000020: 3a35 10c0 53f1 1240 cc09 cdbf 4321 38c0
00000030: 78d8 39be e350 af3d 1689 55be 9ccc 50bd
00000040: 2dab 273e e9c5 49be 4d6e d53d ec34 113e
00000050: 3255 cc3d 50e5 e53d a568 e93d e458 533e
00000060: f156 a23f 2d84 97be b3d2 af3d d942 7f3e
00000070: fdc9 d83f 24f5 4d40 8fa3 62c0 13d8 84bf
00000080: a961 ecbf 20b4 c83f f3c1 99bf 682f 19c0
00000090: a97e d8bd 14c3 ba3d 7a56 58be a90f 85bc
000000a0: ad5b e23d 5372 e83d a711 8a3d 2d2d d03d
000000b0: 4052 8b3d 9eae 02bd c860 183e eac1 803d
000000c0: f436 cebd 5042 903d 3162 8abd c2fd 28bd
000000d0: 71ae d43d 1034 383e 95b3 d3bd 7d7c 853b
000000e0: 470a db3d 0c1c 63bd 12ce c9bd 2324 213e
000000f0: d3d0 26be 90bd 203d b320 3abd f917 32bd
00000100: 4d88 c53d 20cc 55be 3905 fa3d c162 363d
00000110: 7f8b 2bbd 9650 393e 71ff 9c3d d7d0 1f3d
00000120: c83d ae3c 191f c83d 0897 303d 2175 013e
00000130: b070 733d 1e92 3bbd 913b 173b 9591 b33d
00000140: 683f 54be 5416 03be 2e8c 643d 525f 8ebd
00000150: 5c61 8f3e 6638 bcbd d1fb 1d3d 5d1e 193e
00000160: 3ac7 d03e 69a7 693f d127 87bf 3c7b 85be
00000170: c664 f0be c54e 9f3e a423 a8be 4482 27bf
00000180: c6d5 f8bd 8706 bb3d 56e6 53be f65a 103d
00000190: 939a d33b bad0 adbe 5df7 12be d8c4 13be
000001a0: 4d49 323d 25b0 53bd 1376 e33d ddf8 803d
000001b0: 9e10 233d e62a 05be c2f7 ec3d ea9a 513d
000001c0: de0b 1abe 8e9e 0dbb 3c0c 71be fb6a cbbd
000001d0: 1e76 183b 3ae2 423c ab43 6bbe 2a68 bdbd
000001e0: f0c3 4fbe 1e0f 5e3d a0f6 0f3c dc11 b7bd
000001f0: 485f 12bd d328 d037 29d1 2f3e 54b8 f83c
00000200: 0624 d6bc 2adc f73d 8f29 57bd c079 c13d
00000210: 1639 2bbe fd74 3dbc 664b 6cbd 91da a7be
00000220: 0ac8 68be b1d1 a13c 83d9 643e ed34 5f3d
00000230: f1cf dfbd 6c11 f13d d42e 39bc 78c8 6bbe
00000240: de6e bdbd 3b3c 1a3e f8bb f23c 8838 3cbc
00000250: 0584 633e 5b52 1d3e f94d 4ebe d6be dcbd
00000260: 2e32 8f3d de9c ebbd e5bd 84bc a40b f53d
00000270: 4813 1abd da52 0d3e 40f4 adbe 2a6c 70bd
00000280: ec6b 273e 737d 08be 4a9a 013d f799 223e
00000290: f999 f43d 891c 3b3e 8107 ba3d f92c fa3d
000002a0: eb1f 923f 80d7 abbe c5df 0e3e 57f1 8c3e
000002b0: 525d ce3f d54c 5040 1622 58c0 9c41 6fbf
000002c0: fb31 dcbf 6263 b63f 074b 9abf 6c73 1ac0
000002d0: dd55 7cbd 16e8 913d 59bc febd fb28 e33c
000002e0: 4afd 8f3d 2472 4ebe affc 003e 4e73 453e
000002f0: 9fb0 89bd f1ab 403c 09ed 3e3d b39a ce3d
00000300: 9502 dd3e 520b a3bd 3a47 073e a741 833e
00000310: 809a 533f b076 ba3f 4da3 e1bf dc48 30bf
00000320: a4ba 82bf 1615 503f b081 0dbf 2aba 98bf
00000330: 9f28 35be b475 a9bd 23d5 c7bd e59e 90bc
00000340: 589c 0a3d 1c47 983d c8f0 413e 2429 fe3d
00000350: e19b f6bd a36a df3c 0f9b 56be adc7 333e
00000360: 2c40 1c3e 67b0 d4bd f970 883d 0c9d 1f3d
00000370: 251f 403e 26e7 f43e 3dde a3be f61a a0bd
00000380: c6dd 19be 9a7c e63d 23ed 3bbe 852e 9fbe
00000390: d6a2 9d3e 3628 99bd f864 503d 3d9f 503e
000003a0: 0344 d43e 0cc9 143f 0f46 9dbf a732 11bf
000003b0: f6e5 22bf 1feb b43e 6326 9abe d546 21bf
000003c0: bc6b 50be e49d d33d 7c8b 18be 8dc8 89be
000003d0: 55ca 783e 92d3 cbbd 6706 5d3e 79c2 0ebd
000003e0: c7f2 9a3e dbcf 763e f647 323e 9eca 073e
000003f0: c2ca 84bb a29b 393e 5754 893c 2e92 043c
1.5539701 -0.3549091 0.016733222 0.11984878 2.135748 3.9856684 -4.22359 -1.0543967
-2.2532487 2.2959793 -1.6018615 -2.8770301 -0.18148983 0.0856035 -0.20853075 -0.05097638
0.16373892 -0.19704403 0.10421429 0.14180344 0.09977187 0.112253785 0.113969125 0.20639378
1.2682782 -0.2959303 0.085851096 0.24927844 1.6936642 3.2180872 -3.5412328 -1.0378441
-1.8467304 1.567997 -1.2012314 -2.3935184 -0.105710335 0.091192394 -0.21126738 -0.016242819
0.11052642 0.113499306 0.06741648 0.101648666 0.06802797 -0.03190481 0.14880669 0.06286986
-0.10069075 0.07043898 -0.0675701 -0.041257627 0.103848346 0.1798861 -0.10336987 0.004073678
0.106953196 -0.05544667 -0.09853758 0.15736441 -0.16290598 0.03924328 -0.04544134 -0.043479893
0.09645138 -0.20878649 0.122080274 0.044527773 -0.04188108 0.18097147 0.07665909 0.039017525
0.021269694 0.097715564 0.043112785 0.12642337 0.05943364 -0.045793645 0.0023076276 0.08768002
-0.20727313 -0.12801486 0.05579775 -0.06951775 0.28003967 -0.09190445 0.03857023 0.14952989
0.40776998 0.9127107 -1.0559026 -0.26070583 -0.46951884 0.31114784 -0.32839692 -0.65433145
-0.12150149 0.09132104 -0.20693335 0.035242997 0.0064576357 -0.33948308 -0.14352174 -0.14430559
0.043526936 -0.051681656 0.11106505 0.06297467 0.03981077 -0.13004646 0.115706936 0.05117313
-0.1504359 -0.0021609399 -0.23539823 -0.09932514 0.0023263763 0.011894757 -0.22975032 -0.09248383
-0.20289588 0.054213636 0.008786827 -0.08938953 -0.0357354 2.4814542e-05 0.17169632 0.030361332
-0.026140224 0.1210254 -0.052529868 0.0944705 -0.16720995 -0.011563537 -0.057689093 -0.3278394
-0.22732559 0.019753309 0.22348599 0.054493833 -0.109283336 0.11770901 -0.011302669 -0.23025692
-0.09249662 0.15062039 0.029630646 -0.0114880875 0.2221833 0.15363447 -0.20146932 -0.107785866
0.06991993 -0.115045294 -0.01620383 0.11965111 -0.037616044 0.13801137 -0.3397541 -0.058696903
0.16349763 -0.13329105 0.031641282 0.15879045 0.119434305 0.18272604 0.090834625 0.12215609
1.141599 -0.3356285 0.13952549 0.27527878 1.6122229 3.2546895 -3.3770804 -0.93459487
-1.7202753 1.4249079 -1.2054147 -2.4132948 -0.061605323 0.07124345 -0.12438268 0.027729502
0.07030733 -0.20160729 0.12596391 0.19282266 -0.06723141 0.011759744 0.046612773 0.100881
0.43166032 -0.079611436 0.13210765 0.25636026 0.82657623 1.456747 -1.762796 -0.68861175
-1.0213208 0.81282175 -0.5527601 -1.1931813 -0.17691277 -0.08274403 -0.097574495 -0.017653892
0.033840507 0.07435438 0.18939507 0.12410191 -0.1204145 0.027272528 -0.20957588 0.17556639
0.15258855 -0.103852086 0.06662173 0.03896813 0.1876188 0.47832602 -0.32005492 -0.078176424
-0.15026006 0.112542346 -0.18352179 -0.3109018 0.30788296 -0.07478373 0.05087754 0.20373245
0.4145814 0.58119273 -1.2287005 -0.56717914 -0.6363214 0.35335633 -0.30107412 -0.62998706
-0.20353597 0.103328496 -0.14896959 -0.2691082 0.24295934 -0.09952463 0.21584474 -0.034853432
0.3026335 0.24102728 0.17410263 0.13260886 -0.004052491 0.18125775 0.01676385 0.008091493

decoder.0.bias f4 [1568]
00000000: 65f6 28bf 7ec4 fc3e 481a c9be ef4a 063f
00000010: 6211 aabd 3a00 e63e fcfa e93e a900 c03d
00000020: 1d9f 103e 4283 713e 90ce ab3a 8879 e03d
00000030: 3816 1f3e 4e2c e73e 1022 043e 8f9b edbb
00000040: 91d5 afbe a0fd 883e 2496 d0bc 5862 94be
00000050: b8e7 e73d 8833 583e 8ae2 07be 9207 e83d
00000060: f0d7 553e 4746 b13e 3c33 b7be cebe 433e
00000070: 932e 0d3f 3d12 fd3d ae64 bebd 9b7c 9dbe
00000080: 85a5 8dbd 3e83 a83d a484 083e 52c5 0cbf
00000090: 8b50 88be 96d7 de3c 1239 bcbe ad65 8c3d
000000a0: 23a2 3d3e d908 0a3f 3866 b73e 6aa5 953e
000000b0: c7de e0be b9b3 e53d 52cd 8ebe a9b6 7b3e
000000c0: 68df da3e 5fb1 103f c0db 18bf 7e87 b63e
000000d0: 3ba9 8a3e c4ad 843e 0152 68be 2500 ffbe
000000e0: 5b12 37be ac33 973e d5bf 9bbe d885 c6be
000000f0: 535a a4be d5fe 653e 39c6 20bf b17a 543e
00000100: f784 3fbe f827 18bd fc93 003e e40d 13be
00000110: 5e2a 45bd 022c 413e 8573 0a3f 740c 75be
00000120: 3b9e 9abe 7903 f53d c3c7 2fbe 13bb 803d
00000130: 5033 9f3d f03a 98bd 4de4 3bbe 6535 afbd
00000140: 91ee 053e 65f4 96bd e38f 5cbe 8ca6 a2bd
00000150: 5854 053e 756a f53d 5122 9d3e ba34 99bd
00000160: 6efe d3bd d057 1f3e c95a 333d 8673 123f
00000170: 2304 92be 9ae9 df3c 700a 7d3e 33a6 463c
00000180: 71fc 973c 9623 48bd c396 1f3f 206d 6ebc
00000190: 9e57 02bf 33a5 093e 9d42 8c3e 5d89 013e
000001a0: 40e2 023f de59 12bf a916 b83e de2e cb3d
000001b0: 1c60 68bd be9a 4dbe 9c86 87be 4e15 90be
000001c0: d2d9 dabe 3b8b d43d bbc9 19be 0373 84bd
000001d0: 02b9 403e 1e1d 9a3e 9014 a93d 30d8 953a
000001e0: 66d3 bcbe fdb9 eb3d c858 b63e 0ef8 943d
000001f0: 30e9 16be ab43 203e e86a d4be eb62 aebe
00000200: e439 e23e afef c93a 4b7f 1e3e 83a5 273e
00000210: 0f51 903e dd6b 503f d9d2 da3e a9f9 8f3e
00000220: 6212 d1be 923c 20be 415d 28bd 6ebd 2d3e
00000230: a46a 2a3f dee8 9e3e ecd8 fcbd ed28 d33d
00000240: 5a2d 8e3e 71b9 d03d bca7 c33c ebf9 2a3e
00000250: 306f 733e 961d cf3e b492 9a3e 0ca1 893e
00000260: 19ce b93d 2d62 11bf bb42 b63e bdb0 f53b
00000270: 8c20 793e 66e9 b13d 9216 bc3c 6f25 9dbe
00000280: c194 b23e 53af ba3e 9784 02be 6838 843e
00000290: bcf2 afbe aac8 8dbe b7e3 d53d fbe8 813d
000002a0: 9eb9 073f ecd4 b53d 9de3 263e 9bd4 4c3e
000002b0: 83e9 113c 20d0 6abe 7c5e c53d 02ab 183f
000002c0: a51a 0b3c 2acb 51be 1c00 8ebe defc dabe
000002d0: ce0c 56be f418 683e 9812 2c3f 52f4 073e
000002e0: 8ac9 0a3e 3006 e7ba e6aa e0be cf53 f6be
000002f0: 24dc 2a3e 689e 24bf bdf7 213e 72a8 03be
00000300: 6f69 11be 104c 8a3d 7eab 193e b27a a23d
00000310: 2911 a73e e2cd d93e fd39 ba3e bd46 aa3e
00000320: 9f59 a23e f116 b93e 0b08 dd3e e3f3 f53e
00000330: a6cd 753e 0dfb 46be cea5 35bd fb40 a1bc
00000340: 3c1f 503d 0666 38bd dd66 d23e 634c cd3d
00000350: 620d 1fbe 1aa8 d2bd 1e90 1d3b b71d 71bd
00000360: 8a5e c1be 439e f33e e3d8 a5be b46d bbbd
00000370: 87ad a7bd 29f4 dbbe 8fc0 983c 0c40 703d
00000380: 1274 b53e e31d 5e3b d6e9 7f3c a4c9 68be
00000390: a98a 913c 44e1 33bd 6285 ae3c c7e0 22bf
000003a0: 2f61 033e 61ed 8dbe 3d8b 11be aaef adbe
000003b0: c646 0e3e c0d6 0dbd 2da8 603f 9dc8 a93e
000003c0: 06d1 3bbd db9d e7be 2575 7d3e 82e7 84be
000003d0: bd9a 9e3d 0312 76bf 0175 653e 1f76 d7be
000003e0: 8ab9 1bbe 1c26 bfbe d3ea 873e 5c46 70bc
000003f0: 7f9a e83d 1b58 303e 1ff6 b63d 433d 76bd
-0.6600097 0.49368662 -0.39277864 0.5245809 -0.08304097 0.44922048 0.45699298 0.09375126
0.14123197 0.23585227 0.0013107825 0.1096068 0.1553582 0.4515099 0.12903619 -0.00725121
-0.34342626 0.26756 -0.025462218 -0.2898128 0.11323494 0.21113408 -0.13270012 0.11329569
0.20883155 0.3462393 -0.35781276 0.19115755 0.5514919 0.12356994 -0.09296547 -0.3075913
-0.06916336 0.082281575 0.13331848 -0.54988587 -0.2662395 0.027202409 -0.3676229 0.068553306
0.18518881 0.5391975 0.35820174 0.29227763 -0.43919966 0.1121592 -0.27891022 0.24581398
0.4274857 0.56520647 -0.5971031 0.35650247 0.27082238 0.25913823 -0.22687532 -0.49804798
-0.17878096 0.2953161 -0.30419794 -0.3877399 -0.32100162 0.22460492 -0.62802464 0.20749928
-0.18703066 -0.037147492 0.12556452 -0.14360768 -0.048136108 0.18864444 0.5408252 -0.23930532
-0.30198845 0.11963553 -0.17166047 0.062856816 0.07773459 -0.074331164 -0.18348809 -0.08555106
0.13079287 -0.07370833 -0.21539263 -0.079419225 0.13020456 0.11983196 0.30690244 -0.0748076
-0.10351263 0.15560842 0.04378775 0.57207525 -0.2851878 0.02733307 0.24711013 0.012124586
0.01855299 -0.048862062 0.6233942 -0.014552385 -0.50914943 0.13441925 0.27394572 0.12650056
0.5112648 -0.57168376 0.35954788 0.099210486 -0.056732282 -0.2007856 -0.26469886 -0.28141254
-0.4274431 0.103781186 -0.1501836 -0.06467249 0.18820575 0.3010034 0.08255875 0.0011432227
-0.36880034 0.11510084 0.3561461 0.07273875 -0.14737391 0.15650813 -0.41487813 -0.34059843
0.44184792 0.0015406514 0.15478246 0.16371731 0.28186843 0.81414586 0.4273899 0.28120163
-0.40834337 -0.15648106 -0.04110456 0.16966793 0.6656897 0.3103704 -0.12346062 0.1031054
0.27768975 0.1019162 0.023883693 0.16696899 0.23772883 0.4045226 0.3019005 0.26880682
0.09072513 -0.5679043 0.35597786 0.0074978755 0.24328822 0.08687095 0.022959981 -0.30692622
0.34879115 0.36461887 -0.12745892 0.25824285 -0.3436488 -0.27692157 0.10443824 0.063432656
0.53017604 0.08878502 0.16297765 0.20002978 0.008905771 -0.22930956 0.09637162 0.5963594
0.008490239 -0.20487657 -0.27734458 -0.42771047 -0.20903322 0.22665769 0.6721587 0.13276795
0.13553444 -0.0017625745 -0.43880385 -0.48110816 0.1668554 -0.6430421 0.15817161 -0.12857226
-0.14200376 0.06752789 0.15006825 0.079335585 0.3263028 0.4253989 0.36372367 0.33257094
0.31709 0.36150315 0.431702 0.48037633 0.2400423 -0.19431706 -0.044347577 -0.019684305
0.050811037 -0.045019172 0.41094103 0.10024335 -0.15532449 -0.10285969 0.00240422 -0.05886623
-0.3776744 0.47581682 -0.32392034 -0.091517836 -0.081873946 -0.42959717 0.018646507 0.05865483
0.35440117 0.0033892326 0.015619716 -0.2273317 0.017766314 -0.043916002 0.021303836 -0.63624233
0.12830041 -0.27720168 -0.14213271 -0.33971912 0.13894185 -0.03462863 0.87756616 0.33160868
-0.045853637 -0.45237622 0.24751718 -0.25957876 0.07744358 -0.96121234 0.22407915 -0.42082307
-0.15207496 -0.37333763 0.26546344 -0.0146652125 0.11357593 0.1722111 0.089336626 -0.060117017

decoder.3.weight f4 [32, 16, 3, 3]
00000000: 0190 9f3c caf8 70bd 48b3 9e3c a934 03bd
00000010: ca3f 07be 219e 333d 272b 0fbc 6911 1f3b
00000020: 2682 d43d c2cb ae3d b292 0fbe f64f 373c
00000030: 7a28 013b 3484 043c a974 c43c 78ae 953c
00000040: 820f e5bc 4fe1 a6bd 7238 5fbc ec5c 743d
00000050: 3e32 34be 3550 6f3d 24a3 afbc 860d 27be
00000060: d84b d33d 9eb0 1fbd 3206 7bbe 6d96 a0bc
00000070: f1b1 9c3c 146e fa3c 6dd9 7c3b 9334 1a3d
00000080: 04cc 713b b8de 843b 1123 4d3d e3af 9a3d
00000090: acd1 bbbd 7e83 bf3d ae2c 5cbd c927 113d
000000a0: cf38 0f3c d84a 11bd 33f8 f2bc 3949 bdbd
000000b0: dab0 a4bb b813 ddbb 49d6 7a3d bacf 7dbc
000000c0: 15e1 b53b fec2 09bb c222 4f3d 5672 d33b
000000d0: 591e 46be e307 02bd 5028 03bd 116c 613d
000000e0: 90d3 9cbc 587e 98be a3e9 a6bc 32f7 753d
000000f0: 7609 ecbd 50e8 ffb9 6647 4ebe 0379 03bc
00000100: f527 d2bc 45bb 1e3d e80b c23a 61c0 0eba
00000110: 481a 22bd df7f 8bbb 3ca7 023d 56f1 1fbd
00000120: d251 d83b d4a3 55bd 3cc7 57be f3f8 d23d
00000130: 5722 03be 4804 72be c5ce 933d 632d 71bd
00000140: c256 01be ba18 71bb 8299 29be 4297 99bc
00000150: d47e 27be 99b2 f43c f7b5 f8bd cfc6 abbc
00000160: 6dbb 6cbd 940d 083b 8141 f03c 741e c0bc
00000170: 6298 0f3d 9f6d ac3c a97a 12bd eb85 43be
00000180: 435b 2abd 34da 483d 77ac 36ba b1ed 88bd
00000190: f538 37bc e8ba 6ebd 3b15 543d 7d68 58bd
000001a0: 79f6 b2be 5bee ccbc 44aa b2bb 5474 5dbc
000001b0: 8cfa 8ebd 7479 4bbb 3760 9bbd 2cc5 b8be
000001c0: a001 04bd 3513 2fbb b62f 48bd f644 72bd
000001d0: ff4d 6bbe 6c80 9fbb 6825 acbd 7c3f 3dbe
000001e0: 8084 633c bd29 96bc 74fb bc3b f762 093e
000001f0: 9af8 aebb 1204 efbe 6674 b73d e9f9 8bbe
00000200: 75ee 38be fb25 8d3d a144 95bc 8b6c 67be
00000210: 1b95 4abd 7ca1 c8bd d4b2 c0bd e32d c23b
00000220: 2c86 fbbb 0925 3dbd 70ee 103e 4c38 073d
00000230: 9fc3 64bd f0e3 35bc bfac 0c3d 3b43 79bd
00000240: c5f9 3d3c 6854 0fbd 76ab 383c 2859 dbb8
00000250: 0d0c 1cbd 75e4 183d 8e8f 3bbc e005 6cbd
00000260: 6e87 073d 0a3f 1fbc 9a73 a9bd 17b0 3fbe
00000270: 5300 05bc d585 acbc d941 9a3b 74f4 99bd
00000280: 0829 683d 2caf c2be 03e4 bcbb 2ce4 dcbd
00000290: 9309 41be 45f4 dcbc 0778 b1be 4211 55bb
000002a0: 987a 313d b6ba 7cbd 59c1 32bd a330 8fbc
000002b0: d04e bd3a 66e5 09bc 00d7 123c 6cc6 ee3c
000002c0: 6f90 db3c 2e90 9cbb c2b0 743c 833f 593c
000002d0: 9486 d2bc 239c e93d 8b79 16bc 904a bf3a
000002e0: bf30 46be f06b d3bc 9fb2 58bc 2b5b 59be
000002f0: 663e 743d 94d9 1e3c b12a bc3d 76b9 933b
00000300: c7a0 33bc 1e95 c6bc 6376 48bc b705 84ba
00000310: 48a1 19be 59bf 97bc 1704 05bd 8cb9 1c3d
00000320: 0e62 d7bc d842 f8bc 5af7 a3bc 4aac 29bc
00000330: 31f4 e13c 58ad 28bc a8fe 6a3d 9e77 8c3c
00000340: 302a 0abd f70f 88bd e316 063c 0505 143d
00000350: 51a9 883c c43e a53c c933 4c3c a612 51bc
00000360: dc34 68bd 16ef 4dbe 137f 4fbe dc63 d8bd
00000370: 119c 7dbe ad8e 0fbe d83e 383d 5e7a 2f3c
00000380: b0ff 7c3c bd5a 44bc 264a 42bd 43ce 65bb
00000390: 6a5d 99bd 384e 0cbe 8102 82be dec9 c6ba
000003a0: 08ab 86bd e86c 993a 1353 fdbc 13aa 93bc
000003b0: 5b3f 95bd 6820 1bbe 2f58 0a3d 0956 ccbd
000003c0: bcec 913c bf1d 863c 919a 1e3c 0354 c33c
000003d0: 5aa0 fe39 e7b3 b6bc 0354 91bd 0f04 d4bd
000003e0: acd3 d5be 075a 58bd 4023 a4bd 2b25 933c
000003f0: a88b 37bc 85d7 9d3c db3f 9dbd cf08 e13d
0.019477846 -0.058831014 0.019372597 -0.032032643 -0.13207927 0.043851975 -0.008738316 0.0024271852
0.10376386 0.085349575 -0.14020804 0.011188498 0.0019707964 0.00808816 0.02398141 0.01827167
-0.027961496 -0.08148443 -0.013624297 0.05965893 -0.17597291 0.0584261 -0.021440096 -0.16313753
0.103172004 -0.038986795 -0.24514082 -0.019602979 0.019127818 0.030570067 0.0038581744 0.037647795
0.0036895284 0.0040548705 0.05008227 0.07553079 -0.09170851 0.09351252 -0.053753547 0.035438333
0.008741572 -0.035471767 -0.029659366 -0.09242482 -0.005025965 -0.0067467354 0.061239514 -0.01549142
0.0055505135 -0.0021020765 0.050570257 0.006452839 -0.19347514 -0.031745803 -0.032020867 0.0550347
-0.01914385 -0.29783893 -0.020375079 0.060050197 -0.11525242 -0.00048810476 -0.20144424 -0.008024457
-0.025653819 0.038752813 0.0014804574 -0.0005445537 -0.039575845 -0.004257187 0.03189777 -0.039048515
0.0066015506 -0.05215819 -0.21072096 0.103013895 -0.12806068 -0.23634446 0.072171725 -0.058881175
-0.12630752 -0.003678842 -0.16562465 -0.018748883 -0.16356975 0.029870318 -0.12144082 -0.020968823
-0.05779593 0.0020760046 0.02932811 -0.023452021 0.035057433 0.021048365 -0.03576151 -0.19094054
-0.04159094 0.04903622 -0.0006968448 -0.06685961 -0.011183013 -0.058283716 0.05177806 -0.052834023
-0.3495367 -0.025016 -0.005452426 -0.013516504 -0.06981382 -0.0031047734 -0.07586711 -0.3608793
-0.032228112 -0.002671433 -0.048873626 -0.059147798 -0.22978972 -0.004867604 -0.08405572 -0.18481249
0.013886571 -0.01833045 0.0057672802 0.13416658 -0.005339694 -0.46682793 0.08957748 -0.27339104
-0.18059714 0.0689201 -0.018221201 -0.226 -0.049458604 -0.09796426 -0.09409109 0.0059258803
-0.0076759066 -0.046177898 0.14153457 0.033012673 -0.05585062 -0.011101708 0.03434443 -0.06085513
0.011595194 -0.034992605 0.011271348 -0.000104593404 -0.03809743 0.03732725 -0.0114478 -0.05762279
0.03308814 -0.0097196195 -0.082740024 -0.18719517 -0.008117753 -0.02105991 0.0047075567 -0.07517329
0.056679755 -0.3802427 -0.005764486 -0.10785708 -0.18851309 -0.026971946 -0.34661886 -0.0032511507
0.043329805 -0.0617015 -0.043641422 -0.017479246 0.0014443044 -0.008416509 0.008962393 0.02914735
0.02680227 -0.0047779297 0.0149347205 0.013259771 -0.025698937 0.11406734 -0.009184252 0.0014594365
-0.19354533 -0.025808305 -0.01322618 -0.21226184 0.05962982 0.009695429 0.0918783 0.0045081927
-0.010963625 -0.024241026 -0.012235257 -0.0010072504 -0.1500293 -0.018523859 -0.032474604 0.03826289
-0.026291873 -0.030305311 -0.020015407 -0.010356018 0.02758226 -0.010295235 0.057371765 0.017146882
-0.03373164 -0.0664367 0.008184168 0.0361376 0.016682299 0.02017153 0.012463518 -0.012760794
-0.056691036 -0.20110735 -0.20263319 -0.10565922 -0.24766566 -0.1401927 0.044981807 0.010710327
0.01544182 -0.011984524 -0.047433995 -0.0035065569 -0.074885204 -0.13701713 -0.25392535 -0.0015166362
-0.0657559 0.001170543 -0.030923402 -0.018025434 -0.07287475 -0.15149081 0.033775505 -0.099773474
0.017813079 0.016371606 0.009680406 0.02384377 0.00048566126 -0.022302581 -0.07096102 -0.103523366
-0.41763055 -0.05282023 -0.08014536 0.017962059 -0.01120273 0.019267807 -0.07678195 0.10988008

decoder.3.bias f4 [16]
00000000: a3c4 a73e b033 b03e 2cbd 993d 88fa d63e
00000010: cb21 42bb 4bd5 0c3f cf4a debc 622b 843e
00000020: 43c0 8a3e dc79 0fbd d344 03bd 1c64 88bc
00000030: 94bb d6bc 08e5 0a3e d9c8 293e 1910 903d
0.3276721 0.34414434 0.07506785 0.41988015 -0.0029622193 0.5501296 -0.02713528 0.25814348
0.2709981 -0.035028324 -0.032048058 -0.016649298 -0.026212491 0.13563931 0.16580524 0.070343204

decoder.5.weight f4 [16, 1, 3, 3]
00000000: 79c4 35be b6e0 95bb 2088 de3d c2a3 55be
00000010: 2b30 93bd e5f4 9abe 975b 0dbe 716f 8cbd
00000020: 890b 99be 7e8c d4bd 256f 0ebe e39b 75be
00000030: 299f 99bd 1d56 ddbd a1e0 98be f782 8b3d
00000040: c223 b6bd 4a4b 01be f0aa 183f 8fe5 2c3f
00000050: 99ac a23d 3aa5 403f d9d5 2a3f af2d 89bd
00000060: 161b 4a3e 88c1 b1bc 0596 8bbe 1235 0d3e
00000070: a269 413d d5aa 18be 0926 cfbd a148 88be
00000080: 70a3 85bc 5b58 65be ab79 8abe f970 5dbc
00000090: 720a 08bf 78d3 05bf 8146 81be b6eb c7be
000000a0: 4148 2fbe b136 02bc 844c 58bd d686 eb3d
000000b0: d09b 153e 3791 913c fe48 1c3d 632a be3d
000000c0: b3e1 dbbd 1ab6 9cbe b474 58be aca0 1dbe
000000d0: e5bc bebe b338 5ebe cee6 43be ea32 13be
000000e0: 95b3 023e 359c 2c3e dac8 483d 28d6 7cbc
000000f0: 0744 883e db97 debc ff4c 473e 2d4e 38be
00000100: a63b 5bbe 0e3e 66bd 8f07 ae3d 11e0 e0bb
00000110: 2aac 5abe bd88 2f3e aa41 11be 413c 25be
00000120: 5d49 b1be 226c a7bd c5ff 493e dfa3 2ebe
00000130: 363b 3d3f c81f 593f 96eb b53d 4664 603f
00000140: b2c7 453f a3ef d6bd b404 343e 81a8 463e
00000150: 9ce9 523d f434 253f e317 bb3e 0cfa 513e
00000160: c89f 093f 9fdd 873e a759 543d 7051 8dbd
00000170: d748 393e 6bc7 adbd ce6d 2cbe 7baf 5f3e
00000180: fa2c 56bc d7c5 e9bc 7b1a 7a3e e313 0f3f
00000190: 1eba 143f f86a e53d 9743 413f 490c 1e3f
000001a0: fb09 a6bc 054d 503e fc13 86bd 2495 72be
000001b0: 8aa9 0a3e 68ef 823e fee3 333e ca5c 7a3e
000001c0: f207 263f 0c0d 0d3f bf53 5e3e 5940 143f
000001d0: f5f3 ed3e bfa0 723e 2e2d 673d 78df 5ebd
000001e0: 0c9b 453e 55df 3bbe c0b0 86be bad5 353e
000001f0: 2dce b0bd 7881 06be a411 48be 621a 01bf
00000200: 9085 dfbe 08e3 4cbe f57a 33bf 458f 0cbf
00000210: 2502 0dbc b263 9ebe ddc4 59be 7f31 c23d
00000220: a012 3d3e 2fda 5d3e e723 babb 05c3 7ebe
00000230: 4eb7 be3b 6661 ec3d 9e63 033e deef 7c3e
-0.1775073 -0.004573907 0.108658075 -0.2086325 -0.07186922 -0.30264965 -0.1380447 -0.06857193
-0.29891613 -0.10378359 -0.13909586 -0.23985247 -0.075010605 -0.108074404 -0.29858878 0.06812089
-0.08893539 -0.12626377 0.5963583 0.6753778 0.07943077 0.75252116 0.66732556 -0.066981666
0.19736895 -0.021698728 -0.27262893 0.13789776 0.04721988 -0.14908917 -0.101146765 -0.2661791
-0.016313285 -0.22396986 -0.2704595 -0.013515704 -0.5314094 -0.522758 -0.25249103 -0.3904702
-0.17117406 -0.00794761 -0.052807346 0.11500327 0.14610219 0.01776944 0.03815555 0.092854284
-0.10736408 -0.30607682 -0.21138269 -0.15393323 -0.3725349 -0.21701317 -0.19131014 -0.14374891
0.12763818 0.16856463 0.049019672 -0.015431918 0.266144 -0.02717202 0.19462965 -0.17998572
-0.21409473 -0.056211524 0.084975354 -0.0068626483 -0.21354738 0.17142005 -0.14185205 -0.16136266
-0.34626284 -0.081749216 0.19726475 -0.170547 0.73918474 0.8481412 0.08882825 0.87653005
0.77257836 -0.10494926 0.17579919 0.19400217 0.05149232 0.64533925 0.36541662 0.20505542
0.5375943 0.2653627 0.05184331 -0.069002986 0.18094192 -0.084853016 -0.16838762 0.21844284
-0.013072247 -0.02853672 0.24424164 0.5588972 0.5809649 0.11202043 0.7549376 0.61737496
-0.020268431 0.2034188 -0.065467805 -0.23689705 0.13541237 0.25573277 0.17567441 0.24449459
0.64855874 0.5509803 0.21711634 0.57910687 0.46475187 0.23694132 0.05643957 -0.054412335
0.19297427 -0.18346913 -0.26306725 0.17757311 -0.08633075 -0.13135326 -0.1953798 -0.5043088
-0.43656588 -0.2000848 -0.7010949 -0.5490611 -0.008606468 -0.30935436 -0.21266504 0.09482097
0.18464136 0.21665262 -0.0056805494 -0.24879082 0.0058201915 0.11542015 0.1283097 0.24700877
