models/model_b7.pt (torch, 199311 bytes, 11 tensors)

encoder.0.weight f4 [16, 1, 3, 3]
00000000: b59f 823d 4bbb 933e c009 643e 58bc 82bd
00000010: 8efb 4b3e 8ce1 533e 0c73 34be e469 d9be
00000020: 2e8e 5dbd 312f 823e f3a1 63be dfec 9aba
00000030: 5cf3 8cbe ad53 77be 25c6 abbd 6c6d 3abe
00000040: 6674 c23d 11fc 6c3d fb73 373e efba a0be
00000050: 791f 5cbe 3c58 313e 630d 8bbe a392 e9bd
00000060: 3f79 653e b5b1 833d 59ce 8dbe f47b 8fbe
00000070: df70 9cbb 5d0c af3e 20b8 26be 2a34 3cbe
00000080: 4b67 9d3e 4256 84be f268 16bd fc9f 1b3e
00000090: 8ff9 2b3e 7c93 113d eda4 753e 44fd 043e
000000a0: 77c6 14be 8475 9d3e 332d af3d 0151 313d
000000b0: 3756 b93d 6934 37be 98a4 ffbc 4353 6b3e
000000c0: a89d ccbd 5304 97be 14ff b73d ff86 773e
000000d0: 5651 3cbe 1985 68be 0a49 af3e 9118 8fbe
000000e0: 073d 99bd f9dc 7fbe 3c2b 173e d78f bd3d
000000f0: d45f 76be 7e3b c53e 4da8 6bbe 6394 0fbe
00000100: 286a 503e b381 01be a06f ad3e 8037 27be
00000110: 1116 70be 4b25 7bbe 3d59 a63e 820f 0f3c
00000120: ac3c debe 235e ca3d 999a 073e 5d24 75bd
00000130: fb1d 683e 570a 9d3d 6c96 78bd bb15 8d3e
00000140: 14a6 0fbd 7d26 b9bd 35b9 78be c9b5 a8bd
00000150: ecf2 6f3e d2ce 9b3e ded2 323d e2c2 ac3d
00000160: 9663 a8bc e2e2 163e 8cba 673e 3d0e 703d
00000170: 7507 013e 5cad 2d3e a09a aa3c 6185 8bbe
00000180: 010e 713e 5f70 903e 6718 0ebe 46bf 83be
00000190: 7ee7 24be 385d 8d3e 3345 8dbe de3f fb3d
000001a0: ee2a 57be 337c 833d 663a ad3d e6dd 843d
000001b0: cb60 46bd ca4a 72be d371 843e fc16 47be
000001c0: b812 183e b172 7cbe b4bd 0fbe 98f2 86be
000001d0: c538 32be a35d f8bd 36b3 0f3d 4143 cebb
000001e0: ca03 89be fbe7 8d3d 94a7 53be 8d83 8dbe
000001f0: 683f 56be 654c 0bbe 4436 29be 0e6f b5be
00000200: fe8e d03c af14 fbbd f2bb 90bd 412b 153e
00000210: 3377 aa3e b32b b639 1bd4 833e 8468 913d
00000220: be4e ac3e 5abe a7bd 8fc6 12be e23d 9f3e
00000230: 15aa 543d 2485 c03d 4780 063e 463c 2bbd
0.06378118 0.2885383 0.22269344 -0.0638358 0.19920179 0.20691508 -0.17622012 -0.424636
-0.05409067 0.2542663 -0.22229747 -0.0011819861 -0.27529418 -0.24153014 -0.083874024 -0.18205804
0.094948575 0.057857577 0.17915337 -0.3139262 -0.21496381 0.17318815 -0.2715865 -0.11404922
0.22409533 0.06430379 -0.27696493 -0.28024256 -0.0047741975 0.3418912 -0.16281176 -0.18379274
0.3074287 -0.2584706 -0.036721177 0.15197748 0.16794418 0.035541043 0.23988695 0.12987238
-0.14528833 0.3075372 0.08553543 0.043290142 0.09049647 -0.17891087 -0.031206414 0.2298098
-0.09991008 -0.29495487 0.08984199 0.2417259 -0.18390402 -0.22707023 0.34235412 -0.2794843
-0.07482343 -0.24986638 0.14762586 0.09255951 -0.24059993 0.3852195 -0.2301342 -0.14021449
0.20352995 -0.12647133 0.33874226 -0.16329765 -0.23445918 -0.24525945 0.32489958 0.008731725
-0.43405664 0.098812364 0.13242568 -0.05984913 0.22667687 0.07667988 -0.06069033 0.27555642
-0.035070494 -0.09040544 -0.24289401 -0.08237798 0.23432511 0.3043123 0.04365813 0.084356084
-0.020555299 0.14734986 0.22629756 0.05860733 0.12600501 0.16960663 0.020825684 -0.27250198
0.23540498 0.28210732 -0.13876496 -0.25731868 -0.16103932 0.27610183 -0.27591857 0.12268041
-0.2101247 0.064201735 0.08458404 0.06487636 -0.048432153 -0.23661342 0.2586809 -0.19442362
0.1485089 -0.24653126 -0.1403721 -0.2635696 -0.17404468 -0.12127235 0.03508302 -0.0062946384
-0.26760703 0.069290124 -0.20669395 -0.27639428 -0.20922625 -0.13603361 -0.16524607 -0.3543629
0.025458809 -0.122598045 -0.07067098 0.14567281 0.33294067 0.00034746304 0.2574776 0.07100013
0.33653826 -0.081906036 -0.14333557 0.311019 0.051920015 0.094003946 0.13134871 -0.041805528

encoder.0.bias f4 [16]
00000000: 07be 803e 4a37 a83e 8d79 2ebe a5b0 05be
00000010: c0e5 393e c39e 9cbd d9af f7bd a479 16bd
00000020: 485a 583e 30c9 2b3e f252 74bd 2804 0a3e
00000030: d5f8 e13d 3a69 a7be ada1 3f3d a514 003e
0.2514498 0.32854682 -0.17038555 -0.13055666 0.18154049 -0.07647469 -0.12094087 -0.0367371
0.2112819 0.16775966 -0.059649415 0.13478148 0.11033789 -0.3269747 0.046785045 0.12507875

encoder.2.weight f4 [32, 16, 3, 3]
00000000: f2cf 893d e01b 5d3d dbd4 a53c 522a 3d3d
00000010: 0178 8c3d 4bd6 8e3d c972 38bd b2c6 333d
00000020: 67f1 8fbd be58 5b3a e698 343d 4147 63bc
00000030: 6031 9f3d fb0e 4b3d e9a7 843b 0e42 783d
00000040: 20d5 63bd f2ff 753c 398d 583d 241c 0b3d
00000050: d2b3 e8bc 8ac0 b2bc 8d24 5e3d 757b 88bd
00000060: c280 7bbd 5dcd afbc ef7c a83b d31e b5bd
00000070: 83fd 1bbe b0d6 70bd f765 023d 8e8e ec3d
00000080: 59bf 983c 7f07 9c3d 0ff2 403d fc9b 56bc
00000090: a9fe 18bb f6d3 233d 946d 1abd a730 d4bd
000000a0: e224 b0bd a703 f9bd 7055 a73d 9032 11bd
000000b0: 3d45 5cbd 580a b7bd 6351 73bd 640e 1e3d
000000c0: 75e8 743c 897f 283d 70ec b9bd c3d4 dabc
000000d0: ba06 3f3c dec5 4c3d 18d7 5d3d 17b9 353d
000000e0: 7f24 3c3c 9dfa cb3c b170 b53c 9eeb 85bd
000000f0: b891 80bc 3366 90bd bbf6 103d f8a8 9f3c
00000100: 4fe5 d5bd ac84 4c3d 5526 15bd c523 b3bd
00000110: 2eae 9d3d 53cc 5bbc b266 80bd 4581 6f3d
00000120: f3cc a63d 2626 13bd da8e 843d 4bc6 5a3d
00000130: 1a45 1d3d d4cd 6d3b 009e b53d 040c 503d
00000140: 4be6 0bbe 3866 b23d 9057 1a3d 36f7 9d3d
00000150: 2ed3 24bb 16ed a9bd cece 7dbd ce57 693d
00000160: 3ac9 ea3d 463e 50bc 30d1 853d c598 cebd
00000170: dbe8 293d f4e0 b63c 5763 77bd 7221 6fbd
00000180: a86f dbbd a2d6 cdbc 197c c7bd abc0 6dbd
00000190: 4b46 70bd bad5 803d b99b 51bd 3701 bdbb
000001a0: 3793 683c 6fc8 6fbd 29fd 86bd 4708 b0bc
000001b0: f47f 45bd a3a9 a93c 4273 4b3d ec90 923d
000001c0: 1dc0 95bc c682 1bbd bb02 1fbd a3dd 1a3d
000001d0: 7fc1 743d 4bf9 98bd cabc 203d d37e 853d
000001e0: a255 dc3c 8f5a a93c f229 83bd 0ac1 b03c
000001f0: cae7 923b f8d7 65bc de6c 073e b520 0abb
00000200: 974d 363d 2ecd 723d b3c5 323e 5f78 b33d
00000210: 4069 013e f947 0a3d ef4c 14bd c8c0 243d
00000220: 86ae 8bbc 190e 8fbd 2be4 a4bd 0b61 f1bd
00000230: 5c21 52bc cfd3 da3c 7832 91bd 7553 9cbd
00000240: 61b1 503e 27d5 023e 0f4a 1f3e a739 223e
00000250: 6d7b 2fbd 1343 14bd 3ae8 9e3d 9e04 7fbd
00000260: aee0 5cbe 7bf2 15bb 4741 55bd e510 473c
00000270: 758e 103d d016 383d 537b c13d 8cb6 993d
00000280: d8d0 c93d e846 ba3d 9cdd babd 571e d6bd
00000290: 7fde 42bd b83a 503c bd0f 713d 275a 013a
000002a0: 6553 9cbd 46ac 78bd a782 d83d aea2 9d3d
000002b0: e0d8 383c 2d69 21be 15e1 dfbd 573c 07be
000002c0: cc3c 6dbe 697d 30be b7d5 6fbe b361 26be
000002d0: b913 5a3e 1d07 673d 3aa7 1b3e ff05 c4bd
000002e0: 5c63 2ebe e6ba 96bd f3fe d23c 1a31 be3c
000002f0: 6e6f f6bd c001 4dbd c004 24be cbd4 7fbd
00000300: 3651 aa3b fbf1 3abc 6dbe c83c a3b4 603c
00000310: b707 e23d 13d1 32bc 9f97 6abd 697a 5d3e
00000320: 6252 f23d 1481 883e d97c a73d 9997 d8ba
00000330: bde6 a23d 13d6 e3bd 34d4 aebd d33d c13d
00000340: 1298 9e3d e33a 98bd 6411 dc3a 5e22 8ebc
00000350: 1a8a 11bd 7b61 173c f5e7 58bc b486 0dbd
00000360: 10fe 2c3e 5ce9 363e ea80 003e 45a3 cbbd
00000370: 1a5c d6bd 01f7 8cbe 7b8e 92be c9bd 7abe
00000380: e97d 4ebe e835 633e 2f05 643d 7a00 603c
00000390: e936 353d 462a e9bd 59c6 82be 562c 5fbd
000003a0: d67b 26bb 2d30 bfbd 2129 ac3e 8708 803d
000003b0: 7c7c 4c3d 11a2 1d3d 64d8 98bd f53d ccbd
000003c0: 64c7 3cbe 13fd 7ebe 420d 97bd b91f 2cbd
000003d0: 3e60 fbbd 9d48 8d3c 2d97 adbd b2f7 bdbc
000003e0: 5ea4 8bbd 9e8c d93c ac04 36bd 655e 733d
000003f0: 0b71 72bd 605a dabd 7226 2cbd 6914 af3c
0.067291155 0.05398166 0.020243099 0.046182938 0.068588264 0.06974467 -0.045031343 0.043890662
-0.07028466 0.00083674106 0.044091128 -0.013871969 0.077730894 0.049574833 0.0040483368 0.06060987
-0.055623174 0.015014635 0.052869055 0.033962384 -0.028406058 -0.021820325 0.054234076 -0.066641726
-0.06140209 -0.02146023 0.0051418464 -0.0884377 -0.15233426 -0.058798492 0.031835523 0.11550628
0.01864593 0.07618617 0.047105845 -0.013098713 -0.0023345149 0.039997064 -0.037702158 -0.10360842
-0.08600785 -0.121589 0.08170593 -0.03544861 -0.05377697 -0.0893752 -0.05940379 0.038587943
0.014948 0.041137252 -0.090783 -0.02671278 0.011659319 0.04999339 0.054160208 0.04436597
0.011483311 0.024899775 0.022148462 -0.06539081 -0.015694484 -0.07050743 0.03539155 0.01948975
-0.10444128 0.049931213 -0.03641351 -0.08747057 0.07699238 -0.013415414 -0.062695876 0.05847289
0.0814456 -0.035925053 0.06472559 0.053411763 0.03839598 0.0036286013 0.08868027 0.05079271
-0.13662069 0.08710903 0.037681162 0.07713167 -0.0025150287 -0.08297174 -0.061964802 0.056968503
0.11464162 -0.01271016 0.0653404 -0.10087732 0.041481834 0.022324063 -0.060397472 -0.058381505
-0.10714656 -0.025126759 -0.097404666 -0.05804507 -0.058660787 0.06290765 -0.0511739 -0.005767967
0.014195255 -0.058540758 -0.06591255 -0.021488322 -0.04821773 0.020710772 0.049670465 0.07156548
-0.018280083 -0.037966512 -0.038820963 0.037809025 0.059754845 -0.07469424 0.039242543 0.065183304
0.026896302 0.020673065 -0.06404485 0.021576423 0.004483198 -0.014028542 0.13225123 -0.0021076624
0.04450759 0.059277706 0.17458229 0.08763193 0.12637806 0.033760045 -0.036206182 0.040222913
-0.017050993 -0.06985111 -0.08051332 -0.117860876 -0.012825336 0.026712326 -0.07089704 -0.07633106
0.20380165 0.12776624 0.15555595 0.15842305 -0.042842317 -0.03619678 0.077591375 -0.062260263
-0.21570083 -0.0022880125 -0.052064206 0.012150024 0.035292108 0.04494363 0.0944735 0.07505521
0.09854287 0.090955555 -0.091243 -0.104550056 -0.04757547 0.012709312 0.0588529 0.0004934393
-0.07633094 -0.060711168 0.10571795 0.07697044 0.011282176 -0.15762778 -0.10931603 -0.13206612
-0.23167723 -0.1723534 -0.2342137 -0.16248207 0.21296586 0.056403268 0.1520051 -0.09571456
-0.1703009 -0.07359867 0.025756335 0.023216773 -0.12032972 -0.050050497 -0.16017437 -0.062458795
0.0051976694 -0.011410232 0.024504865 0.013714942 0.11036628 -0.010914105 -0.057273503 0.21628727
0.118321195 0.2666098 0.0817811 -0.0016524672 0.07954166 -0.11124816 -0.08536568 0.0943562
0.07743849 -0.07433107 0.0016789851 -0.017350372 -0.035532095 0.00923955 -0.013238897 -0.03455229
0.16893792 0.17862457 0.12549177 -0.099432506 -0.10466786 -0.275322 -0.2862433 -0.2448646
-0.20165218 0.22188532 0.055669006 0.013671989 0.04424182 -0.11385016 -0.25541952 -0.05448564
-0.0025403402 -0.09335361 0.3362513 0.062516265 0.049923405 0.038484637 -0.07463148 -0.09972755
-0.18435436 -0.24901228 -0.073755756 -0.04202244 -0.12274216 0.017246539 -0.084761 -0.0231894
-0.0681846 0.02655631 -0.04443805 0.059416194 -0.059189837 -0.10661769 -0.04202885 0.021372037

encoder.2.bias f4 [32]
00000000: 042b 853d 40d4 d03c 2897 763d a801 8e3d
00000010: 7947 a13d 1ad8 a7bb 0cb7 ccbc 3a9f 3b3d
00000020: 5277 a13d 5f04 ad3d 5d7d 983d 6cda cf3c
00000030: a08f 29bd 0093 5cbd fa25 a53d c6a0 573d
00000040: ea6e 023d 75ce 7dbb a128 183d 995d 30bd
00000050: 41ed 28bc d4c0 843d 2fab 3fbd 910d 043c
00000060: cd2a 84bd f94f 2a3c 94f0 9a3d 4b66 c23d
00000070: bea1 0cbd d66c 0dbd 19bb 4c3b fa28 80bd
0.06502345 0.025491834 0.060202748 0.0693391 0.078749605 -0.005122197 -0.024989627 0.045806147
0.07884087 0.08448099 0.07445786 0.025372706 -0.041396737 -0.053851128 0.08063884 0.05264356
0.031844057 -0.0038727794 0.03714812 -0.04305801 -0.010310472 0.064820915 -0.046794113 0.008059875
-0.06453476 0.0103950435 0.07565418 0.09492167 -0.034333937 -0.034527622 0.0031239449 -0.06257816

encoder.5.weight f4 [12, 1568]
00000000: 03d0 813b 2f9e ca3c f6d5 b03c cfe4 b73c
00000010: 93af 353d fbec f13c 1aa6 d73c b599 0abb
00000020: 2541 4f3c 0240 a6bb 77cf 92bb ade9 973c
00000030: 1fc8 f63c e8ab b73c 3389 9b3c 67e2 e73c
00000040: 8534 263d d81c 783d a792 9c3d 2ed7 ef3c
00000050: 61e6 ba3c fe87 de3c dc32 8cbb f095 5a3d
00000060: 7f8c 9abc 9eeb 3e3d 8dd1 253b d4b8 f93c
00000070: f7b4 263d 6b0d 363d 0373 4ebd c254 01bd
00000080: a1e7 5b3d 9f96 1d3d 3851 b03c c5df 1b3d
00000090: 93f0 d33c 7989 6fbc 21bd 803d 1a6e dd3c
000000a0: 73a2 453d f154 1c3d 637e c03b 7182 de3c
000000b0: c641 c43c 2f12 9f3c e553 043d 8938 c73c
000000c0: e9d8 8fbb ec93 903b 5f31 103d ad59 a43b
000000d0: f596 3c3c 5b87 d53c 791f 283d 042a fd3c
000000e0: 542b acbc 537c d43c 61f3 01bb 718f afbd
000000f0: d855 80bd 2978 523c 65a7 ffba c93b a83a
00000100: ea57 223d 35c7 d53d 5760 053e 010c 933d
00000110: c0ed debd f6de 4cbb 31c1 f8bb e172 453c
00000120: c01d 97be a909 12bd 248f e1bc f77b 873d
00000130: 340e 873d 519f 8ebc 5917 ae3c ff1b 933d
00000140: 44ad 1e3e 8bf5 bd3d f04e 643d 5a16 e03c
00000150: 35e5 993b 10fb 773d 6dc2 edba b299 80bd
00000160: a8fc 433c b8a5 d23c 9681 0a3d 7a9f 8a3b
00000170: abb7 1c3d 72d0 5f3d 8e35 833d f66b 2e3b
00000180: ded4 4b3b 517e fdba 79cf 1a3d 6025 a83b
00000190: 138c 0b3c 4af3 63bb 0a09 b83b 7579 3b3c
000001a0: c5dd f43c 8f33 913b efcc 733c 739d 7c3c
000001b0: d555 5c3c c50e 6c3c 3a81 103d 6751 1c3d
000001c0: 1897 0f3d c820 bc3c e2c4 07bd 96ec 023d
000001d0: b03a b6bd 5194 7b3c feab e53c e190 623c
000001e0: 7472 d03c 92eb 863d 7fa4 883d 009c b53d
000001f0: b395 fd3c 6ebf 4f3c 5752 283d ae80 e63c
00000200: 0227 e6bb 1665 24bd 50e2 b03d 815e 703d
00000210: 3d60 243c a0a2 a43c b2ce 063c e837 c53c
00000220: 75f1 4d3d 911c bd3d d906 883d 3060 223d
00000230: 579e 883c bf2b 823c f7ed 873c 23e6 5b3c
00000240: 98eb 573d b17d 103b 2406 2f3c 2ff2 073d
00000250: 54e2 713c 428a 223c 8f3a 0f3d f317 d43c
00000260: 9a52 9b3c 0b3b 143d c862 c93c 62a1 0f3d
00000270: 1379 af3c c6a3 953b 0abb c03b 652e eb3b
00000280: 3432 213d 6b79 a23c 1979 f43c a750 b03c
00000290: c238 443d 1231 0a3e ad02 003d 0c5a fd3a
000002a0: 459a 833c 6e96 b93c ba12 383d 84ef 493d
000002b0: d547 b13d c3e3 6fbd d941 e33c 30e3 893c
000002c0: 54a9 453d 9446 e33c d513 21bc e27f 833d
000002d0: 437b a13c f503 103d 34ae 4dbc d46a 243d
000002e0: 220e e8bc 378f c93c d1ab c43d 177d 873d
000002f0: 3b19 443c 4049 283c 99cc 8c3c 8e9f 8a3c
00000300: 56fe de3b 93c7 943c 6e34 ec39 919c 7d3c
00000310: eada 1d3c ceff d2bd 0dc2 153c abe0 5b3d
00000320: 1238 78bc 209f 56bd efb8 92bb e0cd fcbc
00000330: 1edf 5c3d d851 283d 4d16 553c 510e 9a3d
00000340: 6201 20bd e6a0 3a3c 191c b1bd b98f 0fbd
00000350: 3857 a2bb 37f7 22be 68be 613b 1b6b c9bd
00000360: c7b8 a8bd a570 c3bd ad5f 31be 8be6 df3c
00000370: 9113 0dbe f657 163d 4da0 b3bd 941f 6d3c
00000380: f642 1cbe a080 55bd b07b 423e 9e09 d73d
00000390: ccd1 383d e600 e53c 610c afbd a663 d3bd
000003a0: 5758 4cbd 4d2f 17bd e960 88bd a44a a7bd
000003b0: 22fc 9cbc e3ce a9bd ebc4 c5bd aba9 96bc
000003c0: 8798 dd3d 7810 fe3c 5934 afbd 9165 80bd
000003d0: a020 ef3d 38af 2fbb 080d f93c ed77 0ebd
000003e0: 08e2 4fbd 6a35 a13c f8da 03bd 2cba 3b3c
000003f0: 449e 273c fad0 2d3d 582c 073e ad16 9a3d
0.0039615645 0.024733631 0.0215864 0.022447972 0.044356894 0.029531946 0.02632432 -0.0021148745
0.012649809 -0.0050735483 -0.004480298 0.018544042 0.030124722 0.022420838 0.01898632 0.0283062
0.04057743 0.060574383 0.07645159 0.02927741 0.022814931 0.027164456 -0.004278524 0.053365648
-0.018865822 0.04661142 0.0025301904 0.03048364 0.040699925 0.04444639 -0.050402652 -0.031574972
0.053687695 0.03847372 0.021523103 0.0380552 0.02587155 -0.014620178 0.062860735 0.02703004
0.048250627 0.038166944 0.0058744415 0.027161809 0.023957144 0.01941785 0.03230657 0.02431895
-0.0043898714 0.004412165 0.035203334 0.005015573 0.0115106 0.02606552 0.04104564 0.030903824
-0.021016754 0.025938189 -0.0019828903 -0.08572281 -0.062663734 0.012846031 -0.0019504844 0.00128352
0.039634623 0.10438386 0.13025032 0.07180024 -0.10885191 -0.0031260825 -0.0075913896 0.012051315
-0.29514885 -0.035653744 -0.027534075 0.06615441 0.06594506 -0.017409952 0.021251367 0.07183074
0.15495783 0.09275349 0.055739343 0.027354408 0.004696513 0.060542166 -0.0018139608 -0.06279315
0.011962093 0.025713786 0.03381499 0.004230437 0.038261097 0.05464215 0.06406699 0.0026614643
0.003110222 -0.0019340013 0.037795518 0.0051314086 0.008517283 -0.0034782463 0.005616312 0.011442532
0.029890904 0.004431195 0.014880403 0.015418398 0.013448198 0.014407818 0.03527949 0.03816357
0.035056204 0.02296485 -0.033146746 0.031963907 -0.088979125 0.015355186 0.028036114 0.013828487
0.0254452 0.065879 0.06672 0.08867645 0.030955171 0.012679918 0.04109415 0.028137531
-0.007023693 -0.040135466 0.08636916 0.058683876 0.010032711 0.020097077 0.008227991 0.02407451
0.0502791 0.09233964 0.06641931 0.039642513 0.016677065 0.01589 0.016592963 0.013421568
0.052714914 0.0022047574 0.010682616 0.03318995 0.0147634335 0.009920659 0.034967955 0.025890326
0.018960286 0.03618912 0.024583235 0.035066016 0.021420037 0.0045666425 0.005881672 0.0071771615
0.039354518 0.019833287 0.0298429 0.021522833 0.04790569 0.13495281 0.03125255 0.0019329204
0.016064772 0.022654738 0.044939734 0.049300686 0.08656279 -0.05856682 0.02774136 0.016831964
0.048257187 0.027743615 -0.0098313885 0.06420876 0.019712096 0.035160024 -0.01255374 0.04014094
-0.028327052 0.024604423 0.09603084 0.06615656 0.011968906 0.01027137 0.017187404 0.016921785
0.0068052216 0.01816157 0.0004505249 0.015479223 0.009634713 -0.10302697 0.009140504 0.053681057
-0.015150087 -0.052397847 -0.004477612 -0.030859888 0.05392372 0.041093677 0.013005805 0.07522262
-0.03906382 0.0113909 -0.08647937 -0.035049174 -0.004954245 -0.15914617 0.0034445766 -0.09834882
-0.082383685 -0.095429696 -0.17321654 0.027331611 -0.13776995 0.03670498 -0.08770809 0.014472861
-0.15259919 -0.05212462 0.18992496 0.10499881 0.045121953 0.02795453 -0.08547283 -0.10321741
-0.049888935 -0.036910344 -0.06659109 -0.081685334 -0.019163195 -0.08291414 -0.096567 -0.01839145
0.10820108 0.031013712 -0.085549064 -0.06269372 0.116761446 -0.002680732 0.030401722 -0.03478234
-0.05075267 0.01967879 -0.032191247 0.011457961 0.010230605 0.042435624 0.1320051 0.07523856

encoder.5.bias f4 [12]
00000000: 97c3 e338 aee7 b73c 108c 023d a79a aebc
00000010: adc8 61bb f136 4f3c 66de 243d 5f9e 33bc
00000020: 2529 f03c 572a edbc 754f b53c 1a87 08bd
0.00010860635 0.02244934 0.031871855 -0.021313978 -0.0034451887 0.012647376 0.04025116 -0.010963052
0.029316494 -0.028950853 0.022132615 -0.033331968

decoder.0.weight f4 [1568, 12]
00000000: 1d3a dcbc 0074 b53c e1c7 683d dbd1 a1bd
00000010: 5c79 44bd c1e0 1c3d dd2d 343d d96e c8bd
00000020: 1ad2 11bc a9b2 89bc e422 f73d 5af5 b7bd
00000030: ed60 093e c76e fdbc 7b79 eabc 165e 9f3d
00000040: cfd9 063c 9139 80bd b63c 92bd ca8a 0f3d
00000050: a716 163d c49c bf3d 159a 0e3e ae20 8c3c
00000060: 0665 82bf 9a7f 1b3f 2324 babf c432 0e3f
00000070: 64ab ab3f c100 a5be ca18 7bbf b939 2e3f
00000080: 9f45 d6bd e66f 8e3f 7f42 bfbf 558a 943f
00000090: 9148 acbf d16b 513f 1f3c e8bf d8d6 503f
000000a0: 0ed2 d03f 128e ddbe 6201 87bf 17b2 483f
000000b0: df65 d4bd a075 ad3f 179d c9bf 8348 c43f
000000c0: d595 2cbd 0a9b a13d ffc2 90bd 2f98 eabd
000000d0: d2d5 2c3d 9988 b4bd 1fbd 653e 2e46 b83d
000000e0: 10f2 863e 028e ee3d bef1 1c3d ca14 733d
000000f0: 497c 36be 7b6a 8bbe b2cd a43d 7bae 22bc
00000100: 7758 50be d635 293e c288 e1bd 700e a13c
00000110: 0b96 17be a23d a53d e767 1c3d 161e 1bbd
00000120: f183 043e fb84 f4bb 02d9 74be 3869 2abc
00000130: 463e 553e b305 943d da08 b4bb eefb 95bd
00000140: 90b1 093e 0370 2c3e 0c53 3fbe 7091 573e
00000150: f933 6dbd 2d64 81be 8d99 9fbc 42af 663e
00000160: de41 3bbd 6500 a1bd 7f04 9a3c 366e e0bd
00000170: ad0e 59bd eee2 e23d 3595 0e3e 9aa2 b73d
00000180: 015e ccbd 9abf 643e b78f cebc f394 493d
00000190: 6703 04be df54 8cbd fa2f ca3d 8b79 6fbe
000001a0: f944 cd3d 3001 23be 349b 0abe aa7a e53d
000001b0: 76bf 86bd b935 933d 5a1c 1abc b929 71be
000001c0: 274a 8ebd 5678 0d3d 8946 843e d6a4 dabc
000001d0: 5ba0 0c3e 78b8 40be cd58 afbd e8ab 2c3e
000001e0: 1e22 a53c 9544 c83d e045 e7bd 307a 093e
000001f0: 2f76 52bd eb59 0bbe 9566 f2bc a659 c1bd
00000200: 1d42 343e 8ec0 49be fe04 103e 7569 11be
00000210: 1c21 96bf d42b 0e3f 6784 d0bf 2127 f43e
00000220: 874c bb3f 9fb0 78be b117 70bf 8bf2 ad3e
00000230: d915 24bd f1da 583f 3383 d8bf 4e98 ac3f
00000240: c00a 87be 7f44 ce3d b149 77be c5b5 b03d
00000250: eb10 6b3e c7e5 8abd f72f 08be 153d 593d
00000260: 455d 33bb 0100 d93d e2e2 93be 88dd 3b3e
00000270: 4f5e dc3d 8b0c c43d 96be 8cbe 4420 0fbe
00000280: 4e0e 3c3e 32b8 553c ae6d 1cbe da48 173e
00000290: c4f3 ea3d 996f 313d f4dd 80be 0163 23bc
000002a0: e72e 27be 5344 b63d 7ff8 8dbe c194 e5bc
000002b0: 9746 7b3e dda2 90bd a86e 27be e1dd e83d
000002c0: dcf4 33bc 41f9 573e b9ba dcbd 2c14 123e
000002d0: 8dce a2bd 0a0d cd3d d5f6 b23c 0cc2 73be
000002e0: 89d7 0a3e 2136 8bbd aed1 07bd 94c0 e63c
000002f0: e171 51be abe7 54bd 6552 383e 9930 52be
00000300: 9d12 203e 0712 c93d 30fd 47bd 3c8f 8e3d
00000310: 0cb5 01be 53dd fc3d b34b 8abc db7d 7dbe
00000320: 4ad5 563d 8816 4c3d db8d 563d 2a97 183d
00000330: 247e 5d3e 09c3 0e3e f0e4 3dbe 07ec e73d
00000340: a53a 2dbe 306b 18be 4dec 9fbc 5ab7 65be
00000350: bfa0 21be 4518 dd3e 8071 fcbc dc01 47be
00000360: bcbe 8fbf c4f8 1b3f 8b5d c0bf b84d 2c3f
00000370: 3a48 bd3f b582 abbe 41df 8bbf 9572 1f3f
00000380: fdf9 82bd 61ac 833f ba4b cfbf 5e11 a43f
00000390: 1d4f 1dbf 66ac 593e dbfd 68bf f3d4 cc3d
000003a0: 7d11 733f 9c33 6abd 7035 1ebf e319 863d
000003b0: 9ee3 173d 71ae aa3e 5914 89bf 6080 193f
000003c0: 267f cb3d dee8 a63d b463 423e ca6a 64bd
000003d0: f77d 1abe b0ca 533d 1de4 ecbd eaa0 64be
000003e0: 4af3 fd3c 4028 c9bd f715 73be b023 d53c
000003f0: 26fc bdbe 2fad 443e ac21 0cbf 9fd4 f53d
-0.02688318 0.02215004 0.056831244 -0.07901355 -0.0479673 0.03830028 0.04398905 -0.097867675
-0.00890019 -0.016808825 0.12067202 -0.08982344 0.1341588 -0.030936612 -0.02862238 0.07781617
0.008230641 -0.0626098 -0.07140486 0.03504447 0.036642697 0.093560725 0.13925965 0.017105427
-1.018708 0.6074158 -1.4542278 0.5554621 1.3411679 -0.32227138 -0.980847 0.6805683
-0.10462498 1.1127899 -1.4942168 1.1604716 -1.3459646 0.8180514 -1.8143348 0.81577826
1.6314104 -0.43272454 -1.0547297 0.78396744 -0.10370993 1.3551521 -1.5751065 1.5334629
-0.04213508 0.078908995 -0.070684426 -0.11454808 0.042196102 -0.088151164 0.22435425 0.08997761
0.26356554 0.116481796 0.03831648 0.059345998 -0.17820849 -0.27229676 0.08047046 -0.009929295
-0.20346247 0.16524443 -0.110124126 0.019660205 -0.1480333 0.08068396 0.038185026 -0.03787049
0.12940957 -0.0074621416 -0.23910907 -0.010401063 0.20824537 0.072276495 -0.0054942193 -0.073234424
0.13446641 0.16839604 -0.18684024 0.21051574 -0.057910893 -0.2527174 -0.019482398 0.22527793
-0.045717113 -0.078614034 0.018800972 -0.10958521 -0.05299251 0.1107844 0.13924105 0.08966561
-0.09978867 0.22338715 -0.025215013 0.049214315 -0.12891923 -0.068521254 0.09872432 -0.23386209
0.10022921 -0.15918422 -0.13535768 0.11205037 -0.06579487 0.07187981 -0.009406174 -0.23551072
-0.06947737 0.03453859 0.25835064 -0.026689928 0.13733046 -0.18820369 -0.08561859 0.16862452
0.02015787 0.09778706 -0.112926245 0.13425517 -0.05138224 -0.1360852 -0.02958993 -0.09440927
0.17603345 -0.1970236 0.14064404 -0.14200385 -1.1728854 0.55535626 -1.6290406 0.47686103
1.4632729 -0.24286126 -0.9378615 0.33974108 -0.040059898 0.8470908 -1.6915039 1.348398
-0.2637539 0.10071658 -0.24149205 0.0862842 0.22955672 -0.06782108 -0.13299547 0.053036768
-0.0027368825 0.10595704 -0.28884035 0.18346226 0.107601754 0.09572705 -0.27489156 -0.13977152
0.18364832 0.013044404 -0.15276214 0.14773884 0.11472276 0.04331932 -0.25169337 -0.009972335
-0.16326486 0.088997506 -0.2772865 -0.028025033 0.24538647 -0.07062314 -0.16350806 0.11370445
-0.010983672 0.21091177 -0.10777802 0.14265507 -0.07949553 0.10012253 0.021846214 -0.23804492
0.13558783 -0.06797434 -0.03315895 0.028168 -0.20453598 -0.05197875 0.18000181 -0.20526351
0.156321 0.098178916 -0.048825443 0.069609135 -0.1266672 0.12346902 -0.0168818 -0.24755041
0.052449502 0.049826175 0.052381378 0.037253536 0.2163015 0.13941588 -0.18544364 0.113243155
-0.16916902 -0.14884639 -0.019521857 -0.22433224 -0.15783976 0.4318258 -0.03081584 -0.19434303
-1.1230083 0.6092646 -1.5028547 0.6730609 1.4787667 -0.3349816 -1.0927507 0.62284213
-0.06395338 1.0286981 -1.6194985 1.28178 -0.6144884 0.21257171 -0.9101235 0.10001554
0.9494856 -0.057178125 -0.6180029 0.06547906 0.037082307 0.33336213 -1.0709335 0.5996151
0.09936361 0.08149885 0.18983346 -0.055765904 -0.15087114 0.05170697 -0.11566947 -0.22327009
0.030999798 -0.0982213 -0.23738848 0.026017994 -0.37106436 0.1920669 -0.5473888 0.12003445

decoder.0.bias f4 [1568]
00000000: dbea 06be e2cd 5e3e 93bb 3d3c ad19 5abe
00000010: b73d a2bd 03b6 39be 62a5 483e fb15 9cbe
00000020: 2b4c d7bd 9de4 2ebe 990b 64be a288 f63d
00000030: 0e3f 8d3e 7b7c a8be b161 1b3e 2814 1fbe
00000040: dfe5 78bd d2b6 443e 5c01 da3d 4683 0b3e
00000050: 93e3 273d dd63 2b3e 3259 c63d ce37 d5bc
00000060: 152a d13e 1450 e33d 918e 213e 191d 473c
00000070: 09d2 16be d613 0d3e f553 803e 14ac 75be
00000080: 500f a23d 8000 f73c b3cb 433e e2dd 6f3e
00000090: 845d e33b 3606 a2be 3992 72be 2ebb 00be
000000a0: e139 f9bd 3a6f 43bd 9eb3 73be 3e4a 94be
000000b0: e84b 863e 40f0 77bd 2221 6b3d 167c 843e
000000c0: fe3c 96be c941 273d 39fd a33c f0e2 3d3d
000000d0: b6d9 83be f442 843e 5cb8 b8bd a3b6 71be
000000e0: e248 fbbd 592c 59bc 8cd4 babd a3a7 3bbe
000000f0: d706 5d3e 5a9a 9e3e dfe3 34bd 7dfa b2bd
00000100: c914 62be 122e 87be 1c8e e2bc 6870 02be
00000110: 7ff8 d13d 9df9 88bc ba8f 723e e13f e6ba
00000120: ef7d 033d 89f9 24bc 0471 5ebe 98b2 12be
00000130: 110f 883c 9b20 04be 2e7e 59be 6189 5cbe
00000140: 25fb a8be cf33 1a3e 9aac b0bc ba09 193e
00000150: efa6 23be a8e9 a03c 8592 22be 2275 ddbc
00000160: dbea b4bc 9257 babd 86ef 07be 25bc 533e
00000170: 6928 0bbe e6aa e33d b291 29be b276 463e
00000180: 586d e73c cb4b cdbd d532 6cbe da2a 7d3d
00000190: 8762 013e 3a74 113e a491 8dbe b924 9ebe
000001a0: 4b20 9ebd f522 94bc f145 4e3d d2c3 553e
000001b0: 0a75 9b3e 31e9 423e f0e0 2f3e 3414 8bbe
000001c0: bd4b 86bd 2711 3fbe 4cf7 313e 1715 0c3e
000001d0: 647d da3e 08f2 dabd 8f36 cc3e 93f1 223e
000001e0: 2b8c 3c3e ef15 8e3d c613 3b3e d531 0d3f
000001f0: 0420 3cba fecf 74be 18a0 3a3e 35b9 113e
00000200: 576a b53d f862 5ebe 839c c03d dbca 833e
00000210: d40e 0f3e d16f 32be 160b 453e 0b91 39be
00000220: 79fa 793d bf5c 52bd 18e2 923d 6d3e 8b3e
00000230: 82a6 bb3e e3bf 2b3e cd48 c7be deca 2fbe
00000240: 4481 8d3e 8fcf 993e 4d7c 6ebe 453c bc3e
00000250: 9f42 bfbc 3482 08bd 2f62 263d 7125 233e
00000260: a02b 82bd 652d 69be 38aa 833a a56a 8abd
00000270: 3821 173e 2592 a8bd cb14 aebc d613 8cbe
00000280: 0295 b3bd d371 61be 54e0 543e dc00 903e
00000290: c395 31be 94dc 203e 0d1b 48be b527 0f3f
000002a0: 938e 5b3e 61c9 f5bd d1bb 703d b0ee 333e
000002b0: a438 91be 0c24 8e3e 20fd 98be 63c8 063e
000002c0: 58f1 933e 8eb9 f63d 9e28 193d b6ad 133d
000002d0: 9363 b63e 61c9 60be 1fd8 36be 8035 ca3d
000002e0: 2566 d0be ccad fabd 9134 673d 1007 7fbe
000002f0: ba92 d93e 924b 13be eacc 83be a164 7e3e
00000300: 2a5e 46be 7d3a af3e 4feb f83d 33d2 f23d
00000310: 7dca 2a3e efb8 0b3e 788d 2d3e 1e0d be3e
00000320: 450b ee3e e5b3 43be d889 443e 8476 9e3e
00000330: e4ed 64be 3174 5f3e 3699 a0be fcea 743c
00000340: a634 a23d 8017 c3bc fb34 6e3d 8068 763e
00000350: 5378 b6bd 3425 86be 8403 34be bbe6 84bd
00000360: ecd8 92be b5c7 823d 706e 40be c40a c2bd
00000370: d81b 27be 152b 693e 6c08 8bbe ac69 05bd
00000380: 0a2c 063e 8206 58be 5717 873e 8e37 543c
00000390: 31eb 87bd e7d7 893d 9d0f 593c 175e 923e
000003a0: 75b5 e73d 0951 563e e1c9 db3d 9fb5 70bd
000003b0: ff8c 2f3e 6d58 303d 8402 2d3e 318f 6a3e
000003c0: 373d b9bc 7dd2 95be d506 623e 163f 463d
000003d0: 9abc a23e f2c7 cb3e fea3 123d baa1 07be
000003e0: 4c76 f2bd d9bd e6bd eaa3 d03d 3297 c73d
000003f0: e981 783e cc5c 87bd d1e6 8cbe d990 273e
-0.13175528 0.21758226 0.011580366 -0.21298857 -0.079219274 -0.18135838 0.19594339 -0.3048552
-0.10512575 -0.17079397 -0.22270049 0.120377794 0.2758717 -0.3290747 0.15173985 -0.15535033
-0.060766097 0.19210365 0.106447905 0.13624296 0.040988516 0.16737314 0.096849814 -0.026027586
0.4085242 0.11099258 0.15777041 0.0121529335 -0.1472856 0.13777098 0.25064054 -0.23991424
0.07913077 0.030151606 0.19120674 0.23424485 0.006938638 -0.31645364 -0.23688592 -0.12571403
-0.12169243 -0.047713496 -0.23798987 -0.28962892 0.26229787 -0.060531855 0.057404645 0.2587592
-0.29343408 0.040834222 0.020018207 0.046359003 -0.25752038 0.2583233 -0.09019539 -0.23604827
-0.12269761 -0.013255202 -0.09122571 -0.18325667 0.2158464 0.30977136 -0.044162627 -0.08739183
-0.22078241 -0.26402336 -0.027655654 -0.12738192 0.10252475 -0.016720587 0.2368764 -0.0017566645
0.03210252 -0.010069259 -0.217228 -0.1432594 0.016608747 -0.12903063 -0.2123954 -0.21536781
-0.33004108 0.15058826 -0.021566678 0.14945117 -0.15981649 0.019642666 -0.15876205 -0.027033392
-0.022084644 -0.09098734 -0.13274965 0.2067724 -0.13589634 0.11116581 -0.16559485 0.19381216
0.028250381 -0.10024222 -0.23066266 0.061808445 0.12635241 0.14204493 -0.27650177 -0.30887392
-0.07721003 -0.018083075 0.05035967 0.20875481 0.3036273 0.19034268 0.1717565 -0.2716385
-0.06557415 -0.18658887 0.17379493 0.1367992 0.4267379 -0.10690695 0.39885375 0.15912466
0.18412845 0.06937777 0.18269262 0.5515416 -0.00071764016 -0.23907468 0.18225133 0.14230807
0.08858173 -0.21717441 0.09404852 0.25740704 0.139705 -0.17425467 0.1924251 -0.18121736
0.061029885 -0.05135798 0.0717203 0.27196065 0.36650473 0.16772418 -0.3892273 -0.17167231
0.27637684 0.30041167 -0.23289604 0.36764732 -0.023347197 -0.033327296 0.04062098 0.15932252
-0.06355977 -0.22771223 0.0010045236 -0.06758622 0.14758766 -0.08231 -0.02125015 -0.27358884
-0.08768655 -0.22016077 0.207887 0.28125656 -0.17342286 0.15709144 -0.19541569 0.55919963
0.21441106 -0.120013006 0.058772866 0.17571521 -0.28363526 0.27761877 -0.2988062 0.13162379
0.28895068 0.120471105 0.03739225 0.036054336 0.35622844 -0.2195182 -0.17855881 0.098734856
-0.4070293 -0.122401804 0.056446616 -0.24905038 0.42494756 -0.14384297 -0.25742275 0.24843074
-0.19371858 0.3422431 0.121542566 0.118564986 0.16678806 0.13644765 0.16948497 0.37119383
0.46492973 -0.19111593 0.19193208 0.30949795 -0.22356373 0.21821667 -0.3136689 0.014948603
0.07920198 -0.023814917 0.058155995 0.24063301 -0.08909669 -0.2620026 -0.17579466 -0.06489321
-0.28681123 0.06385747 -0.18792129 -0.0947471 -0.16319215 0.2277034 -0.27154863 -0.03257148
0.13102737 -0.21096233 0.26384994 0.012952698 -0.06636656 0.06730633 0.013248351 0.2858741
0.11313907 0.2092935 0.10731865 -0.058766957 0.1714363 0.04305308 0.16895491 0.22906186
-0.022612197 -0.29262152 0.22072919 0.048400007 0.31784517 0.39800984 0.035800926 -0.13245288
-0.118389696 -0.11266679 0.10187514 0.09745635 0.24268307 -0.066094965 -0.2751985 0.16363849

decoder.3.weight f4 [32, 16, 3, 3]
00000000: d7ca 9e3b 0583 88bd 8e58 423d f865 053d
00000010: 417f d8bb 95ac df3d 2f29 11bd 0180 49bd
00000020: c41c 143c a460 003d ecbe 153d 663b f6bd
00000030: d4db 563d e077 203d f473 2a3d d879 88bd
00000040: e805 29bd 7f9c 403d a6cb 39bd e027 c03d
00000050: 2e5f 8e3d 7b39 383c 4b96 88bd a10c b3bd
00000060: 6ddc 85bd 0bf5 13be 5273 a63c b745 bcbd
00000070: 29e6 533d 1262 40be 3fa7 e6bd 9629 4c3d
00000080: f9ec 483d 549b bdbc deaf acbd f5eb 003e
00000090: 51bd 8f3b 6f9e c6bc fc75 eabc 5c6d 023d
000000a0: 13a1 84bd 5203 23ba 848e 133d f367 d23c
000000b0: 613e b4bb d0ca fe3c b5dd 9abd 3187 133c
000000c0: 9323 06bd e627 ad3d 6e26 e4bc fb35 cdbc
000000d0: 5b07 843d 1d50 033e 4ac1 cabd ba96 643b
000000e0: f146 54bd e04b 3abd 8d33 fc3c 691e 8d3d
000000f0: 9b44 013d 59be 393b 7f0b 4cbc 4dbf 65bd
00000100: ae95 e33c e579 393d 2ab2 0bbc bad5 453e
00000110: 32b8 7cbd 9905 89bd 3873 343c aa2d d23c
00000120: 45c9 1dbd c091 b8bc 0971 aebd 8368 dcbc
00000130: e4cc e73c c71b 3cbd 70c7 6d3d 7d15 9a3d
00000140: d1d2 983b 7715 5bbc 58a0 523c a93d 5e3d
00000150: 3a55 893d 5589 e93c a40c bf3d 00a0 783d
00000160: 853c 493c f531 223c 5e37 2cbd 593d f43b
00000170: 308b 1bbe c661 05bc 5949 10bd 38a1 26bc
00000180: 3b34 03bd 818f 803c c581 98bd 1968 43bd
00000190: 022f bb3c 47ae 4cbc bc94 c4bb 576a 123d
000001a0: e8c0 82bc 673b 8bbd 33d6 a7bc 3d2c 1ebd
000001b0: fb40 dcbe 5eda 4d3e f1b1 babd 061a b63d
000001c0: 1883 783c e7de 363e aa48 5abe c09b 943b
000001d0: c319 0cbe b985 043d 623a 2b3e f9cc 52bd
000001e0: a85f 953d 7907 44bc 4b70 b43d 89f0 1fbd
000001f0: 4cc5 ba3c b252 593d 4c41 0ab9 adc0 e0bb
00000200: 081f a93d a170 403c bc19 723d c8be 2ebc
00000210: 50f7 01be 9d1c 693d 66d8 27bd 77f4 323c
00000220: 140f 9b3c 67fc 273d 4b0d dabc 10a0 ffbb
00000230: 4a6d 70bc e66e c5bc f7af a6bc 311b 7fbc
00000240: 7672 473c eff9 f2bd 25bb 173d 7149 04bd
00000250: 1a60 613c b949 15bb c2be 90bc 8a9d 15be
00000260: 9580 23bd e7e2 763d 79db 00be bb7d 8fbb
00000270: 7747 b9bc 7da5 66bc fe53 973d 761a e0bd
00000280: a6c2 8cbd 919d 163e 7c3d 923c 4f70 17be
00000290: 16a0 a83d 4d6c 3dbd 10b3 083d 8666 70bc
000002a0: 070c 0e3e 9877 58bd 367f 053d 17ae 4d3d
000002b0: 1b64 d0bd 9de0 94bb ef51 92bd 6cfe 2fbc
000002c0: 1f50 1ebe 5231 5cbd 5900 4e3b c0ad 0f3c
000002d0: 3706 e1bb 56ca f63b 5d14 823c d896 1c3b
000002e0: f1a5 d83c 2931 913d 8550 a03b a67d 3c3d
000002f0: 3966 883d 029d 6cbd 236d 0c3d fc50 c63b
00000300: 02a6 8b39 3b78 b7bd f9d3 413d 4fa5 a5bd
00000310: fb84 513d fad4 3e3d ca81 ec3c 48a9 903c
00000320: f4e3 0ebc c119 07bd 4099 49bc 0518 163d
00000330: ba67 9f3c dae0 c23c 5ce7 b73c 5546 b0bd
00000340: 0f71 afbd 95fa 22bd b132 083d 5311 12be
00000350: f995 d7bc 654d c4bc 9fe9 6eba 1079 443d
00000360: a503 b83c e362 5ebc 4aea b3bb 760e 183d
00000370: 0165 4dbd 2172 243d 7b61 8c3d 07f4 063c
00000380: 26f8 943c d4b4 bb3d 121b 143d b347 d43c
00000390: cb67 b1bd e3c4 9abc 0917 b33c 38b9 1dbe
000003a0: 2440 cbbd 8a1d bbbd 1aa6 7ebd 9b81 e4bc
000003b0: 2dc5 703b 416f a5bc be5b 05be 5067 cf3c
000003c0: fc14 653c 1b71 83bd 465d 94bc a696 11be
000003d0: d7a3 35bc 6ae6 a83d ae57 913c 8f24 53bd
000003e0: 5814 0abd d479 51bd 034d a1bc a348 b8bc
000003f0: ee2a 54bd c190 1dbd 764f d73b 1c47 93be
0.0048459577 -0.06665615 0.047447734 0.032567948 -0.0066069667 0.10921589 -0.035439666 -0.04919434
0.009040061 0.031342164 0.03655903 -0.12023048 0.05245574 0.03917682 0.041614488 -0.06663865
-0.0412654 0.047024246 -0.04536023 0.093826056 0.06951748 0.011244173 -0.06669291 -0.08742643
-0.065361835 -0.14448945 0.02031866 -0.091929846 0.05173317 -0.18787411 -0.112623684 0.049844347
0.04905412 -0.023145355 -0.084319815 0.1259001 0.004386582 -0.024245469 -0.028620712 0.031842574
-0.06476035 -0.00062184513 0.036024585 0.025684332 -0.0055006 0.031102568 -0.075618185 0.0090044
-0.03274877 0.08454876 -0.027850356 -0.025050154 0.064467154 0.1282353 -0.09900148 0.003487988
-0.051825467 -0.045482516 0.0307863 0.06890566 0.031559568 0.0028342216 -0.012453913 -0.05609064
0.027781334 0.045282263 -0.008526364 0.19319811 -0.0616991 -0.06690521 0.011013798 0.02565654
-0.038522024 -0.022530437 -0.085176535 -0.026905304 0.028295942 -0.045924928 0.058051527 0.0752363
0.004663803 -0.013371817 0.012855612 0.054258022 0.06705709 0.028507868 0.09328583 0.060699463
0.012282495 0.009899606 -0.04204499 0.0074536023 -0.15189815 -0.008140987 -0.0352262 -0.0101702735
-0.032032233 0.015693428 -0.074466266 -0.047706697 0.022849564 -0.012492723 -0.005999176 0.035745945
-0.015961125 -0.067984395 -0.02048788 -0.038616408 -0.43018326 0.20102832 -0.09115971 0.08891682
0.015167974 0.17858468 -0.21316782 0.0045351684 -0.13681702 0.03235409 0.1672149 -0.05146501
0.072936356 -0.011964672 0.08810481 -0.03904775 0.022799157 0.05305738 -0.0001318503 -0.0068589062
0.08257872 0.011745603 0.059106573 -0.010665603 -0.12691998 0.056912053 -0.040977858 0.010922543
0.018928088 0.041012194 -0.026617667 -0.0078010634 -0.014674494 -0.024100732 -0.020347578 -0.015570448
0.012173286 -0.11864077 0.03704371 -0.0322966 0.013755823 -0.0022779538 -0.017669085 -0.14610878
-0.039917547 0.060274985 -0.12583722 -0.004379002 -0.022617085 -0.014077541 0.07389067 -0.10942547
-0.06873064 0.14708544 0.017851584 -0.14788936 0.08233659 -0.04624586 0.033373892 -0.014672881
0.13871776 -0.05284843 0.03259202 0.050214853 -0.101753436 -0.0045433776 -0.07144534 -0.010741811
-0.15460251 -0.053757973 0.0031433313 0.008769453 -0.006867196 0.0075314445 0.01587885 0.002389362
0.026446315 0.07089455 0.004892411 0.046018265 0.066601224 -0.05776692 0.03428377 0.0060521346
0.0002663583 -0.08958479 0.047321294 -0.08088171 0.05115221 0.04658983 0.028870482 0.017658845
-0.00872134 -0.032983545 -0.012304604 0.036644 0.01945864 0.023788858 0.022449188 -0.08607165
-0.08566486 -0.039789755 0.033251468 -0.14264421 -0.02631663 -0.023962686 -0.0009113792 0.047967017
0.022462675 -0.013573381 -0.005490576 0.037123166 -0.050145153 0.040147904 0.068545304 0.008236892
0.018184733 0.091653496 0.03615863 0.025913095 -0.08662375 -0.018892711 0.02186157 -0.15402687
-0.09924343 -0.091364935 -0.062170126 -0.027893832 0.003673862 -0.020194652 -0.13023278 0.025317818
0.013982054 -0.064180575 -0.018110882 -0.14217624 -0.011086426 0.08247073 0.017742004 -0.051548537
-0.033710808 -0.051141575 -0.019690042 -0.022495573 -0.051798753 -0.038468126 0.006570752 -0.2876519

decoder.3.bias f4 [16]
00000000: 6c05 b3bb e8b0 b8bc af06 493e bfd7 9a3e
00000010: 4d64 743e ce2e 80bd 9239 553e 4122 e53d
00000020: f32a 983e 5ea5 7c3d 1342 873d 0397 003f
00000030: d6e6 1c3e d8a7 cb3d 5f82 7c3e 2ce3 423e
-0.005463293 -0.022545293 0.19631456 0.30242726 0.23866387 -0.06258927 0.20822743 0.11188174
0.29720268 0.061681144 0.066043995 0.50230426 0.15322432 0.09944123 0.24659108 0.19031972

decoder.5.weight f4 [16, 1, 3, 3]
00000000: f66b 9a3d 3c1d 9a3e 2887 213e f742 e33c
00000010: a689 e23d dd0d 41bd bc9e 43be 5e26 91be
00000020: 48d5 bbbe f1e9 883e d399 d33d 4437 78be
00000030: 7fdf 853e 4151 59be 69cd 1dbf 0605 f03d
00000040: d5de 8dbe b312 f2be 614c 0dbe dc71 bebe
00000050: 00a8 6ebe aef8 50be 3bac 0bbf fa41 9abe
00000060: 91b6 f0bd 8c28 89be ff5f ddbd 53b5 0bbe
00000070: 2fd2 40be 9c9f f4bd 092b 67be f4bd ccbe
00000080: cde4 55be 5b67 17be 6c52 3fbe 7819 7dbd
00000090: 3ed9 563b db46 033e 156c 0f3e a313 2bbe
000000a0: 2511 afbe 517d 19be 89b6 22be 9814 87be
000000b0: 3e81 e0bd 5139 bbbc 2a34 33bd 3a0d d8bd
000000c0: 84a8 4a3e 570f b13e 35c7 0f3e c675 cf3d
000000d0: 777a c03d f708 4cbc a3e2 cbbd aa04 33be
000000e0: 330d 06be a9d3 b5bd 5573 37be 86d4 c1bd
000000f0: 5f08 bd3d 0dc0 583e 2608 583e 3c07 e53d
00000100: c0ee 983e ae67 633e 9c08 9c3e d73c 333f
00000110: 1b78 ee3e 43a4 513e 765e eb3e 52b1 8c3e
00000120: 6179 47bd 85b6 34be df99 a4bd ac90 07be
00000130: f878 61be a60b c1bd 5f3a 35be 2b4c b0be
00000140: 4650 5ebe e84d 763e 9243 ca3e e7bf 993e
00000150: 82dd 9d3d 9435 a33d 6ef7 2b3d a47a f4bd
00000160: d96d 96be 8aa4 46be bcfe 2cbe ddbb 76bd
00000170: bee2 e93d 9b76 73bd 965e a03e f80c e93e
00000180: a9da 1b3d 8080 cd3e a650 d63e f790 2bbd
00000190: ce4b 4ebe 1e7e 0bbe 447e 11be 210c cdbe
000001a0: f0fc 80be 5d0b d7bd c3f2 56be 2b0b dcbd
000001b0: 37f5 9b3e fc2a 043f 706f 6e3e 1a1d 103f
000001c0: e7e5 4f3f 45b1 a73e 3d11 bf3e d1a4 eb3e
000001d0: 0aeb 103e c01a c4be 17e9 e8be d248 3cbd
000001e0: 5af5 15bf 99d1 fdbe d447 d73d d02f 9fbe
000001f0: 6564 c7bd 8009 623e df9d 52bd a733 dabd
00000200: 05ed 1bbd a0ef 28be ecd5 a7be d026 29be
00000210: f56c d3bd ebe0 61be b583 92bd 0772 f9bd
00000220: 610d 933c 1521 34bc fd11 88be 88f2 2cbe
00000230: b505 29be f589 86be 4dc7 86be 116e 2abe
0.07540123 0.3010043 0.15774214 0.027741892 0.110614106 -0.04713236 -0.19103521 -0.28349584
-0.36686158 0.26740983 0.10332074 -0.24239832 0.26147076 -0.21222402 -0.61641556 0.11719708
-0.2770907 -0.4727989 -0.13798667 -0.37196243 -0.23306274 -0.20407364 -0.5455968 -0.3012846
-0.11753572 -0.26788747 -0.108093254 -0.13643388 -0.18830179 -0.119445056 -0.2257501 -0.39988673
-0.20888062 -0.1478552 -0.18683785 -0.061791867 0.0032783295 0.12819998 0.14006074 -0.1670671
-0.34192768 -0.1498921 -0.15889944 -0.263829 -0.10962151 -0.022854479 -0.04375092 -0.10549398
0.19790846 0.34582016 0.14040835 0.101298854 0.09398358 -0.012453309 -0.09955337 -0.17482248
-0.13090973 -0.088782616 -0.1791509 -0.09464364 0.09230112 0.21167012 0.21096858 0.111830205
0.29869652 0.2220752 0.30475318 0.7001471 0.46576008 0.20472817 0.45970505 0.27479035
-0.04869974 -0.1764775 -0.08037161 -0.13238782 -0.22018802 -0.0942605 -0.17698048 -0.34433112
-0.2171031 0.24053156 0.39504677 0.30029222 0.07708265 0.079692036 0.041984014 -0.11937454
-0.29380682 -0.19398704 -0.16894048 -0.060237754 0.11420201 -0.059439283 0.31322163 0.45517707
0.038050327 0.401371 0.41858405 -0.041886296 -0.20146105 -0.13622329 -0.14208323 -0.40048316
-0.25192976 -0.10500214 -0.20991044 -0.107443176 0.30460522 0.5162809 0.23284698 0.56294405
0.8121018 0.32752433 0.3731784 0.46024182 0.1415216 -0.3830166 -0.45490333 -0.045967884
-0.585775 -0.49573973 0.10511747 -0.31091166 -0.097359456 0.22073936 -0.05142009 -0.10654383
-0.038067836 -0.1649766 -0.32780397 -0.16518712 -0.10323516 -0.22058456 -0.071540274 -0.12179952
0.017950715 -0.0109942155 -0.26576224 -0.16889393 -0.16506083 -0.26277128 -0.2632393 -0.1664355
