models/model_b2.pt (torch, 199311 bytes, 11 tensors)

encoder.0.weight f4 [16, 1, 3, 3]
00000000: 0edb c8bd 1cd2 583e 7729 8dbe 1e71 a4be
00000010: 66d0 ecbd 81ea 383b 6859 073e 36f0 16be
00000020: 3f6b 7f3d 1911 62be ce66 62be 12bb 8d3e
00000030: fe78 b23d 4685 26be 823c 74be 24aa 3e3d
00000040: 9673 673e cf77 83be b2a3 4bbd b9a3 903e
00000050: 3982 47be a033 67be c9c0 a53e 6af1 51be
00000060: 7f45 923e 8af5 81bc 183a 0a3e 71ca 80bc
00000070: bddb 2fbe 2f6c eebc aa02 903e 9714 da3a
00000080: 0d0e 8b3e 85c1 e6bd 0f10 92be 6e4c a2bc
00000090: 1239 663e c708 5c3e 3ba1 a1bd be5c de3b
000000a0: ff76 0e3d 2234 85be bf64 dabd c8bb 33be
000000b0: 1e0a 09be 97f5 273e 9978 8a3e bd3e c1bc
000000c0: 6886 80be c614 e33d 7e4f 663e 3ee6 c8bd
000000d0: 0a58 493e e1d4 69be e49a da3c c711 94be
000000e0: 6a44 09bd e172 863d 47c4 6cbd 4f96 7dbe
000000f0: e142 03bd 43be 40be 58a6 663e ce37 c03b
00000100: 881d f43c 2348 033c 418d 833e c6cd b53e
00000110: a1fa 1f3d 09d2 623c 3227 323d 6306 8e3b
00000120: 5884 2cbe 29fd 9fbe bf64 05bc 2a06 18bc
00000130: 61fd d93d 8337 123e b2df 89be 89f5 94be
00000140: b9e0 1f3d fb1a 36bd 6ae2 60be 52fd 9b3e
00000150: 7810 c23d 767d 53be 591f 3d3e e51f ebbc
00000160: dfd6 1a3e a681 323b 9562 813e 3375 e3bd
00000170: c5b8 80be ef71 8c3e aebf 84be 8dcb a3bd
00000180: 5300 7c3e 180d 67be 2460 65bd df2a 963e
00000190: 70b9 873e 5b0f 29be e8e2 68bd dfff 813d
000001a0: 825d 46be e4b2 28be 1f12 8f3e 5949 7cbe
000001b0: 634b 5d3e 3768 a7bd 82ed aa3d 7dd9 88be
000001c0: 862d b9bd 7c7e b2be 0b24 b9bd 046c b83d
000001d0: de6a ce3d bd06 6f3e e5a9 023d f835 febd
000001e0: 2010 82bd 4f8b 0d3e 6673 563e e42c 4abe
000001f0: 09cc cfbe f6e2 1a3e 006c 01bf 23e6 9fbd
00000200: 5d68 a73c 8f19 b3be f59c 5e3e b449 553e
00000210: 46b7 60bc 44cd 613e 82a6 9e3e acf0 06be
00000220: 0e61 a13e d0e5 b23e 2478 b7bd c92f 76be
00000230: b72e 1e3e c375 7fbe 3b39 1ebe 9616 2fbc
-0.09807406 0.211739 -0.27570698 -0.32117552 -0.11563186 0.0028215947 0.132177 -0.1474007
0.062358137 -0.22076835 -0.2210953 0.27681786 0.08714484 -0.16261777 -0.23851207 0.046548977
0.22602686 -0.25677344 -0.04971666 0.2824991 -0.1948327 -0.22578287 0.32373646 -0.20502248
0.28568646 -0.015864152 0.13498724 -0.015721532 -0.17173667 -0.02910432 0.28127033 0.0016638216
0.27159157 -0.1126738 -0.28527877 -0.019811835 0.22482708 0.21487723 -0.078920804 0.006785958
0.034781452 -0.26016337 -0.10663747 -0.17552102 -0.13382766 0.16402279 0.27045134 -0.023589486
-0.25102544 0.110879466 0.22491261 -0.0980954 0.1966249 -0.22835113 0.026685186 -0.28919813
-0.03351251 0.0656488 -0.057804372 -0.2476437 -0.032046203 -0.18822579 0.22524393 0.0058660274
0.029799238 0.008012804 0.25693706 0.35508555 0.039057378 0.013844022 0.04349441 0.0043342574
-0.1684736 -0.31247833 -0.0081416955 -0.009278813 0.10644031 0.14278989 -0.26928478 -0.29093578
0.03903267 -0.044459324 -0.2196137 0.30466706 0.094757974 -0.20653328 0.1846899 -0.028701732
0.1512103 0.002723792 0.25270525 -0.11106338 -0.25140968 0.27430674 -0.2592749 -0.079978086
0.24609499 -0.22563589 -0.05599989 0.29329583 0.26508665 -0.16509764 -0.05685702 0.06347632
-0.19371608 -0.16474491 0.27943513 -0.24637355 0.21610789 -0.08174174 0.08346082 -0.2672843
-0.09041886 -0.34862125 -0.09040078 0.09004977 0.10078977 0.23342414 0.031900305 -0.124126375
-0.06350732 0.13822673 0.20942459 -0.19743687 -0.40585354 0.15125641 -0.5055542 -0.07807567
0.020435506 -0.34980437 0.21739562 0.20828897 -0.013715571 0.22050959 0.3098641 -0.13177747
0.3151936 0.34940958 -0.08958462 -0.24041666 0.15447508 -0.24947266 -0.15451519 -0.010686537

encoder.0.bias f4 [16]
00000000: 9f57 56bd f02f 313e 2fee 6f3e 446e 30bc
00000010: aae7 d93d bcfa 9c3e d385 7c3e db21 973e
00000020: e20a 6ebe c0ef 6f3e 0847 58be c313 3b3e
00000030: ed98 b0bd daf4 d1bc 1b19 c43c 5694 84bd
-0.052329656 0.17303443 0.23430704 -0.010768477 0.106398895 0.30660045 0.24660425 0.29518017
-0.23246339 0.23431301 -0.21120846 0.18269257 -0.08622918 -0.02562945 0.023937752 -0.06473605

encoder.2.weight f4 [32, 16, 3, 3]
00000000: e8ea 1c3e 1611 033e 05cf b23d 0007 dd3d
00000010: 737f f53d 6e82 283d 9d6d 073e 3c86 e3bc
00000020: b21e 99bd d6c5 1f3d f664 8abc 6a24 b13c
00000030: 6a7a 113e ecb2 af3d 761b 30bc 2589 293d
00000040: b062 453b 424d 9ebd 0a79 a6bc 69d3 15be
00000050: 97a5 673c 7bef 79bd 836b e2bc 3d83 13bc
00000060: bcfb 9fbd 058f 94bd e557 cb3b 736e 9abd
00000070: 7694 41bd c3b1 123d cd5b 5c3d 27cf ea3d
00000080: 9906 0f3c bd48 2e3c 9c6c b23d 5005 abbc
00000090: 7e77 67bb 508c 973d 2e90 ba3c eaff 54ba
000000a0: e110 873d 2b71 11bd 54b6 afbc 1493 823b
000000b0: d99f 70bd 6b20 60bd c1b0 97bd d3ec 62be
000000c0: d5bd 0bbe 6ab5 59be 80b0 ddbd 3e9c 4cbe
000000d0: 876d 03be 056c a03d e413 f93d 7be9 b5bc
000000e0: 1cec 093d 63e2 1bba ef3c 8d3d bcfc e13d
000000f0: a488 3e3d 2dd4 51bc 42e2 08bd 945c 10be
00000100: 4544 6bbd c0a0 20be 833c 83be 0432 3bbe
00000110: 9722 4dbe 853d debd 9123 70bd 2f6d 973d
00000120: efb0 943d c92f 393c c9ae f7bb ed68 9a3d
00000130: 3aef 083e 5300 bd3c 2edc cf3d 3e15 ce3c
00000140: 4c66 25bd 8c09 8dbd 90b5 06bd 6618 c8bd
00000150: b18f 98bd d47a f438 711b 873d 9f53 f5bc
00000160: 9ebf 133e 020f be3d e365 68be abc3 7fbe
00000170: b5e0 a7bc ae65 abbe c124 eebd f582 9fbd
00000180: 9b48 24be fe00 a4bc 2723 a53d 193c 8ebd
00000190: f094 ad3c 5737 8e3d 1624 33bd 396c 0c3d
000001a0: 3af0 a63d db91 ddbc abc2 c8b9 06f3 6a3b
000001b0: 0b60 523e 3850 8a3d 0bc2 e43d bd9d 073e
000001c0: 029e 153e a22f 4a3c 904e 063e e1cd c13d
000001d0: bf91 b0bd 17f4 dc3c 17f3 f9bd e531 d2bc
000001e0: c768 57be 34cd b4bd 1bdb f9bd 0ad0 17be
000001f0: 2c1f 0f3d 7bce 043d bdf5 cabb 254a 14be
00000200: f046 19be b561 903c a20d 6abe 3a78 c03d
00000210: 3808 f23d bbe1 2e3e b8f4 6e3e 88ca 4c3d
00000220: a321 eabd 0ff3 fdbd dce5 1abe 43dc a2bd
00000230: 36b7 3fbe 1de0 16be 4145 abbd 84aa 69be
00000240: 9025 293d 315d 113e 7383 f1bb 2335 a23d
00000250: 5ddb 113e 9258 17bc df1b 8c3d 3c88 d43d
00000260: 85c9 d03d cdef fc3a 39c5 57bd 9775 b6bc
00000270: 39df 123e c8d5 883c 29b5 563d 0480 0b3e
00000280: 7f4c eb3c b78d 0fbc 1bd2 a2bd 5ad3 99bd
00000290: d32a c83c cb92 ccbd b852 cb3b 03b3 c4bc
000002a0: f61b 8abd 6b52 18bd 6b83 86bd d710 f83c
000002b0: 9756 7bba 8b03 1e3d 3040 2ebd efb0 1ebd
000002c0: 61f5 393d b21d 2dbc 8f33 bbbc 4d2c 343d
000002d0: 0897 213e 14cd 113e c42f 1f3d 753e dc3d
000002e0: cdd5 7cbc c959 c03d f11f 74bc c148 0dbd
000002f0: 8f2f a73d db52 983d 289d ecbb 3bed 3a3d
00000300: 90cb 3bbd cf6b 0fbe 05fe f0bd ae8c cfbd
00000310: 1b86 27be eec4 34be afdb fa3d 070b 04bc
00000320: 29f4 be3c 2544 ca3d 6d28 463d bcec f53b
00000330: fda2 e43d 0fd0 20bc a468 b83d a1e7 d83c
00000340: a96d c8bd 506c 05be 368b 22bf b850 85be
00000350: 766f 30be e0bc 5bbe d1ec 75be 9390 40be
00000360: 33a0 69bd c6f6 c03d 6eb2 ad3d 2df5 c53d
00000370: ed09 933c 7251 573d 3177 2c3e 1663 083e
00000380: 37b6 84bb 537c 923c 346b bc3d 5c9b 103b
00000390: bf65 033d 40cb 39bd 91d9 1bbd 46a6 8abd
000003a0: 3810 1ebe 1417 c6bd a26a 6a3b f46a 15be
000003b0: eb71 ab3d 9a6f cfbe e5ba 7ebe ba06 023d
000003c0: 85cd d9be 7b8b dabd 519e 8dbd 5adf db3d
000003d0: 6c81 993d 0786 723d 1edb 79bd ecd0 28bc
000003e0: 4beb 86bd 77ac d2bd 7ee2 78bd bbf1 9dbb
000003f0: 8790 203e c614 553e e5c0 883d 989e d83d
0.15323985 0.12799487 0.08730892 0.10792351 0.119872 0.041140012 0.13225408 -0.027773969
-0.07476558 0.03900703 -0.016893845 0.021623809 0.14206854 0.085790485 -0.010748735 0.041390557
0.0030118637 -0.077295795 -0.020321388 -0.14631428 0.014138601 -0.061019402 -0.027639156 -0.009003458
-0.078116864 -0.07253841 0.006205546 -0.07540598 -0.047260724 0.035814058 0.053798486 0.114652924
0.0087296 0.010637459 0.08712122 -0.020876557 -0.0035319026 0.07399809 0.022773828 -0.00081252924
0.06595016 -0.035508316 -0.021449246 0.0039848182 -0.058746193 -0.054718416 -0.0740676 -0.22160654
-0.13646634 -0.2126061 -0.1082468 -0.19981477 -0.1283475 0.07833103 0.12161997 -0.022206059
0.033672437 -0.0005946515 0.06896388 0.110345334 0.04651703 -0.012806934 -0.0334189 -0.14097816
-0.057438154 -0.15686321 -0.25632104 -0.18280798 -0.20032726 -0.10851578 -0.05862767 0.07393872
0.0726031 0.011302897 -0.007558678 0.07539544 0.13372508 0.023071444 0.10149418 0.025156613
-0.04038076 -0.068865865 -0.032887995 -0.09770279 -0.07449282 0.00011657705 0.06597031 -0.0299471
0.14428565 0.09280206 -0.22695117 -0.24976985 -0.02049289 -0.33476013 -0.11628104 -0.0778865
-0.16043322 -0.020020004 0.080633454 -0.069450565 0.021189183 0.06944149 -0.043735586 0.034282897
0.08151288 -0.027047088 -0.00038292012 0.003585042 0.2054445 0.06753582 0.11169823 0.13243766
0.14611056 0.012340458 0.13115907 0.094630964 -0.08621549 0.02697186 -0.12204569 -0.025658557
-0.21036063 -0.08828202 -0.12199994 -0.14825454 0.034941837 0.032423478 -0.006193845 -0.14481409
-0.14968467 0.017624715 -0.22856763 0.093979314 0.11817974 0.17078297 0.2333554 0.049997836
-0.11432197 -0.123998754 -0.15126747 -0.07952168 -0.18722233 -0.1473393 -0.083628185 -0.22818953
0.041295588 0.14195706 -0.0073704063 0.07920291 0.14243837 -0.009237425 0.068412535 0.10377547
0.10194687 0.001929754 -0.05267832 -0.022272868 0.14342965 0.016703501 0.05241886 0.13623053
0.028723 -0.008761815 -0.07950231 -0.07511015 0.024434483 -0.09988936 0.006204929 -0.02401114
-0.067436144 -0.037187975 -0.06568035 0.030281467 -0.0009587793 0.038577598 -0.042541683 -0.038742956
0.045400027 -0.010566162 -0.022851733 0.04398756 0.1578027 0.14238387 0.038863912 0.107541
-0.015431833 0.09392125 -0.014900194 -0.03449321 0.08163368 0.074376784 -0.007220883 0.045636397
-0.04584843 -0.1400597 -0.117672004 -0.101342544 -0.16359751 -0.17653248 0.122489326 -0.00805927
0.023309784 0.09876279 0.048378397 0.0075050276 0.111639 -0.00981523 0.090043336 0.026477637
-0.09786541 -0.13029599 -0.6349367 -0.26038146 -0.17230019 -0.21458769 -0.2401612 -0.1880515
-0.057037544 0.09422068 0.084812984 0.09665904 0.017949069 0.052567907 0.16842343 0.13319048
-0.004050042 0.017881548 0.09200135 0.0022065258 0.032079455 -0.04535985 -0.038049284 -0.067699954
-0.15435874 -0.096723706 0.0035769125 -0.1459158 0.083713375 -0.40514833 -0.24875982 0.031744696
-0.4253961 -0.10671135 -0.06914962 0.1073596 0.074953884 0.05920985 -0.060999982 -0.010303717
-0.06587847 -0.10286801 -0.060762875 -0.0048200763 0.15680133 0.20808706 0.06677417 0.10577124

encoder.2.bias f4 [32]
00000000: de26 313c ebc6 543d 27f8 8d3d 3a38 5f3d
00000010: 07e2 85bd 0bb0 10bd 7ff7 363d d634 6d3d
00000020: 1ad9 34bc 4d58 0c3d 31e2 933d 9d5a 003d
00000030: b596 04bd 7f5e 0cbc 1b65 01bc fbcb 75bd
00000040: 0874 e93c 69ba cbbc 6be4 52bc 8c13 cbbc
00000050: 02fa 3f3d 9e52 c7bc 3347 6c3d 5e2f 30bd
00000060: 8df8 843d 3fbe 98bd b96c 19bd dd0f 803a
00000070: 27ca 843d f63a 333c c4b2 093c fbad 4dbd
0.010812489 0.051947515 0.06932097 0.05449698 -0.06537252 -0.035324138 0.044669624 0.057911716
-0.011038089 0.034263898 0.07220877 0.031336416 -0.032370288 -0.0085674515 -0.007897641 -0.060008984
0.02849771 -0.02486916 -0.012871842 -0.024789594 0.046869285 -0.024331387 0.05768509 -0.043013923
0.0649272 -0.074581616 -0.0374572 0.0009770353 0.0648387 0.01093935 0.008404437 -0.05021475

encoder.5.weight f4 [12, 1568]
00000000: fc29 723b c840 d9bb 09b0 30bc 6091 ae39
00000010: f0c4 593b 15fd 8bbc 3338 a6ba 5996 3a3d
00000020: a39c 1bbd b8b8 29bc f856 3cbd 0855 88bb
00000030: e473 253c 521d 383c c2bb 063d d017 71bc
00000040: b4f9 7bbd 6884 ecbc 4dd2 0dbe e998 d9bc
00000050: b805 f63c a87a 923c 0ac7 d8bc f913 213d
00000060: 906f 833d 8d2e 473d 43cc 0dbc 0a00 ea3a
00000070: b3e9 dbbb b01c 74bc c3eb a63c 2a2a 0ebe
00000080: 65be f2bd 43ce 28bd 199f 9abb 399c a5bb
00000090: c2e1 30bc 8c6f 10bb 5539 bebd 118e 85bc
000000a0: 178c cbbd d54c 40bd 1dba 443c ec7b 95bc
000000b0: 3a66 70bd 821c 883c 418b 8abd 49a3 25bd
000000c0: 5659 a6bc 2eb6 1dbc ccb4 efbb 4a04 e8bc
000000d0: 69e3 18bd 3cf9 debc 3488 f3bc c58b 6bbc
000000e0: ecce 1e3c f87a 72bc 4de5 1ebd 8017 69bd
000000f0: 5ca4 1fbd bafe fdbc a8c0 0fbd 9ad2 203c
00000100: 5057 42bd ecd0 1dbd 949d 053d 79b4 1ebe
00000110: 1fcb 7cbc d1ea df3b 803c e83c 42a8 96bc
00000120: 53bb b23c 746e 0a3e 052a f1bc 4ec1 4ebd
00000130: 7517 e7bc 8c9d 8a3c 1d97 23bc d1d2 71bd
00000140: 44db 5fbe 4bef d53c 86d5 dcbc ece2 03bd
00000150: 3fb8 d13a 98a5 21bb 8148 683c 903f e23d
00000160: 5601 083e 10ec 95bd 3c61 97bd 0d77 3d3d
00000170: 0809 7cbc b0b5 d43c 1472 67bc bb92 d6bd
00000180: 4f58 47bd 24f1 3dba 3b97 723b 0f41 64bc
00000190: 45ce 7cbc ea71 8a3c 9ebe fdbc bda5 633c
000001a0: 1660 f03b 97b4 c5bc 4b49 94bc eb93 a6bc
000001b0: a0d2 ec3c fa11 dfbc 5136 82bc 153f 11bd
000001c0: 482f a1bc af14 48bd cf7d 13bd 1a0f 0f3c
000001d0: b47a 8cbd 69c9 1abd 83b0 3dbc 37e9 a6bc
000001e0: 765d 13bc 8259 2cbd 7610 033c 071d c83c
000001f0: b9de e73c 2e76 a03b ce3f 27bd cc12 b7bc
00000200: f773 9fbd 2520 41bd a886 b1bc 45c6 08bd
00000210: 3c9c 85bc 8023 28bd 3a66 a8bc 4125 773d
00000220: dcef 043d accb 87bd ef25 7abd 5d6f 59bc
00000230: 7a28 23bd bdd5 58bc 5abc 16bc 2a2d 5cbd
00000240: 963e 4ebd 14d8 5ebd 2138 fcbc 1a61 86bb
00000250: 9aaa 8cba cd2d a53b 1c0c aa3b 3cc4 023b
00000260: 834e 05bd fe23 7b3c 8967 443b ddb7 f43c
00000270: 256e a23d eac7 83bc c664 93bc 2c0c 88bc
00000280: 5f4a d4bd c483 7d3e 7298 923d 24ca 9dbc
00000290: 06ef 0d3d d808 e33b a051 8cbd 1ab0 05be
000002a0: 13f9 f0bc 0177 94bb e8b7 2cbe b980 40bd
000002b0: 662b 40bd b142 38bd 856e a7bc 330e 523d
000002c0: d9e1 f23d 94b8 903d 5558 8f3d 6181 bd3d
000002d0: da57 c33b f39d 083e 13f8 103e 6d68 c3bc
000002e0: d6c5 063b 48ca f2bc 461e 643d 7065 973d
000002f0: ebc5 013e 373d 4a3e 9b57 2ebd d871 07be
00000300: 3955 b1bd 57e5 c13d e86a a73d 9fd2 853d
00000310: 9d4e 15bc 23a8 933c 482b 7c3c 0679 6fba
00000320: fcf5 b4bc 8e22 3c3c a9d5 b03c 5ee2 e6bc
00000330: 7f94 d03b 5dc1 acbc 17ce a6bc 7dbb e53b
00000340: 778a a4bb ea86 a13c 92be d7bc 8fd8 f13b
00000350: 4092 cb39 e93d 89bd 6b25 b1bd 212a fa3c
00000360: 546f 9ebc 000e cdbc f425 1dbd d8c0 443c
00000370: 0c71 41bd d307 9fbc 62f8 bc3a 6d60 eebb
00000380: f9af 1c3c ea16 f5bc 0c1d 59bc 1df3 3bbd
00000390: 4b34 cdbd 7e11 0cbd 33e1 21bd cb50 94bc
000003a0: 4b0e 06bd 7db5 303d f409 0b3d c433 f6bd
000003b0: 91e7 e9bc 0da2 1bbd dcd5 563c 447c bdbc
000003c0: 5a14 813c 7dba 66bd 9061 373c b9cf 0cbd
000003d0: 2ef8 213b a060 1e3c 9c94 9ebc c20a a8bb
000003e0: bad3 4ebc 9561 abbc 093f 16bd d273 04bc
000003f0: 2622 2dbc 0fb5 5dbc 8e99 2ebc 839a 1c3d
0.0036951294 -0.006630037 -0.010784158 0.0003329618 0.0033228956 -0.017088452 -0.0012681544 0.04555354
-0.037991177 -0.010358982 -0.045981377 -0.004160527 0.010098431 0.011237459 0.032893904 -0.01471515
-0.061517432 -0.02887173 -0.13849755 -0.026562171 0.030032024 0.017880753 -0.026462097 0.039325688
0.06417763 0.04862838 -0.008654657 0.0017852795 -0.0067112087 -0.014899418 0.020376092 -0.13883272
-0.11852721 -0.04121233 -0.004718673 -0.0050540236 -0.010796012 -0.0022039143 -0.09288279 -0.016303094
-0.099388294 -0.046948273 0.0120072635 -0.018247567 -0.05869124 0.016615156 -0.06764842 -0.040438924
-0.02030627 -0.009625955 -0.007315254 -0.028322358 -0.03732625 -0.027218454 -0.029728033 -0.014376585
0.009692889 -0.014799826 -0.038792897 -0.056907177 -0.038975105 -0.031005252 -0.03509584 0.009815836
-0.04744655 -0.03852932 0.03262098 -0.15498532 -0.015429287 0.006833412 0.028349161 -0.018390778
0.021817839 0.13518697 -0.029438982 -0.05047732 -0.028209427 0.016920827 -0.009984759 -0.05903894
-0.21860987 0.02611508 -0.026957285 -0.03219883 0.0016000344 -0.0024665352 0.0141774425 0.1104728
0.1328176 -0.07320416 -0.07391593 0.046256114 -0.015383013 0.025965542 -0.014126319 -0.10477205
-0.048668202 -0.00072457106 0.003701641 -0.013931527 -0.015430038 0.016900022 -0.030974682 0.013894496
0.007335673 -0.024133964 -0.018101355 -0.020334205 0.028909028 -0.027230252 -0.01589504 -0.03546055
-0.019675866 -0.04884785 -0.036008652 0.008731628 -0.06859341 -0.037789736 -0.011577728 -0.020374877
-0.008994451 -0.04207755 0.00799953 0.024427904 0.028304445 0.0048969006 -0.040832333 -0.02234783
-0.077857904 -0.047149796 -0.021670654 -0.03339221 -0.01630985 -0.04104948 -0.020556558 0.060338262
0.03245531 -0.06630644 -0.061071333 -0.01327118 -0.039833523 -0.013234553 -0.00920018 -0.05375401
-0.050352655 -0.054405287 -0.030788483 -0.004100931 -0.0010731996 0.0050408603 0.005189432 0.001995339
-0.032545578 0.015328405 0.0029968938 0.02987283 0.07931165 -0.016086537 -0.017992388 -0.016607367
-0.10365748 0.24757296 0.07157983 -0.019261427 0.03465178 0.0069285445 -0.06851506 -0.13055459
-0.029415643 -0.004530788 -0.1686703 -0.04699776 -0.046916388 -0.044985477 -0.020438442 0.051283073
0.11859483 0.070664555 0.0699927 0.09253193 0.0059614005 0.13341503 0.14157133 -0.023853505
0.0020564697 -0.02963747 0.055692933 0.073923945 0.12673156 0.19749914 -0.042564016 -0.13227022
-0.08658833 0.09467571 0.081746876 0.065343134 -0.009112981 0.01802451 0.015391178 -0.00091351604
-0.02208995 0.011482848 0.021586256 -0.028184112 0.0063653584 -0.021088297 -0.020361943 0.0070108757
-0.005021389 0.019717652 -0.026335988 0.007380552 0.00038828142 -0.067012616 -0.08649715 0.030537667
-0.019340195 -0.02503109 -0.038366273 0.012008868 -0.04722695 -0.01941291 0.0014417286 -0.0072746784
0.0095634395 -0.029918153 -0.013251554 -0.045886148 -0.1001974 -0.03419637 -0.039521407 -0.018104931
-0.032728475 0.04314183 0.03394504 -0.12021592 -0.028552802 -0.03799634 0.0131125115 -0.023130544
0.015756775 -0.056330193 0.011192694 -0.034377787 0.0024714577 0.009666592 -0.019357972 -0.0051282356
-0.012623722 -0.020920554 -0.03668121 -0.008084254 -0.010567224 -0.013531937 -0.0106567275 0.03823329

encoder.5.bias f4 [12]
00000000: 21d0 11bd 7962 363c d6fc 10bd 338d b6bc
00000010: a018 f6bc 93f4 e1bc 7ed8 f3bc dca5 02bc
00000020: 9aa0 18bd e211 78bc 7939 e23c 9338 1cbc
-0.035598878 0.011131876 -0.035397373 -0.022284126 -0.030041039 -0.027582442 -0.029766317 -0.007974114
-0.037262537 -0.015140982 0.027615296 -0.009534973

decoder.0.weight f4 [1568, 12]
00000000: a933 24be b812 4fbd 11cd 80bc 4979 e0bd
00000010: fb3d 6f3d 6d7d 563d 3c24 383d 1ec2 43bd
00000020: 84f3 453c 17bd d8bd 42a4 14be ac53 dcbd
00000030: 2ed3 b93d fa0f 60bd a78c 8dbd 9087 4abe
00000040: 0ef8 aa3c ea7b 643d 071a 0abb bb51 333d
00000050: ee09 8d3d 0312 803d 91f4 8cbd 2f6e c83b
00000060: abbe 833d 9b1f 8f3c fa44 8bbd e8e1 32bd
00000070: 0710 f63d a3e0 28be 2843 11bc ee2b da3d
00000080: e519 c9bd 76d8 16be a07e 52bd e77c 4b3e
00000090: f7f7 68be 3465 5cbe 5dd7 f73c 33c5 35be
000000a0: a356 a13d ebbf 7c3e c999 763d 0b2f d2bd
000000b0: 8026 083e f195 2e3d 5922 cb3d 1944 aa3d
000000c0: 7061 b2bd 298f 003e b114 31be 52d2 2c3e
000000d0: 620a 2b3e f4ea 253e af2b 413d 07b3 313e
000000e0: 67b3 e73d 4610 6abd a580 063e 75b1 1abe
000000f0: a182 0abd e724 153d 509f 4f3e cfa7 613c
00000100: 434d adbd 1d00 3c3e 42bc 893e 3b4f 0c3e
00000110: 3ada dc3d 6067 66bd d632 2b3d e36e b3bd
00000120: 8d0e 773c e285 12bd 7d2e 60bc 9486 b3bd
00000130: 9ad4 84bd 5572 ac3d 76de cbbb 617f 01bd
00000140: 5a59 e83d 306c 23be 9550 4c3c 1031 013d
00000150: 92a7 0c3f 8464 a23e f4db 3d3f f0e1 733f
00000160: 3e17 733f 2188 f23f 8c44 df3e 3b04 dfbf
00000170: 771e 8a3f 0664 fcbf 87bb e6be 6697 b43f
00000180: 8a6c f63c 4779 c03c 039b bc3c 587d aabc
00000190: 89b4 ebbd 0b76 a43c 5000 683d 8966 a63d
000001a0: 4d9e 723d 8288 85bc ce74 02bd 693f 50bd
000001b0: 493c 093e ffe5 23bd 0fc8 06be e73a 43be
000001c0: bf71 153e b045 7ebd 4bae 193e 90a1 2f3e
000001d0: 9d49 8cbd 3308 62bd 717e a5be d3f4 88bd
000001e0: c1ee cfbd 49e7 9cbd dbd4 b63d d247 20bd
000001f0: 6344 4b3d c9ec 98bc 7fd8 1bbd 4600 8abd
00000200: e146 64ba e3ef 093e 3909 8a3d 2c9c fa3d
00000210: 572c 2e3f a6bc 693e a6bb 343f 1d06 7c3f
00000220: aa74 993f 41b0 0540 166a dd3e fd0c fcbf
00000230: 3ea0 923f d088 00c0 e38f dfbe 5404 d53f
00000240: f92b 083f d5b8 6c3e 1e35 193f 569a 453f
00000250: 2b83 4b3f 00d1 d83f 2f76 bf3e 6809 c8bf
00000260: 3938 7e3f 47f4 e7bf dae9 ccbe 2a18 a13f
00000270: 9c4d 333f 584c 733e 8fa8 463f 9853 833f
00000280: 89c9 a13f 05e4 ef3f 9897 ef3e f7c2 01c0
00000290: d34c 803f e2e5 f2bf 207f 0cbf 9a19 c03f
000002a0: 9f98 f4bd f086 e7bc 11b9 a5bd b57d 96bd
000002b0: b8ad bf3d 4485 213e 0541 01bd 88b4 2a3b
000002c0: 36fc c53d 6ca0 25be 73b5 b7bd 1fbf 413d
000002d0: 8e00 5c3d 98f1 07be 222f a7bc cbb6 13be
000002e0: e080 e8bd c2bb 32bd 5b3c 39bb d797 a3bd
000002f0: 9bc1 113e a2c4 8ebd abde 0a3d f682 30bd
00000300: 0874 3dbe f3ac 133e 0038 2f3e a95e e4bc
00000310: 93e9 b63d f5c0 eabc ee78 02be b66a d2be
00000320: 9e61 b2bc 0a48 0f3e a663 333e 3ff2 1abc
00000330: 6d6a 393f 20f8 783e 368a 563f 7e67 8c3f
00000340: 136d 963f dce6 0440 a1d1 073f 96ae f8bf
00000350: 35cf 953f 8f1b 02c0 afdc 00bf 2c0e c83f
00000360: 3093 f73d 0604 3f3e 2315 1fbd d372 57be
00000370: 0979 883d 94e9 b4bd 5cc8 8e3e cf0a b73c
00000380: 4f24 9dbe 67b8 793e bcac 2e3e aa5a 993e
00000390: 3623 3abe d8a4 243d a919 3cbd e177 9f3d
000003a0: 39f4 32be 099b 01be 4f4c cabd 87ab 393c
000003b0: 81e3 633e a2b8 af3d 9da7 8dbd e616 a3bd
000003c0: a98e 5d3e 9003 dd3b 670f 2f3d f77d 8dbc
000003d0: 0b85 543e 9342 20be bdbd 1f3e a4ea c13c
000003e0: e1bd e2bd d9ed dcbd 7c32 1dbe ec1f 8ebb
000003f0: 1c7d 45bd 7ee8 12bd b595 26bd b97b 0cbd
-0.16035332 -0.05055496 -0.015722783 -0.10960633 0.05840872 0.05236571 0.04495643 -0.047792546
0.012081984 -0.10582941 -0.14515784 -0.10758147 0.090734825 -0.054702736 -0.06911593 -0.19778275
0.020870235 0.055782236 -0.0021072642 0.043779116 0.068866596 0.062534355 -0.06882585 0.0061166505
0.064328514 0.017471125 -0.068002656 -0.043672472 0.12014776 -0.16491942 -0.008866109 0.1065291
-0.09819392 -0.14731011 -0.05139029 0.19871865 -0.22750841 -0.21522981 0.03025406 -0.17751007
0.07877853 0.24682586 0.060205255 -0.10262879 0.13295937 0.042623464 0.09918661 0.0831377
-0.08709991 0.12554611 -0.1729305 0.16877106 0.1670318 0.16202909 0.0471608 0.1735345
0.11313515 -0.057144426 0.13135011 -0.15106757 -0.033815984 0.036412146 0.20275617 0.013772919
-0.08462002 0.18359418 0.26901442 0.13702099 0.10783811 -0.05625093 0.041796528 -0.08761384
0.015079153 -0.03577221 -0.013682959 -0.08765903 -0.06485863 0.084202446 -0.006221588 -0.03161562
0.113451675 -0.15959239 0.012470384 0.03154093 0.5494319 0.31717312 0.74163747 0.9526663
0.9495734 1.8947793 0.43606985 -1.7423166 1.0790547 -1.9718025 -0.45064947 1.4108703
0.030081052 0.02349533 0.023023134 -0.020811722 -0.11509044 0.020075819 0.056640923 0.08125026
0.059233 -0.016300444 -0.031849675 -0.050841723 0.13401903 -0.040014263 -0.13162254 -0.19065438
0.14594172 -0.062078178 0.15007894 0.17151475 -0.06849978 -0.0551836 -0.3232303 -0.066873215
-0.101529606 -0.07661302 0.08927318 -0.039130993 0.049625766 -0.018667595 -0.038048264 -0.067383334
-0.00087080715 0.13470416 0.0674004 0.12236819 0.6803641 0.2282587 0.7059883 0.9844683
1.1988728 2.0888827 0.43245 -1.9691464 1.1455152 -2.0083504 -0.43664464 1.6641946
0.53192097 0.23117383 0.59846675 0.7718862 0.7949702 1.6938782 0.37394854 -1.562787
0.9930454 -1.8121423 -0.40022165 1.2585499 0.700403 0.23759592 0.7760095 1.0259886
1.2639629 1.8741461 0.46795344 -2.0275247 1.0023445 -1.8976405 -0.5488148 1.5007813
-0.11943173 -0.028262585 -0.08091939 -0.073481955 0.09359306 0.15773493 -0.031556148 0.0026047546
0.09667246 -0.16174477 -0.089701556 0.047301408 0.053711466 -0.13275754 -0.020408217 -0.14425199
-0.11352706 -0.04363609 -0.0028264734 -0.079879455 0.14234011 -0.069710985 0.03390376 -0.043093644
-0.18501294 0.14421444 0.17111206 -0.027877169 0.089312695 -0.028656462 -0.12741444 -0.4109704
-0.021775063 0.13992324 0.17518482 -0.00945717 0.7242802 0.24313402 0.83804643 1.0969083
1.1752037 2.0765905 0.53054243 -1.9428279 1.170386 -2.032932 -0.50336736 1.5629325
0.12088621 0.18653879 -0.038838517 -0.21039896 0.066637106 -0.08833614 0.27887237 0.022344021
-0.30691764 0.2438675 0.1705808 0.29951984 -0.18177494 0.04019627 -0.04592291 0.07786537
-0.17475976 -0.12656797 -0.09877836 0.011332399 0.22254755 0.08580138 -0.06916735 -0.07963352
0.21636452 0.0067448094 0.0427393 -0.017271979 0.20753877 -0.15650396 0.15599723 0.023671456
-0.11071373 -0.10787553 -0.1535129 -0.0043373015 -0.048215017 -0.035866253 -0.040670116 -0.03429768

decoder.0.bias f4 [1568]
00000000: 3697 30be 8aed 723e 8f36 36bc c09c 52be
00000010: 11ea 08bd 25a1 ee3c b7e5 42bd e34c 34bd
00000020: 26e7 153d f9a8 2d3d 964e ddb8 882f 6fbe
00000030: 443c 3c3e 4232 61be 78ed 5b3e 8f9a ff3c
00000040: fae8 c4be 38cc a0be f1dc 31be 13e3 3b3e
00000050: 554e ddbd 122a 8abe ca7f 593e eb5f b0bc
00000060: 81dc 123c 8c19 85be 9369 2c3e fefd 6fbe
00000070: ba44 193e bf2f f13e 8637 77be 4e14 27bb
00000080: 7d63 02bf fb03 a5ba c0f5 15be 35f8 853d
00000090: 545b 513d 6342 cdbe f260 1dbe e183 85be
000000a0: f761 8bbb 9264 d9bb f4ad 593e bf1a 92be
000000b0: c67a 523d ac3a 7a3e b4c0 a93e fd25 8bbd
000000c0: d662 8dbe 7721 d93e 1be4 a1bd 087b 373e
000000d0: 53da d5bc 0a1b 61bd f049 70bc 4078 d03e
000000e0: 08d5 94bd 9953 a73e 4fc3 b73d f595 af3e
000000f0: 09db e6bd cbc5 3d3e 3f1f 4cbe edc1 c33e
00000100: 92b9 8b3d e2bc f1bd d951 10be e1d5 01be
00000110: c151 203e c8b6 c7be e06a dc3d 8cdd 1a3d
00000120: 66ba e2bc bf90 76be f1f8 043e c476 89be
00000130: 87b6 32be 7a7f 623e 3048 b8be 3ee6 6a3e
00000140: 2f6d 17bc 2651 3bbe 0d93 8fbe 9035 c83d
00000150: 99f5 493e 2f37 14be 6057 213e 36ac 60bd
00000160: 24cd 45be 4396 3b3c 9554 2dbe f014 833e
00000170: 1e95 dbbc b7ec 17bd 8f00 97be e352 64be
00000180: 3784 363e f84c e23d 5c82 88be 9ec5 e23d
00000190: b61b d6bd 70b4 85be 6635 8ebc b99b 1cbc
000001a0: fe11 8bbe b07f 693e ce52 13be 0bb4 2ebe
000001b0: 1321 8fbe d8b7 943e d435 7b3e 19ca 963d
000001c0: 0961 2d3d fe74 99be c8a1 e73e e2ad 2b3d
000001d0: ad85 8e3e f3c0 e2be 4b1d 533e 8d44 3c3e
000001e0: 788e 523d 04a0 993b ed61 b63d 46fb 663e
000001f0: 99d6 863e 0ebd ea3e c88e 82be bcb2 86be
00000200: 5e72 0f3e 5354 8dbd fae8 9c3d 4e3d e8bd
00000210: cc16 6b3e d7dc 0b3e b808 8a3e c22a 473d
00000220: 2b0e 31be c4a6 7d3e 86c6 b33d 691b eb3e
00000230: b8b6 a2be 3590 03be 3b31 fabd d29b 8cbe
00000240: 3a65 763e efe9 f7bd 57c6 643e b16a 8cbe
00000250: c4d9 a23e b93c 01be 9fc9 52bd 1b07 263d
00000260: b799 0abe 806f 323d 7078 843c 5847 57bc
00000270: 271e f0bd b15d c73d 7560 a1bd 9973 013d
00000280: 815a 02be 9276 be3c f1f9 8a3c 9e17 033c
00000290: bf3f 76be d4f5 d23d ffd7 1fbe e502 dcbd
000002a0: 7169 2d3e 11d1 30be 8e25 79be 0902 12be
000002b0: 68c1 9d3e 8f5b 22bc 87b9 49be f7a1 3b3e
000002c0: 8b66 b6be 50b3 87bd 3536 273e da19 77be
000002d0: 0431 0a3e 761d 0bbe fadf 4f3d 686a ae3d
000002e0: 3920 723e e9b3 3fbd f1cf 72bd d357 9c3d
000002f0: d105 80be ac70 f43d 091e 393e 7631 f9bd
00000300: b18e 0fbe ac83 4abe 7ae1 9bbd 5c9d 5e3e
00000310: 713c b03e a41f b93e b0e1 d93d 1232 d03d
00000320: 4d40 02be 7fb4 d3bc c8be 803e e5ec 913e
00000330: 9dfb 3b3e e0b4 b6bc c9b1 083e ee80 8ebd
00000340: 98c2 ee3d 18f0 ac3d 3af7 9b3d 672f 1e3e
00000350: 08a9 27be 3e92 90be 52d2 97bd 8cf6 ebbc
00000360: cb19 0cbe 196c 413e 558a 103d ecff 893d
00000370: 4cb7 9cbe 0507 87be 1a66 6f3e 1f1b 37bd
00000380: c748 c93a e0cc fabd dab2 42be 6190 1abe
00000390: 8c2a e9bd 8210 f83d 6fb1 003e 9cff b93d
000003a0: 4729 343e 1a2b ae3c 0917 5d3e 3786 5bbe
000003b0: ec4b 3bbe 71c1 eabd 38e9 3b3e b904 3f3e
000003c0: 6deb 4ebe e24b 01be 8ae9 39be e08c 363d
000003d0: ab96 85bd be16 833e 91d7 42be 4de7 e23d
000003e0: 856a 44be a0b9 e43e 9dbe 3a3e 66f0 b43e
000003f0: cb53 223e 73ea c53e 5e9d 9c3b 6357 623e
-0.17245182 0.23723426 -0.011121406 -0.20567608 -0.033426348 0.029129574 -0.047582354 -0.044018637
0.036597393 0.042397473 -0.00010552739 -0.23357975 0.18382365 -0.21991828 0.21477306 0.031201629
-0.38458997 -0.31405807 -0.17369439 0.1834834 -0.10805956 -0.26985222 0.21240154 -0.021530112
0.008963705 -0.25996053 0.16837148 -0.23436734 0.14967623 0.4710674 -0.24142274 -0.002549428
-0.5093306 -0.0012589687 -0.14644527 0.06541482 0.051112488 -0.40089712 -0.15369013 -0.26077178
-0.0042536217 -0.0066343034 0.21257764 -0.2853603 0.051386617 0.24436444 0.33154833 -0.06794355
-0.27614468 0.42408344 -0.07904836 0.17918026 -0.026105082 -0.054957427 -0.014666066 0.40716743
-0.07267195 0.32680967 0.08972799 0.34294096 -0.112722464 0.18532483 -0.19933794 0.3823389
0.06822504 -0.11803605 -0.14093722 -0.12679245 0.15656187 -0.3900664 0.10762572 0.03780894
-0.027676772 -0.24078654 0.12985589 -0.26848423 -0.17452441 0.22118941 -0.35992575 0.22939393
-0.00924234 -0.18292674 -0.28041878 0.09775841 0.19722594 -0.14474176 0.15755987 -0.054851733
-0.19316536 0.011449399 -0.16926797 0.25601912 -0.026804503 -0.037090983 -0.29492614 -0.22297244
0.17823873 0.11049837 -0.26661956 0.11072849 -0.10454504 -0.26114225 -0.017359447 -0.009558612
-0.27162164 0.22802615 -0.14387056 -0.17060868 -0.2795492 0.29046512 0.24532253 0.07362766
0.042328868 -0.2997207 0.45240617 0.041913874 0.27836362 -0.44287834 0.20616643 0.18385525
0.0514054 0.004688265 0.089053966 0.2255679 0.263356 0.45847362 -0.25499558 -0.26308239
0.14008471 -0.06900849 0.07661624 -0.11339818 0.22957915 0.13658462 0.26959777 0.04862476
-0.17290561 0.24770647 0.087781 0.4591935 -0.31780028 -0.1284798 -0.12216421 -0.2746263
0.24062052 -0.12105166 0.22341286 -0.2742515 0.31806767 -0.1262082 -0.051461812 0.04053412
-0.135352 0.043563366 0.01617071 -0.013139568 -0.11724501 0.09734667 -0.07879726 0.031604383
-0.12729837 0.023249898 0.016964884 0.008001236 -0.24047755 0.10300794 -0.1560974 -0.107427396
0.16934754 -0.17267253 -0.24330732 -0.14258589 0.3081162 -0.009909525 -0.1969968 0.18323503
-0.3562511 -0.06625998 0.16329272 -0.24130955 0.1349526 -0.13585457 0.05075071 0.08516389
0.23645104 -0.046802435 -0.05928034 0.07633939 -0.25004438 0.11935553 0.18077864 -0.12167637
-0.14019276 -0.19776791 -0.076113656 0.21739715 0.34421113 0.36156952 0.106387496 0.101658
-0.12719841 -0.025842903 0.25145555 0.2850105 0.18357702 -0.022303045 0.1334907 -0.06958185
0.116582096 0.08444232 0.07615514 0.1544777 -0.16373074 -0.28236574 -0.07413162 -0.028804086
-0.13681714 0.18888892 0.035288174 0.06738266 -0.30608594 -0.26372543 0.23378792 -0.0447036
0.0015356772 -0.12246108 -0.19013539 -0.15094139 -0.11385068 0.121125236 0.12567686 0.09081957
0.17593871 0.021260787 0.21590818 -0.21437918 -0.1829068 -0.11462677 0.18350685 0.18654145
-0.20206995 -0.12626603 -0.18155494 0.044567943 -0.06522878 0.25603288 -0.19027545 0.110792734
-0.19181259 0.4467287 0.18236776 0.3533966 0.15852277 0.38655433 0.004779502 0.22103648

decoder.3.weight f4 [32, 16, 3, 3]
00000000: 77b1 213d bb0d efbd 6aed f8bb 92e9 1f3e
00000010: 9059 7f3d ae6f 8cbd 7b2c 7dbd fff8 ec3d
00000020: 7320 cabc 2c51 fcb7 f10c 653d 3e1b 97bd
00000030: 56d9 a53d ccd8 2bbc b728 3fbe 4775 48bd
00000040: 9971 853d adad 0bbd 8919 393b ea93 cf3a
00000050: d6d8 97bc 7208 acbd dc25 33be c11d fc3d
00000060: 53b5 2abc 0de8 77bd bf09 90bc 5e98 59bd
00000070: a892 4dbe 80e1 1b3d 355b f93c 8107 d4bc
00000080: f209 2fbd 441b 08bd 1bdf a1be d9f1 9d3d
00000090: 023e 1a3e 1232 3b3d f252 803c 2aaf 16bd
000000a0: c907 f63c 5087 043d d734 31bd 7f2d 503d
000000b0: 432a 263e db6e fd3c e703 24bc 46c5 31bd
000000c0: 0928 eabc 6f4b 5e3d 84cb 11ba 7a94 eebc
000000d0: 78e2 de3c f76b d7bc 41c9 27bd 4ac7 eebc
000000e0: 1709 f6ba e9ed c7bc 0943 0ebe 4796 92bb
000000f0: 9b97 12bd 7020 efbd 0435 83bd 8514 0d3c
00000100: eb67 fcbd d6ab 89bc 0f3c 21be a97b 713c
00000110: 75a6 b33c c20a 0ebd d378 dbbc 73ca c5bd
00000120: 0cb7 0cba 0acf 2dbd a41b f4bc f41f edbd
00000130: 9950 40bd 35c5 c9bd bbb9 16bd 398b af3d
00000140: e015 62bd 7714 1e3a c7a4 32bd ef54 0cbd
00000150: 86c0 96bd 7705 99bd 9d0b e0bd fee7 f4bc
00000160: 507b abbd a7d9 783c 3dde c8bc 9d8c 103b
00000170: 93bd ee3c e886 563d d513 6d3d 8445 9a3c
00000180: 15de c23c 88ec 383d fa7b 2dbc 2e1d fdbc
00000190: db05 67b9 86a1 bb3d 88d5 d1bd 9bc8 043d
000001a0: beac f93d 866e bbbd aef0 d1bc 409e 6e3d
000001b0: d35a 2e3d a0f3 17bc 0808 b3bd 17f8 a2bb
000001c0: be97 513d ec8a 793b 1019 003a 428e 0c3b
000001d0: 6387 38bd d448 b13d 2986 f53d 081e 1ebc
000001e0: c7a9 5ebc e9f3 3b3d d119 c3bc 1074 8e3d
000001f0: b6cd 303e 3095 cf3d c142 48bd 0ff9 533b
00000200: 789d 00bd d9a5 84bc d800 97bd 00a1 e5bb
00000210: fdd6 7fbc ad2d f0bc 09b7 e63c ae52 7f3c
00000220: dddd cc3b e264 1b3e b3b5 3d3c 207b 8abd
00000230: 71b4 0bbd 3837 10bd 2dca 4f3e bedc fa3d
00000240: ae2a 863b f572 08bc 3630 15bd 458a 9cbd
00000250: da33 ac3c 47be f6bd 24b4 86bb 3ea0 10be
00000260: 39ee 8c3c 9721 ca3c efae b0bd be2d 43bd
00000270: e259 a6bc 2300 d9bc d5b7 12be 0130 e33c
00000280: b589 023c 5421 08bb 85ba 40bd 5b15 ecbb
00000290: d03e 8ebc fcd2 5ebe 5eea 98be 03dc 273d
000002a0: de89 f73c e074 1cbd 07a6 afbc f750 c1bd
000002b0: fd44 c6bd b3fd c9bd 193d d83d bdd0 23be
000002c0: 2176 c9bd 5eaf dbbd 5f6e 5dbe 0976 69bd
000002d0: 0c3a 5e3d 7d24 2b3d 991a 26bd b506 b0bd
000002e0: 0b01 33be 58e8 5a3d 2396 e9bd 6174 93bd
000002f0: 514f 84bd a561 833d 06cd 603d b3eb 073d
00000300: e63e a63c efad 1e3d 7e10 2f3d de61 143d
00000310: 252a 823d 746f 133d 2e96 523c 1b96 bc3c
00000320: b391 ccbc 4747 bebd 8761 06be aea7 44bd
00000330: df7e 0dbc ff77 6fbd 3e39 edbc 0c3c aabc
00000340: 0c0b 0bbd b649 2cbd 7860 d0bd 4cea e7bc
00000350: e86b c43d 02d1 0cbd 4206 88bd 6662 1dbd
00000360: b5b8 74bc 27d2 0abd 759b 90bb 0ed4 e6bd
00000370: 67f5 4dbd 1c6b 0c3d 7c4b 54bc af6b e1bd
00000380: 2229 ee3a 6841 c3bb f1f0 25bc f3d4 26bd
00000390: 6320 22bd 2b01 71be ac63 bdbc add9 e63b
000003a0: 8af8 80be 41d1 20bd e695 66bd deb9 f1bc
000003b0: cd21 0d3d 1f77 e63b b68f 7e3d 4f0f a13c
000003c0: dd38 a4bc 6b20 643d f46b ee3c 31d8 67bb
000003d0: ecd1 c2bd ee93 18bb 45f0 39be ab4a adbb
000003e0: 3236 3ebe 72fe 72bd 70ab 30be 94d2 b2bd
000003f0: 73fa a73d 3631 a23d 2689 3b3d a8ce fe3b
0.039475884 -0.11672541 -0.0075966613 0.15616444 0.062341273 -0.06857239 -0.061809998 0.1157093
-0.024673676 -3.007854e-05 0.055920545 -0.07378243 0.08098094 -0.0104887 -0.18667875 -0.04893997
0.06515808 -0.034101177 0.002824398 0.0015836929 -0.018536013 -0.08400048 -0.17494911 0.123103626
-0.010419208 -0.060524035 -0.017582772 -0.053123824 -0.20075476 0.03805685 0.030438999 -0.025882484
-0.042734094 -0.033229128 -0.31615528 0.077121444 0.15062717 0.045702048 0.015664551 -0.036788143
0.03003301 0.032355607 -0.043263283 0.05082464 0.16227059 0.03093665 -0.010010696 -0.043401025
-0.028583543 0.054271158 -0.0005561637 -0.029123534 0.027207598 -0.026296599 -0.040963415 -0.029147763
-0.001877102 -0.024405437 -0.1389276 -0.004473481 -0.035789113 -0.11676109 -0.06406596 0.008610849
-0.12324508 -0.01680557 -0.15745567 0.014738956 0.021929959 -0.03467823 -0.026791012 -0.09657755
-0.0005367852 -0.042433776 -0.029798336 -0.1157836 -0.046951864 -0.098520674 -0.03679822 0.085714765
-0.055196643 0.0006030271 -0.043614175 -0.034260686 -0.0736094 -0.074717455 -0.10939715 -0.029895779
-0.08373129 0.015188611 -0.024520034 0.0022056468 0.02914313 0.05237475 0.05788024 0.018831976
0.023787538 0.04514745 -0.01058864 -0.030897703 -0.00022032058 0.091616675 -0.10245806 0.032417875
0.12191151 -0.0915194 -0.02562746 0.058256388 0.042567085 -0.009274393 -0.08741766 -0.0049734223
0.051170103 0.0038077189 0.0004886547 0.0021447097 -0.04505099 0.08656469 0.1198848 -0.009650715
-0.013590283 0.045886908 -0.023816021 0.06955731 0.17265972 0.10135877 -0.048891786 0.0032344495
-0.031400174 -0.016192364 -0.07373208 -0.007007718 -0.015615222 -0.029318655 0.02816345 0.015583677
0.006252034 0.15175202 0.011578965 -0.067617655 -0.03410763 -0.03520891 0.20291968 0.122491345
0.0040944433 -0.008328189 -0.03642293 -0.0764356 0.021020819 -0.12048011 -0.00411083 -0.14123628
0.017203437 0.02467422 -0.08627116 -0.047651045 -0.020306531 -0.026489323 -0.14327939 0.027732851
0.007967402 -0.0020771818 -0.04705288 -0.007204694 -0.017363936 -0.21760172 -0.29866308 0.040981304
0.030217107 -0.0381974 -0.021441473 -0.09439271 -0.09681127 -0.098628424 0.105585285 -0.15997596
-0.098369844 -0.10726808 -0.21624134 -0.056997333 0.054254577 0.041782845 -0.04055271 -0.08595029
-0.17480867 0.053444237 -0.114055894 -0.07199932 -0.06460441 0.064151086 0.054883026 0.033183765
0.020293664 0.038740095 0.042740338 0.036226146 0.06355695 0.03599496 0.012853188 0.023020795
-0.024971819 -0.09290939 -0.13123141 -0.048011474 -0.008636205 -0.058464047 -0.02895796 -0.020780586
-0.033946082 -0.042062484 -0.1017465 -0.028309964 0.09590894 -0.034379013 -0.066418186 -0.03842392
-0.014936616 -0.033891823 -0.004413063 -0.11270915 -0.050282862 0.034281835 -0.01295745 -0.11006867
0.0018170218 -0.0059587248 -0.010128246 -0.040730428 -0.039581668 -0.23535602 -0.023118816 0.007044992
-0.2518962 -0.03926206 -0.056295298 -0.029507574 0.034456063 0.0070332433 0.062148772 0.01966062
-0.020046646 0.05569498 0.02910421 -0.0035376663 -0.09512696 -0.0023281532 -0.18158062 -0.005288442
-0.18575361 -0.05932469 -0.17252898 -0.08731571 0.08202066 0.079195425 0.04578509 0.0077761

decoder.3.bias f4 [16]
00000000: 1739 97be aa90 b5bd ab3a 2dbd a1f3 91bb
00000010: 677b 3d3e 735d 5b3c 9c5d 803e 7f52 0c3d
00000020: a71f 843d fbff 703d ac00 b53e 46ce 3b3e
00000030: 52ab 753e 21fe 0e3e 544c 653d 9ca7 103e
-0.29535744 -0.08865483 -0.04229228 -0.0044540917 0.18504106 0.013388979 0.25071418 0.034258362
0.0645135 0.058837872 0.35352075 0.18340406 0.23991135 0.1396413 0.055980995 0.14126438

decoder.5.weight f4 [16, 1, 3, 3]
00000000: 8b4b 733e 18ca a23e a998 813e 28ff c83e
00000010: 7142 0c3f 8b41 d43e 480b a23e dae7 be3e
00000020: 55a2 8d3e a50e d9be df0a 08bf a909 a0be
00000030: 62cc e6be f2f7 bdbe f617 1dbe d115 06be
00000040: cd50 963d 5f77 263e 359f a1be 19ae d3be
00000050: b243 20be b5c0 11bf 3e59 19bf e939 e4bd
00000060: 2425 b1be a834 84be 6769 8c3d fb12 42be
00000070: 0a2b b4be a7e3 93be c616 7dbe d22e dfbe
00000080: e378 99be 3ea9 13be c4ae 62be abaf 05be
00000090: f61b 14be aba7 bc3d 7941 523e b56c 823d
000000a0: 000b 0b3f 3a98 113f fd40 283e ed9b 133f
000000b0: 4ba8 f03e 4769 39be a786 14be 59c3 173d
000000c0: 4c12 483c 750b 60be 48d3 c53d a1f5 eb3c
000000d0: 4e9a ef3d 2eaa 433e 9479 d9bd b39a 14be
000000e0: cec9 0cbe e7dd e8bd 0111 97be c39b 59be
000000f0: 5e68 a8bd 066e 2fbe d2c0 ebbd b6e8 14be
00000100: 1345 033e 6f7b ae3e 0c62 88bd 5ee4 c73e
00000110: 7131 063f ff8d 033d 27f3 ac3e 84cb ba3e
00000120: edf4 96be 9d70 32bc ad26 e73e fefd 60be
00000130: c086 853e f0aa 213f 0eba 06be 50b7 e03d
00000140: be60 903e 4add fc3e 169c 213f 52ea 7b3e
00000150: 2e7e 133f 0995 303f 988d d33c 8508 5f3e
00000160: 4511 af3d be6b 57be b002 99bc e0a4 033d
00000170: dc33 013d 32f1 83bd cc2f 92be ed41 6bbe
00000180: dcf3 98bd 343c 70be ff2e 41be d3c4 913e
00000190: 8ae3 f33e 5292 863e 96a0 0b3f 827f 463f
000001a0: c031 b73e cdb2 953e 4726 b63e 3cfb bc3d
000001b0: 68c4 0a3e 0d7b 933d 04c0 41bd 84b5 23bd
000001c0: 2517 2abd 94a5 6ebe 6824 89bd 7aad 95be
000001d0: b475 95be 94ea 1f3d 35fe c9bd 157d 8dbe
000001e0: 7afb 403b 3691 42be 1e31 f9be 2236 39bb
000001f0: 9913 60be 4794 cebe 0ad9 d2bd ccb0 d33d
00000200: 2f4f 003e d2db 3e3e 2be0 b93e bcac 243e
00000210: 31c1 36be c8e8 e8bc fdfc 15be 4660 82be
00000220: c00a aabe fc2f e7bd 7ba4 d2be a973 b1be
00000230: 6566 85bd c205 4abe 6093 b3bd 1745 7c3d
0.23759286 0.3179481 0.25311783 0.3925717 0.5478888 0.41456255 0.31649232 0.37286264
0.27662912 -0.42393985 -0.5314159 -0.3125737 -0.45077807 -0.3710323 -0.15341172 -0.1309426
0.0733963 0.16256474 -0.31566778 -0.41343763 -0.15650824 -0.5693467 -0.599018 -0.11143858
-0.3459865 -0.25821424 0.068560414 -0.18952553 -0.35189086 -0.28884622 -0.24715719 -0.4359041
-0.29975042 -0.1442003 -0.2213698 -0.13055293 -0.14463791 0.092116676 0.20532788 0.063683905
0.5431366 0.56872904 0.16431041 0.576598 0.47003397 -0.18106566 -0.14504491 0.037051532
0.012211394 -0.2187937 0.09659439 0.028803648 0.11699353 0.19107887 -0.10618892 -0.14512138
-0.13748857 -0.113704495 -0.2950516 -0.21250825 -0.082230315 -0.17131814 -0.11511387 -0.14541897
0.12819318 0.34078547 -0.06659326 0.39041418 0.5241919 0.03211784 0.3377926 0.36483395
-0.2948374 -0.010891107 0.45146695 -0.2197189 0.2607937 0.63151455 -0.13156912 0.10972464
0.28198808 0.4938758 0.63128793 0.24601105 0.5761441 0.6897741 0.025824353 0.21780594
0.08548216 -0.21037194 -0.01867804 0.03213966 0.031543598 -0.06442489 -0.2855209 -0.22974367
-0.074683875 -0.23460466 -0.18865584 0.28470477 0.47634536 0.2628351 0.5454191 0.7753831
0.35780144 0.29237977 0.35576078 0.09227607 0.13551486 0.072012044 -0.04730226 -0.03996803
-0.04152598 -0.2330535 -0.06696397 -0.29233915 -0.29191363 0.03904207 -0.09862939 -0.27634493
0.0029446767 -0.19000706 -0.48670286 -0.0028261025 -0.21882476 -0.40347502 -0.10295303 0.10336456
0.12530206 0.18638542 0.3630384 0.16081518 -0.17847134 -0.028431311 -0.14647289 -0.25464076
-0.33211327 -0.11288449 -0.41141114 -0.34658554 -0.06513671 -0.19728759 -0.08768344 0.061589327
