models/model_b2.pt (torch, 199311 bytes, 11 tensors)

encoder.0.weight f4 [16, 1, 3, 3]
000000 f0 10 16 bd e8 b4 37 3d 68 83 af bd a7 d3 65 3e
       -0.036637247 0.04485026 -0.08569986 0.2244402
000010 95 00 be 3e bd 34 aa 3e 22 76 c4 bd 2c 2d a1 3e
       0.3710982 0.3324336 -0.095928445 0.31479776
000020 78 c7 bd 3e c0 98 7f be d3 7f e7 be e3 b7 df bd
       0.37066245 -0.24960613 -0.4521471 -0.109237455
000030 b0 a3 75 3e cc ac b9 3e e3 aa 79 3e b1 fb 33 be
       0.23988223 0.36264646 0.24381594 -0.17576481
000040 fc 50 8f 3e a3 24 49 be 2d ec 07 be 8b e8 95 be
       0.27991474 -0.19642882 -0.13273688 -0.2927898
000050 82 7e b3 be 77 f5 b0 3d 75 ea 2c 3e f5 fd f6 3d
       -0.35057455 0.08640569 0.16886313 0.12060157
000060 1f 13 83 bb bd 52 31 3e ec ef 97 3d 9d 2c 82 be
       -0.004000082 0.17316718 0.07418808 -0.25424662
000070 d1 1a 20 3d 68 1b 6c 3d 2e 4a fc be 70 f1 85 3d
       0.039088074 0.057643324 -0.49275345 0.06540191
000080 7a c5 81 3e 16 01 88 be 15 11 dc 3e 00 cc 05 3e
       0.25345975 -0.26563329 0.42981783 0.13066101
000090 ac 4a 3c bd 58 15 fc 3b e9 0c 91 bd 9e bf dc bd
       -0.04596965 0.007692974 -0.070825405 -0.107787356
0000a0 d3 d8 b3 be 40 ad 68 3d 4e 14 b4 bb 48 90 d6 bd
       -0.3512636 0.05680585 -0.0054955846 -0.10476738
0000b0 df 99 23 be e1 86 6f be ff 20 88 bd 23 e8 46 3d
       -0.15976666 -0.23391296 -0.066469185 0.048561227
0000c0 d4 1d 11 be 7e 5c 24 be 31 0c b0 3d 43 b2 25 bd
       -0.14171535 -0.16050908 0.08596075 -0.040453207
0000d0 51 17 38 3e 72 24 b8 bd 71 2a 50 3d 1f b4 1b be
       0.17977645 -0.089913264 0.050821725 -0.1520543
0000e0 aa ab dd be 33 39 c9 3d 92 d1 71 bd a3 cb 29 bd
       -0.43295032 0.09825363 -0.059037752 -0.04145397
0000f0 6a 07 e7 3e 84 c4 4c 3e cd cd 9e be 05 d7 2c be
       0.45122844 0.1999684 -0.3101639 -0.16878898
000100 82 b7 01 3d ad 33 71 be 98 86 05 be a3 f7 10 be
       0.031669147 -0.23554869 -0.13039625 -0.14156966
000110 0b 3f 16 be 24 f5 9e 3e 31 a0 7b 3e 27 c6 e9 bd
       -0.14672486 0.31046402 0.24572827 -0.11414748
000120 56 de 81 3e a2 20 aa bd 31 c0 e1 bd f7 78 a9 3e
       0.2536494 -0.083070055 -0.11022986 0.331001
000130 e4 0b 2a be 12 07 88 be bd 04 69 3e 74 c0 22 3d
       -0.16606098 -0.26567894 0.22755714 0.03973432
000140 30 ec 78 3d 3b ba e6 3e 7c c8 0f 3e 0b d5 4a 3e
       0.06077212 0.45063958 0.14041322 0.19807832
000150 74 cf fb 3d 30 7c 12 be 5a 61 61 bd 99 fa 87 3d
       0.12295428 -0.14305186 -0.055024482 0.066395946
000160 60 97 c7 be 49 fb 99 be 7f 18 50 3d 3a b6 9b 3e
       -0.38982677 -0.30074528 0.05080461 0.30412465
000170 1f a2 1b be 67 32 c5 3d c0 2d e9 3e 21 71 57 bc
       -0.15198563 0.09628754 0.45542717 -0.013149531
000180 9f 8a 09 3e ff c3 60 3e 1d d0 f6 be c6 cb 4c 3c
       0.13431786 0.21949767 -0.48205653 0.012499755
000190 16 ad 1c 3e f5 dc 14 be 65 3c 32 3e 5a b7 a4 be
       0.15300402 -0.14537413 0.17405851 -0.32171136
0001a0 5a 3f 66 3e a8 6a b3 be c8 84 f5 3c a5 bd c9 3e
       0.22485104 -0.3504231 0.029970542 0.394025
0001b0 30 6e 0b be f2 13 e5 bd 78 77 06 3e d2 a1 7f bd
       -0.13616252 -0.11185445 0.13131511 -0.062410183
0001c0 f1 81 9e bd 40 a1 63 3e fb 03 9c 3d cf 35 c7 bd
       -0.07739628 0.2222948 0.07617947 -0.0972706
0001d0 4b 0f b0 3e 9e 64 99 be d3 d2 a2 be dd 25 45 be
       0.34386668 -0.29959577 -0.3180147 -0.19252725
0001e0 32 6a 03 be 61 c3 6c 3e fc ae 62 3e c4 a5 cf bd
       -0.12833479 0.23121406 0.22137064 -0.10139039
0001f0 22 da 1e 3e 0c 55 22 3e a7 3f 8f be 4f ad 25 bc
       0.15512899 0.15852755 -0.2797825 -0.010112121
000200 cb 08 0f be 1a 4d 32 bb d9 6d c1 be 12 c5 6b be
       -0.13968198 -0.00272066 -0.3777912 -0.23024395
000210 eb b4 33 3e cb cf c4 3e 2b 8b 8e 3e 6b b3 79 3c
       0.17549483 0.38439783 0.27840552 0.0152405305
000220 1c ee 8f 3d 6c 59 45 3e 12 e0 d1 3d 20 98 8e 3e
       0.07027838 0.19272393 0.10247816 0.27850437
000230 e9 2f 8c 3e 18 b3 fb be 54 9f 7a bd ed 77 a2 be
       0.27380303 -0.49160075 -0.061187103 -0.3173212

encoder.0.bias f4 [16]
000000 bf 77 5e 3e c6 6f 90 bd b8 7b 10 be 82 df da bc
       0.21725367 -0.07052569 -0.14109695 -0.026717905
000010 72 29 2d 3e a6 a8 7d 3e 0b 3b 54 be f7 5b 43 3e
       0.16910341 0.24771366 -0.20725648 0.1907805
000020 f1 4f 8f 3e 0e bf 13 3e 56 bf c5 3e 8a b5 27 3e
       0.27990678 0.1442835 0.3862254 0.16377845
000030 a4 f0 a1 3e 4e 7b 3e 3d bc e5 58 be 38 6e 41 3d
       0.31628907 0.04650431 -0.21181387 0.047224253

encoder.2.weight f4 [32, 16, 3, 3]
000000 92 a2 9f bd 6b 91 4d bd c7 4d 68 bb c3 df 24 bd
       -0.0779468 -0.05018751 -0.003544675 -0.04025246
000010 ce fd b6 bd 7d 17 d0 bd 55 3c 08 bd df 64 46 be
       -0.08935128 -0.1016073 -0.033260662 -0.19374417
000020 aa 28 b4 be c4 de cb bd 98 6d a5 3d 2c b2 57 3d
       -0.35187274 -0.099545985 0.08077544 0.052660152
000030 2d 66 23 3e d6 63 64 3e 91 34 86 3d cd ac 45 3e
       0.15956946 0.2230371 0.06552995 0.193042
000040 63 2f 8c 3e ae e5 25 be a4 a1 e4 3c 94 96 b1 3c
       0.27379903 -0.16200897 0.027909108 0.021678247
000050 17 91 42 3d 24 ab 59 3d 22 70 f3 3d 7a b1 8a bc
       0.04750165 0.053141728 0.11886622 -0.01693033
000060 b3 57 59 3d a4 ec 37 be b5 b5 ad be 18 26 66 bd
       0.053062152 -0.17961365 -0.33927694 -0.056188673
000070 39 2c 08 3e d3 3d e7 3d 88 f8 57 3d 3b af 2e 3e
       0.1329812 0.11291089 0.052727252 0.17059033
000080 d3 ed 42 be e3 a5 18 3d 20 95 f7 3d 2b 2f aa be
       -0.19036035 0.037267577 0.1208899 -0.3323911
000090 e6 9a 11 3d 33 2f 77 3b 89 c0 6d bd 52 8c b0 bc
       0.035548113 0.0037717342 -0.058044944 -0.021551285
0000a0 2c bd 23 be 86 fe 9d 3d 4c 10 06 bc e2 84 43 3d
       -0.15990132 0.07714562 -0.008182596 0.04773415
0000b0 c8 19 cd 3c 0d e0 09 3e 7f cb 53 3d 30 d7 79 bd
       0.025036708 0.13464375 0.05170774 -0.060996234
0000c0 89 d9 7a bc e2 96 a7 bd e6 72 ed bd 27 53 25 3d
       -0.0153106535 -0.081830755 -0.11594181 0.040362503
0000d0 f0 e1 6d bc 69 b7 66 bd 3c cd ee bb 22 02 41 bd
       -0.0145192 -0.056327257 -0.0072876494 -0.047121175
0000e0 df 26 17 bd 6b 13 87 3d f9 35 01 3e dc 2d cc bc
       -0.036902305 0.065955006 0.12618245 -0.024924211
0000f0 12 6c 35 be c0 2a 02 3d 22 e9 0f bd bc 17 06 3e
       -0.17717007 0.03177905 -0.035134442 0.13094991
000100 eb d4 70 3d 64 c2 e4 3c 48 a6 6c 3a d3 38 0a be
       0.058796804 0.027924724 0.00090274634 -0.13498239
000110 e3 7e b7 3c 0f c8 73 bc 29 37 01 bd 4d 41 0c 3d
       0.022399371 -0.014879241 -0.031546745 0.034241963
000120 09 96 30 be e7 ac 93 bd 61 3a d8 bc 3e 50 dd bd
       -0.17244734 -0.07210713 -0.026395025 -0.108063206
000130 af 90 8b 3d aa 5a 94 bc 0d 1d 81 3d d1 89 d2 3c
       0.068147056 -0.018109638 0.06304369 0.025700482
000140 07 7f 14 be d6 67 0c bf 8c 21 ba bd 7f 41 0b 3d
       -0.14501582 -0.5484594 -0.0908843 0.03399801
000150 b0 5a 0b be 97 c8 a1 3d 8b 32 82 3d f9 61 1b 3e
       -0.13608813 0.078995876 0.063572966 0.15174092
000160 62 9f 65 3e 38 26 ee 3d 16 53 6c be f8 1c 50 3e
       0.22424081 0.116283834 -0.2307857 0.2032355
000170 af a7 86 bb e0 17 06 3e 53 89 5f 3e fd fa bb bd
       -0.004109345 0.13095045 0.21829729 -0.091787316
000180 6c ab cb 3d 6f 4c 78 bc c4 79 a6 be 3c 3d 6e bc
       0.099448055 -0.015154942 -0.32514775 -0.014540967
000190 2d 43 39 bc 75 54 80 bd f0 3f 80 bd 62 90 19 3e
       -0.01130752 -0.06266109 -0.06262195 0.14996484
0001a0 24 d8 53 be 10 2e ea 3d ce 51 48 be 70 7e 82 be
       -0.2068792 0.11434567 -0.19562456 -0.2548709
0001b0 36 c8 b0 3d 82 28 29 3c 1c 05 df bd e5 60 21 3d
       0.08631937 0.010324599 -0.108896464 0.039399046
0001c0 d9 e5 f1 bc be ad 39 be 06 bb 8b 3d 96 74 d8 bd
       -0.029528545 -0.18132684 0.06822781 -0.10569112
0001d0 1c dc 2b be 5a 93 55 3e 27 09 76 3d 2f de c3 bc
       -0.16783184 0.20856991 0.060067322 -0.023909656
0001e0 df 4e d1 bc 61 b0 93 3d 49 22 d6 bd 4d 5e 9b 3d
       -0.025550304 0.07211376 -0.10455758 0.07586346
0001f0 0e 38 12 be e4 9b cd bd 7d 54 5f 3c 0a 3f 53 3e
       -0.14279196 -0.100394994 0.013630983 0.20629516
000200 08 dd a8 3d 8e 7f fd 3d 4a 5e e4 3d 6c e7 bf bd
       0.08245283 0.12377845 0.11150797 -0.09370312
000210 72 e9 b6 bc 88 03 d1 bd 92 d2 ac be 4f 95 9a be
       -0.022328112 -0.10205752 -0.33754402 -0.30192038
000220 df d5 3b 3d 98 78 3f 3d 62 8e fb 3c 95 84 3c 3e
       0.04585826 0.046745867 0.030707542 0.18409951
000230 7b 96 09 be 45 5f d3 bd 78 46 3e be 66 c8 94 be
       -0.1343631 -0.103209056 -0.18581569 -0.29059142
000240 6b be b6 3c 82 ea 4e bd 8a 39 42 be f0 ab 5f be
       0.022307595 -0.050516613 -0.18967262 -0.21842933
000250 06 e9 be bd d5 f1 7a 3b db 62 01 be 44 55 0c be
       -0.093217894 0.0038291116 -0.12635367 -0.13704401
000260 de 97 05 3d 66 e4 ca bc 79 98 3a 3e e0 5f fd 3d
       0.032615535 -0.024767112 0.18222226 0.12371802
000270 c2 f4 ef 3b 88 5a c6 3d e0 ba 0d be 1e d5 27 be
       0.0073228786 0.09685236 -0.13840818 -0.16389892
000280 af f5 59 3d ee 12 8e 3d 23 1a 1a 3e c7 c8 84 3c
       0.053212818 0.06937204 0.15049033 0.01620902
000290 28 a9 74 bd e0 2e a2 bc 40 09 91 bd fe 19 90 be
       -0.059731632 -0.019797742 -0.070818424 -0.2814483
0002a0 14 77 fc bc ee d9 44 bd 3d f4 ab 3d 88 f9 0e be
       -0.0308185 -0.048059396 0.08396194 -0.13962376
0002b0 6a ba 6d 3e 2f 35 33 3e 82 1c 6b be 59 96 55 3e
       0.23215643 0.17500757 -0.22960094 0.20858134
0002c0 36 4f 4d 3e c9 ba 48 3d 1a b2 55 3e e5 09 9b 3e
       0.20049748 0.049006257 0.20868722 0.30280986
0002d0 bb 1b a3 3c aa aa e8 bd f3 12 11 3e e3 88 46 3e
       0.019910684 -0.113606766 0.14167385 0.19388156
0002e0 1b b8 18 be 0b c1 b2 bc fd 68 5c 3e d3 41 39 bd
       -0.1491398 -0.021820566 0.21524425 -0.04522879
0002f0 28 52 d7 bd e1 8f 11 bd fe a8 b4 bd 3c 0a 00 be
       -0.10513717 -0.035537604 -0.08821295 -0.12503904
000300 6c 86 00 3e ad c5 f5 bd 07 10 1c bd e0 9c 44 3e
       0.12551278 -0.12000594 -0.038101222 0.19200468
000310 9c a3 30 3d 1a ca e7 bd cd c6 b6 3d 67 75 e6 3e
       0.04312478 -0.11317845 0.08924637 0.45011446
000320 96 42 86 3e cc c2 1f be e6 04 bf 3e a8 1e 7e 3e
       0.26222676 -0.15601653 0.37308425 0.24816382
000330 e5 66 ad bd 20 19 12 3e 44 a8 c9 3d ed 51 0d be
       -0.08466891 0.14267397 0.09846547 -0.13800783
000340 f5 7b af 3c 19 9e c5 3d 41 29 65 bd 93 c7 26 bd
       0.021421412 0.09649295 -0.055947546 -0.040717673
000350 d5 96 16 3e 57 fc e0 bc fd 1f d9 bd ca 3c 1e 3d
       0.14705975 -0.027464075 -0.106018044 0.03863219
000360 0d 5d a6 be 24 3c 47 3e fd de 23 3e 14 de b3 be
       -0.32492867 0.19456536 0.16003032 -0.3513037
000370 cc 09 e1 3c 4a 8f 33 3e 4f b4 8d be e7 80 3a 3d
       0.027470492 0.17535129 -0.27676627 0.045533087
000380 43 04 9c 3c 5f 15 07 ba 0e 7b cf bd 81 8d 4b 3d
       0.019045 -0.0005153026 -0.10130893 0.049695496
000390 c3 44 22 3d e1 b0 03 be 4d 0c 70 be 00 97 6a bd
       0.039616358 -0.12860443 -0.23442192 -0.05727291
0003a0 85 7f aa bd a9 ea 1d be 59 34 30 be bf d9 4f 3e
       -0.08325104 -0.15421547 -0.17207469 0.20297907
0003b0 3f 0c f0 bd 7e 57 80 be 0c 49 74 3e ee e9 24 be
       -0.11721086 -0.2506675 0.2385599 -0.16104862
0003c0 04 a8 17 be 2a 17 8f 3e 11 20 b7 3d 3a c4 b6 3c
       -0.14810187 0.2794736 0.08941663 0.022310365
0003d0 54 a0 50 3b e1 eb 03 be 65 19 8e 3c e2 dc 03 3d
       0.0031833844 -0.1288295 0.017346093 0.032193072
0003e0 d7 3c a1 bd 4f ba c8 3c 6d 96 86 3d 4c 8c 6d 3d
       -0.078729324 0.024502901 0.0657166 0.057995126
0003f0 ac a3 46 bb 2d 57 8b 3d 8b e0 7b be a9 19 dd 3d
       -0.0030309958 0.06803737 -0.24597375 0.1079591

encoder.2.bias f4 [32]
000000 53 a1 10 3d 63 90 1c bd 8e 7c 57 bd 07 0b 89 3c
       0.0353101 -0.038223635 -0.05260902 0.016728891
000010 eb c0 60 3d b6 f9 cb 3c 51 30 00 bc 04 a0 94 bd
       0.05487148 0.024899345 -0.0078240195 -0.07257083
000020 d6 52 7d bd cf 5c 26 bd 91 31 48 3b 97 1e ce 3a
       -0.061846577 -0.040615853 0.0030547122 0.0015725669
000030 03 7e b4 bd 89 d6 04 3d 95 3b 9e bb e5 ac af 3c
       -0.08813097 0.03243116 -0.00482888 0.021444747
000040 2f 49 e6 3c 5b 5d 6b 3d 33 59 93 3c 95 49 20 bd
       0.028111069 0.057462078 0.01798687 -0.039132673
000050 b7 04 8e 3d 96 4f 94 bd 3c 18 12 bd ff aa aa bd
       0.06934493 -0.07241742 -0.035667643 -0.08333396
000060 18 63 bb 3c fe 02 b3 3c 6a 0f a9 bd 3c 85 d5 bc
       0.0228744 0.021852013 -0.08254893 -0.026064508
000070 ee 6d c1 3c 5a d5 d4 3d 8f 71 ec bc d2 89 af bd
       0.023611989 0.10392256 -0.028862743 -0.08571209

encoder.5.weight f4 [12, 1568]
000000 ac b0 03 3c 76 4b 8a 3c 83 1b 8b ba 7f 2d 52 3d
       0.008037727 0.016881686 -0.0010613058 0.05131292
000010 96 e5 24 3c a4 ef 9d bb 44 40 49 3d 5b 01 76 bc
       0.010064503 -0.004819827 0.049133554 -0.015014972
000020 05 d4 89 3d b7 83 e5 bc 1a 8b f7 3b c4 68 75 bc
       0.06729893 -0.028016908 0.007554424 -0.014978591
000030 b3 a4 db 3c ef 60 62 3d 21 7f 73 bc 30 a3 72 3c
       0.026811933 0.055268224 -0.014861853 0.014809415
000040 b9 88 18 bd 9a af f0 3d 4b 9a ec 3d 7e c6 d6 bd
       -0.037239764 0.11752243 0.115528665 -0.10487078
000050 e6 3b 00 bc ae e9 c3 bc 34 fb 98 bc 39 73 9f bd
       -0.007826781 -0.023915138 -0.01867447 -0.07785649
000060 34 9d 23 bd de b4 cd 3d 5f 74 06 bd 99 e1 8f 3c
       -0.039944842 0.10044263 -0.032825824 0.017563628
000070 90 9f 3f bc f4 cc f0 3c 8e 75 82 bd ad 2f 30 3e
       -0.0116957575 0.029394604 -0.06370078 0.17205687
000080 ed be 32 be f6 3e ab 3d db 37 da bc 92 c5 14 3c
       -0.17455645 0.08361618 -0.026637962 0.009080308
000090 bd db c3 bd 15 a7 05 be 66 19 90 bd 80 94 97 3d
       -0.09563396 -0.13052018 -0.07036094 0.07401371
0000a0 d5 12 c1 3d 9b 2e 77 3d 7f d4 b9 bc 5f db 8c bd
       0.0942742 0.06034718 -0.022684334 -0.06877779
0000b0 58 63 c0 3d 62 3a b3 3c 68 7d d7 3c 00 b1 13 bc
       0.09393948 0.021878425 0.026304916 -0.009014368
0000c0 3f 78 e4 bb 3a 14 a0 bc 54 dd 93 3b 18 40 73 3d
       -0.0069723423 -0.019540895 0.0045124684 0.059387296
0000d0 6f f5 c3 3d d0 76 f1 3d e2 31 ec 3e 48 97 8d bd
       0.09568297 0.1179024 0.46131808 -0.0691362
0000e0 65 2f 33 3c 3b b3 4b bc 04 52 82 3d 8e 07 72 bc
       0.010936593 -0.012432869 0.063632995 -0.014772309
0000f0 47 e3 84 3d af d2 67 bd d5 a6 27 be f4 16 9d bd
       0.06488662 -0.056597408 -0.16372235 -0.076703936
000100 24 b7 49 bd 64 c9 c4 bd 60 78 58 bb 0c 09 ce 3d
       -0.049246922 -0.09608725 -0.0033030733 0.10060319
000110 86 f2 e6 bd de 30 3c 3e 23 7d d4 bb 68 cf ff bc
       -0.112767264 0.18378016 -0.006484644 -0.031226829
000120 40 02 4d 3d 38 12 49 3d 33 80 bd 3c ff d6 28 be
       0.050050974 0.04908964 0.02313242 -0.16488265
000130 77 7a 76 3d 02 17 de bc 02 2e e7 bd b0 08 85 bc
       0.060175385 -0.02711058 -0.11288072 -0.016239494
000140 e6 6a 96 3d 99 1c 47 be c6 a3 01 3e 8a 97 5d 3e
       0.07344608 -0.19444503 0.12660131 0.21639839
000150 35 22 ca 3b fb 50 c6 bd 3b ff 30 bc cf 7c c6 3d
       0.0061686286 -0.096834145 -0.010803039 0.09691774
000160 d4 85 2c be 81 e2 10 3c 59 e3 e9 bd ca dc 08 3d
       -0.16847926 0.008843065 -0.11420316 0.033413686
000170 4c 14 05 bd 7f 8f 7d 3d 45 c1 6f 3d 44 ec 1e bd
       -0.03249006 0.061904427 0.058533926 -0.03879954
000180 49 c7 ae bd d4 ec 86 bc f8 04 56 3c b2 ba ec bb
       -0.085341044 -0.01647035 0.013062708 -0.0072244043
000190 45 b0 a7 3c bd fd 81 bc f5 a7 1e 3d 07 fc c1 3c
       0.020469794 -0.015868062 0.038734395 0.023679746
0001a0 ae 8c 8d 39 c0 83 c7 3b 8e c1 2a 3d 91 65 d2 3d
       0.0002699843 0.006088704 0.041688494 0.102732785
0001b0 06 bd 47 3d 59 d9 04 3c c9 5c 6e bc 69 10 12 3c
       0.04876425 0.00810846 -0.014548489 0.008915045
0001c0 93 cc 8f 3c 0d 00 8d 3d ab 1a 0b bd 73 7e 9e 3d
       0.017553603 0.06884775 -0.03396098 0.07738962
0001d0 11 40 9d 3d e2 3c 82 3d e2 27 5a bc 25 1f 1f 3b
       0.07678235 0.06359269 -0.013315173 0.0024280038
0001e0 0d e7 8b 3c 0d b1 87 3d f9 90 e1 3d 60 59 16 3e
       0.017077947 0.06625567 0.110139795 0.14682531
0001f0 de 27 a9 3c 33 aa 82 bd d0 17 71 3c bf e4 d6 bd
       0.020648893 -0.06380119 0.01471515 -0.104928486
000200 05 a0 1c 3c 4a 79 13 3e a9 ab 07 be ee ec 84 3c
       0.009559636 0.14401737 -0.13249077 0.016226258
000210 5b 56 77 3d fd 30 1e bc 2f 3c 4c 3c 26 30 8c bc
       0.06038509 -0.009655234 0.012465521 -0.017112803
000220 57 e7 8f 3c 7f 2c 8e bd d0 08 08 3c b5 d8 84 bd
       0.017566366 -0.06942081 0.008302882 -0.06486646
000230 49 67 68 3b 91 8f 93 bc 5e 51 a9 3d 65 62 83 bd
       0.0035461953 -0.018012794 0.08267473 -0.06415252
000240 f1 8b 80 3c fa 04 a0 bb 7a 99 ed 37 89 b3 a9 3c
       0.01569173 -0.0048834058 2.832407e-05 0.020715492
000250 a5 52 ad 3b 49 b8 53 3c 33 05 b1 3c 77 65 b1 bc
       0.005289393 0.012922355 0.021608924 -0.021654828
000260 ab fc 03 bc ec 91 0a 3b d3 dc af 39 0b aa 52 bc
       -0.008055846 0.0021144105 0.00033543128 -0.012857924
000270 76 84 12 3d 70 55 1a 3d 9a f5 6e bd 3c c2 92 bd
       0.035770856 0.037679136 -0.058339693 -0.071659535
000280 e0 60 55 bd 33 5f 82 bd 79 bf c3 3c 43 7a 93 3d
       -0.05209434 -0.06365814 0.023895012 0.07201054
000290 ca 8d 22 bd 46 d2 00 bd 07 ed a8 3d 88 63 76 3d
       -0.039686 -0.031450532 0.082483344 0.060153514
0002a0 1f 06 db 3c 9a 94 aa 3c eb ad 17 3e 13 47 93 3c
       0.026736317 0.020822812 0.14812438 0.017978227
0002b0 15 ad 19 bd af 99 b6 bc bd 52 19 3c 26 d4 b0 bd
       -0.03751858 -0.022290079 0.009358105 -0.08634214
0002c0 4d f4 bc 3c 8c b8 30 3e c6 80 01 bb 78 e5 24 bb
       0.02306571 0.17257899 -0.0019760593 -0.0025161188
0002d0 7b ec 50 3e c2 3c 49 bd 2e 58 36 bd 66 55 cc bc
       0.2040271 -0.04913021 -0.04451769 -0.024943065
0002e0 39 bc 95 3d 40 33 01 3d d5 11 5a 3d ba 68 12 be
       0.07311291 0.031543016 0.053239662 -0.14297763
0002f0 0d 27 45 bd 5e 5d dd bc 6f 3c d1 3b 1b f8 48 3c
       -0.048132945 -0.02702206 0.006385378 0.012266184
000300 5b 61 f1 3c 74 ab 48 bd e0 fa e2 ba c0 57 74 3c
       0.029465368 -0.048991635 -0.0017317198 0.014913499
000310 8d d7 1f bc 0b 98 61 bd 38 31 e1 bc 6f 8e 13 3e
       -0.009755981 -0.05507664 -0.02748929 0.14409803
000320 98 5b dc 3d 80 b2 74 3e c8 99 83 bc 47 1f 93 bc
       0.107596576 0.23896217 -0.01606454 -0.01795925
000330 e9 61 30 bd dd 6c 06 bd 63 88 52 3d 53 a5 12 3d
       -0.043062124 -0.032818664 0.0513996 0.035802197
000340 d3 01 cd bd ba 5e 8f 3c 0f ed c0 bb 8e 13 08 be
       -0.100101136 0.017501224 -0.0058876346 -0.1328871
000350 6a eb 99 3d 97 9f 45 bd 15 f9 9a 3d 6d e0 35 bb
       0.07515605 -0.0482479 0.0756704 -0.0027752176
000360 eb ad 6e 3b ed f7 f9 bc 7c 8d ef bd 2f a6 2a 3e
       0.003641958 -0.030513728 -0.11696908 0.16664957
000370 89 5b fe 3c 5a 65 49 be 25 e7 0a bd d3 e7 79 3d
       0.031049507 -0.19667569 -0.033911843 0.0610121
000380 01 bd c2 bc f9 3f ac bc c5 57 b1 3d 82 7e 61 bd
       -0.023771765 -0.021026598 0.08659319 -0.055052288
000390 2f ae f9 bc 05 b6 16 3e 8a 6e b6 3d f0 50 33 bd
       -0.030478565 0.14717872 0.089078024 -0.04377836
0003a0 6b de 1f 3d 85 63 ab 3d c1 26 c5 3c 8a c6 02 3e
       0.039030474 0.08368591 0.02406633 0.12771049
0003b0 e8 fa 9d bd 47 b7 a5 3c 4a 7c 72 bc f8 d1 6d 3c
       -0.07713872 0.020228995 -0.014800141 0.0145153925
0003c0 e3 b6 9e bd e2 02 68 bb fb ea 81 bc 15 9a 62 bd
       -0.077497266 -0.003540211 -0.015859118 -0.055322725
0003d0 b4 82 4a 38 a9 af 63 3c 21 4c 12 bd e5 de 7a bd
       4.828228e-05 0.013896861 -0.035717133 -0.061247725
0003e0 31 ce 88 bd a7 c5 b4 bd 0f a0 b5 3d 68 4a af 3d
       -0.06679953 -0.08826762 0.088684194 0.08559114
0003f0 66 82 30 bc 86 8c 04 be 4d 70 f7 bd 59 d0 04 3d
       -0.010773277 -0.1294423 -0.120819665 0.03242526

encoder.5.bias f4 [12]
000000 02 7d b8 3c 06 9c 93 3c 1e 4a 12 bd b7 88 f9 bc
       0.022520546 0.018018734 -0.035715215 -0.030460699
000010 1b f2 14 3d c9 46 12 bc 78 0b 2d bb 23 c8 8c 3c
       0.036363702 -0.008928009 -0.002640454 0.017185276
000020 d7 4e 8e bc 99 9e 03 bc 36 86 fd bc 90 0e 15 3c
       -0.017371578 -0.008033418 -0.030947786 0.00909771

decoder.0.weight f4 [1568, 12]
000000 8c 7e cc bf 10 61 ce bf 09 70 67 3f ee 0c d1 3f
       -1.5976119 -1.6123371 0.9040533 1.6332071
000010 51 c3 8f 3d fc 5a c7 3f 83 38 e5 bf 07 e5 3a 40
       0.070196755 1.5574641 -1.7907871 2.9202287
000020 ad a1 7e 3f 9a e4 1b 3f b6 3a 39 3f eb c5 38 3f
       0.9946545 0.60895693 0.7235521 0.72177
000030 8a 93 7b bf 77 53 66 bf d2 de 09 3f 2a 79 88 3f
       -0.98272 -0.8997111 0.5385562 1.0661976
000040 55 d5 11 3d 2f 1b 86 3f 78 c6 8c bf c2 06 c6 3f
       0.03560384 1.0477046 -1.0998068 1.5470812
000050 dc 2d 37 3f cf ae b2 3e ae 52 00 3f cf 48 fd 3e
       0.7155435 0.34898993 0.5012616 0.4946961
000060 91 68 1d 3c 8b 18 a1 3d fc 4b 80 bb 5a 50 2a 3d
       0.00960745 0.07866009 -0.003915308 0.041580535
000070 24 69 5e 3d f0 31 c1 3d 57 c3 b6 bd 25 85 fc bc
       0.05429949 0.09433353 -0.08923977 -0.030825207
000080 74 d7 97 bd 06 0b a0 3c ec 6c e0 3d f9 0b 1e be
       -0.07414141 0.019536506 0.10958275 -0.15434255
000090 4a ea e8 ba ef 7e e4 3d 06 82 82 3e 8d 72 31 be
       -0.0017770019 0.11157023 0.25489825 -0.17328854
0000a0 04 e1 1d be b5 be ca 3e cb 88 4f be b0 5b 5b be
       -0.15417868 0.39598623 -0.20267026 -0.21421695
0000b0 2e eb 2e 3d 7a fa 5a bc 18 21 04 3e 21 6d 1a be
       0.042704754 -0.013365382 0.1290325 -0.15080692
0000c0 09 f2 42 be e5 45 d0 bd 2e 89 0c 3e 8e cc d1 3d
       -0.19037642 -0.10169581 0.13724205 0.10244094
0000d0 35 47 c6 3d fb 76 43 bc 10 7a 4c 3e df bd 31 3d
       0.096815504 -0.011930223 0.19968438 0.043393966
0000e0 23 2c 1b be 7b 09 c3 ba 7f d2 03 be 8c 9c 23 be
       -0.15153556 -0.0014880145 -0.12873267 -0.15977687
0000f0 42 09 80 3e 2c fb b5 3d 2f 30 c7 be 67 a0 2f 3f
       0.25007063 0.08885798 -0.3890395 0.6860413
000100 dd 1b 7e be c1 fb b6 bd 5d 3e 31 3e a6 bc 59 3e
       -0.24815316 -0.08934737 0.17308946 0.2126337
000110 c7 17 25 be 4a 23 01 3e af 1b 7c 3e 52 3e e6 bd
       -0.16122352 0.12611118 0.24619935 -0.112423554
000120 2e 55 2a bd ec a8 82 bc c9 7d 57 bb ad c1 97 3c
       -0.04158514 -0.015949689 -0.003288137 0.018524969
000130 4c f4 67 bd 42 1b 20 3d 76 cf 75 3c 77 da 6b bc
       -0.056629464 0.039088495 0.015003076 -0.014395348
000140 c8 8b 28 3c 68 1e e7 3b 9b 38 14 3d 14 52 ad 3c
       0.010287233 0.0070531853 0.036186796 0.021157302
000150 b8 59 42 3b 42 c0 ba bc 56 8f ee bc 23 ba 1f 3d
       0.0029655527 -0.022796754 -0.029121082 0.038995873
000160 e6 18 47 bd 3f 45 6f bd 40 f1 b4 3d 32 70 00 3c
       -0.04860773 -0.058415648 0.08835077 0.007839249
000170 dc 86 c6 bc 24 90 49 3d 2c d1 de bc 91 12 ae 3c
       -0.024234228 0.04920973 -0.02719935 0.021249088
000180 7c 47 35 3c 3b 11 c8 bc ee bd c2 3d 61 2d da 3d
       0.0110644065 -0.024422279 0.095088825 0.106531866
000190 2b ff 3b bb f9 d9 ae bd 7f f1 15 be 4d ec 12 3e
       -0.0028686028 -0.08537669 -0.14642905 0.14347954
0001a0 59 2a c8 3d 72 ee b9 3d 86 80 bf bc 3c da 97 3c
       0.09773702 0.09078683 -0.023376714 0.01853668
0001b0 53 c7 19 bd 73 4a 12 be 43 c7 2a 3e ea ba 49 bd
       -0.037543606 -0.14286213 0.16677575 -0.04925052
0001c0 6d 42 e0 3d 5e 26 f6 3d 20 f1 02 be 66 a5 6e bd
       0.1095017 0.12019037 -0.12787294 -0.058263205
0001d0 f6 16 08 3d 97 d2 82 be e8 c8 a3 3e 1b d3 76 3e
       0.033225022 -0.25551292 0.31989217 0.24103968
0001e0 38 eb 61 bd 09 20 b7 3d 4b 53 c7 3d 96 72 57 bc
       -0.055155963 0.08941657 0.09732684 -0.013149878
0001f0 28 ca 63 bd 03 99 12 be 69 b1 2e bd aa 2e 8f bd
       -0.055612713 -0.14316182 -0.04264966 -0.06991322
000200 80 46 71 3d 0c 35 20 be 81 2f 3f 3e 76 34 82 bd
       0.058905125 -0.15645236 0.18670465 -0.063576624
000210 65 2d d3 3d c5 53 3c 3e 8c df d2 3d 97 6a 40 3e
       0.10311393 0.1839133 0.102965444 0.18790661
000220 02 89 b0 3e fd 14 0c 3e f4 3d 28 3c fc af 1c be
       0.3447953 0.13679881 0.010268677 -0.15301508
000230 b7 ea 8c bd c5 bf 15 be 10 13 02 be a0 7c 2c be
       -0.06880706 -0.14623936 -0.12702584 -0.16844416
000240 7f 4b 12 3d f7 78 9b 3d 8f c7 8a be ce ef 8b bd
       0.03571653 0.075914316 -0.27105376 -0.068328485
000250 a6 df a3 3e 48 22 24 be 90 09 05 bd a5 fb ea 3d
       0.32006568 -0.16028702 -0.032479823 0.11473779
000260 39 46 8e 3d a7 4d e1 3d 48 39 4e bd 88 c1 76 3e
       0.06946988 0.11001139 -0.050347596 0.24097264
000270 01 9e d6 bd d7 f8 18 be a2 73 08 3e db 63 02 3e
       -0.104793556 -0.14938675 0.1332536 0.12733404
000280 c6 ed 38 be 1e 09 62 3d 37 e9 ed bd 5d a8 3e 3d
       -0.18059453 0.055184476 -0.11616748 0.046547282
000290 1d f0 d4 bd cd b5 64 bc f7 55 14 bc 18 52 67 bb
       -0.103973605 -0.01395936 -0.009053699 -0.0035296734
0002a0 55 83 66 3d 0c a8 1a be b0 95 ff ba 63 83 f9 bd
       0.05627759 -0.15103167 -0.0019499566 -0.12183263
0002b0 ca 80 c7 bc 72 81 47 3d a5 ac 4b 3d ab 79 34 3d
       -0.024353404 0.048707433 0.049725194 0.044061344
0002c0 87 a1 98 3a ca b8 bb 3d 2a fe 66 3c 14 bc ae 3c
       0.0011644819 0.09166105 0.014098683 0.021329917
0002d0 d4 d3 d0 bf cb 4e d5 bf a7 54 76 3f e5 51 dc 3f
       -1.6314645 -1.6664671 0.9622292 1.7212492
0002e0 b0 eb 3e be 6a d0 d2 3f e6 0e ea bf 29 ed 30 40
       -0.18644595 1.6469853 -1.8285797 2.764475
0002f0 c4 66 7e 3f 22 3a 2b 3f e7 de 44 3f 98 34 4b 3f
       0.9937556 0.6688558 0.7690262 0.79377127
000300 9b 77 d4 bb dd 31 a1 3e f3 cd 0c 3e 3e 2d 6d 3d
       -0.0064839846 0.31483355 0.13750438 0.057904474
000310 76 50 89 be c6 f4 e3 3d 07 b3 52 bd 27 9b 79 3c
       -0.268192 0.11130671 -0.051440265 0.015234745
000320 e3 26 a8 bd fc 80 c4 3d 8a 83 c0 3b d3 1a 8e bd
       -0.08210542 0.09594914 0.0058750557 -0.0693871
000330 06 e5 6c 3e 56 87 7c be 13 76 4d 3d a9 9f 0c 3d
       0.2313424 -0.24661002 0.050161432 0.03433195
000340 4d e4 9c 3e d4 02 40 3d 4a d4 45 3e c5 9f 26 3d
       0.3064293 0.046877697 0.19319263 0.04067971
000350 b2 ba 93 bd 75 b6 39 3e 1b 48 0d be 22 94 56 3d
       -0.07213344 0.18136008 -0.13797037 0.052387364
000360 b8 c5 52 be 58 38 06 be f7 f3 6a bd f8 58 04 be
       -0.20583236 -0.13107431 -0.05736157 -0.12924564
000370 b6 57 c8 3a 52 2c 75 be 6c 89 cc bc f1 a5 21 3d
       0.0015284929 -0.23942688 -0.024967872 0.039464895
000380 a9 44 a2 bd 27 d3 85 be 0d cd 69 be 01 2d 69 3d
       -0.07923252 -0.2613766 -0.22832127 0.056927685
000390 da 7b d2 bf 43 6a d4 bf 8a 1b 67 3f 67 c6 df 3f
       -1.6444046 -1.6594929 0.90276396 1.7482423
0003a0 31 4c 40 be d6 1e cf 3f a6 ee e7 bf c8 bc 2d 40
       -0.18779065 1.6181285 -1.8119705 2.7146473
0003b0 65 0a 96 3f a7 ef 4d 3f ff e8 57 3f 76 f6 5d 3f
       1.1721922 0.80443805 0.843399 0.86704195
0003c0 d0 c3 9f be b9 45 25 3e 97 0a e0 bd c7 19 c1 3d
       -0.3120408 0.16139878 -0.1093952 0.09428745
0003d0 d5 b6 35 bd 31 35 79 bd ca 7f 2a 3e 32 72 9e bd
       -0.044363815 -0.060841743 0.1665031 -0.07736625
0003e0 a7 b4 c8 3d 9d cd b1 be 71 37 8a 3d 68 75 63 3d
       0.09800082 -0.34727183 0.06748856 0.05553189
0003f0 57 13 a2 bc fa 59 7f bd 33 10 14 3d 39 2b 07 3b
       -0.019784613 -0.062341668 0.03614826 0.0020625128

decoder.0.bias f4 [1568]
000000 99 90 64 3e 5a b4 86 3e af cf 6f be 9a ec a0 be
       0.22320785 0.26309472 -0.23419069 -0.31430513
000010 07 20 c7 bd a9 be d9 3d 41 db 97 3d 0e 62 86 3d
       -0.097229056 0.10632069 0.07414866 0.06561671
000020 39 05 88 be d4 d0 f1 3c a1 de 47 bd d6 ca 4f 3d
       -0.26566485 0.029518522 -0.0487963 0.05073055
000030 db 72 2d 3e 65 93 71 3e 45 3f e0 bd 7f 1c 3e be
       0.16938345 0.23591383 -0.10949568 -0.18565558
000040 75 c0 f8 bd ef 97 e0 3d ef 36 52 3c c0 5e 50 be
       -0.12146083 0.10966479 0.01283048 -0.20348644
000050 29 d1 87 be 8e 6e 8e bd 04 96 96 3e 90 ed a6 bd
       -0.26526764 -0.069546804 0.29411328 -0.0815078
000060 5c 07 89 3d 0b 1a e0 be 56 27 10 be 84 b2 b8 be
       0.06690857 -0.4376987 -0.14077505 -0.36073697
000070 2f 30 9d be b3 0c c0 3d 37 86 b3 be d2 9a 01 be
       -0.30700824 0.09377422 -0.35063335 -0.12656716
000080 a3 90 51 3e 62 19 49 bd c8 09 b7 be 99 cf f0 3d
       0.20465331 -0.049096473 -0.3574965 0.11758346
000090 b6 19 11 be da e7 0c be 85 2c 13 be c9 60 a5 bd
       -0.14169964 -0.1376032 -0.14372452 -0.08075101
0000a0 3a ff ff bd 55 79 e7 bd 1f 61 cc 3e 2c e8 b3 bc
       -0.124998525 -0.11302439 0.39917848 -0.021961294
0000b0 97 ee 94 bd a4 52 e1 bd 2c 64 9f be be ce 7e 3e
       -0.0727207 -0.110020906 -0.31131113 0.24883553
0000c0 f1 28 9a 3e 53 d9 56 bd 22 ba 03 3d 82 6e ee be
       0.3010936 -0.05245335 0.032159932 -0.46568686
0000d0 db ca 5f 3e 38 c1 d0 bd a8 f6 53 3d 0d a0 08 bf
       0.21854727 -0.101931036 0.0517489 -0.5336922
0000e0 cd 17 9e be 51 5c 98 be 85 4f 91 3d 61 41 c8 be
       -0.30877534 -0.29757932 0.07095245 -0.3911238
0000f0 9d 33 43 be 28 38 54 3d 2a 78 f8 be bf 2f 7f 3e
       -0.19062658 0.051811367 -0.48529178 0.24920557
000100 df ca e4 3d 20 bf e6 3d ce 82 6f 3e 93 aa 1a bd
       0.11171507 0.11266923 0.23389742 -0.03776033
000110 ad 36 fc 3d 11 23 80 be 60 dc 71 3e da df 92 3d
       0.12315116 -0.25026754 0.23619223 0.071716025
000120 e0 b6 ef be 8a b1 0a bd dd 70 0d bd 7b e0 90 3e
       -0.4681921 -0.03386072 -0.034531463 0.28296265
000130 52 1d d5 3c 6e 02 1f bf 40 ca 39 bd da f5 59 bd
       0.026014958 -0.6211308 -0.045358896 -0.053212978
000140 60 a2 a3 be 4c 73 c3 3d 2d 07 f8 3e 2d 01 b6 be
       -0.3195982 0.095434755 0.48442975 -0.35547772
000150 57 d9 70 be 85 39 e3 3d 04 2b 1d be 78 75 23 3d
       -0.23520409 0.11094955 -0.1534844 0.03990695
000160 14 e2 0b be 12 4e 01 3e c3 57 5a be ca 9a 8e 3d
       -0.1366046 0.12627438 -0.21322541 0.069631174
000170 61 c7 80 be d2 17 97 3d 8a 64 c8 3d de cb b9 bd
       -0.25152114 0.0737759 0.09784801 -0.09072088
000180 21 3b e1 3c 9a a9 68 3d cb f5 3a 3e 10 94 fa 3e
       0.027494015 0.05680237 0.18257825 0.48941088
000190 26 f1 68 3e 57 a9 81 3e 51 42 a5 3e ca 4e c1 3d
       0.22748241 0.2532451 0.32277158 0.09438856
0001a0 77 e2 10 3e 2f 64 e8 3c 6f 9c 0e 3c 9f fe 8e be
       0.1414889 0.028368084 0.008704289 -0.27928635
0001b0 ad ef f5 be a7 f1 ad bd 6c f2 24 be 8b db 01 be
       -0.4803442 -0.08493357 -0.16108102 -0.12681405
0001c0 95 44 13 be 9d 54 56 3e 5e 61 4a 3b b4 57 72 be
       -0.1438163 0.20930715 0.003088079 -0.23666269
0001d0 10 cd fe bd 6f 67 1a 3e ed b7 4f be 52 f0 59 be
       -0.12441456 0.1507852 -0.20285006 -0.21283081
0001e0 f6 0f b0 3e 08 c8 41 3e 33 d5 b0 3e 2f 81 ef bd
       0.34387177 0.18923962 0.34537658 -0.11694562
0001f0 f7 f2 38 3e b9 94 4e 3d dc 50 97 be d3 d5 9f 3e
       0.18061434 0.0504348 -0.29553878 0.31217822
000200 e2 16 5d 3e b4 d3 92 3e 0a 23 51 3e 35 ad a5 be
       0.2159076 0.28677142 0.20423523 -0.3235871
000210 7a 51 30 be 88 83 86 be 36 d3 b2 3d 32 db 06 3f
       -0.17218581 -0.26272225 0.087316915 0.52678216
000220 bb 90 84 3e 1c 31 32 bd cd 7e 37 be 0b 1f 98 be
       0.2589167 -0.043503866 -0.17919464 -0.29711184
000230 7d 36 bc bd 82 14 d7 bd 2b d1 8d be 92 97 5a 3e
       -0.0919008 -0.105019584 -0.27698645 0.21346882
000240 65 af 22 be b9 c5 da 3c c4 4e cc be 25 0f 30 3e
       -0.1588722 0.02670561 -0.39903843 0.17193277
000250 19 c6 61 3e 38 8b 08 3f d3 1d 73 3e b6 4e b9 be
       0.22048225 0.5333743 0.23741846 -0.36192864
000260 49 5d e5 3e 3f 2d e7 3d 05 62 1e 3f 41 42 00 be
       0.44797733 0.11287927 0.61868316 -0.12525274
000270 df 5b ce 3c 6b f6 34 bd f5 31 73 3d 9f bb a5 bd
       0.025190292 -0.044180315 0.059373815 -0.080924265
000280 cf 9f 3d 3e 4c 41 21 be 32 87 77 be aa 3d dd 3b
       0.18517993 -0.15747565 -0.24172667 0.0067517357
000290 ab 80 b3 be 1d bf 8e 3c 6c 46 39 be b5 ad 87 3d
       -0.35059103 0.017425114 -0.1809327 0.06624929
0002a0 67 62 7d be 8d 2c 2c be db 12 a1 3d 1b 2c 90 be
       -0.24744569 -0.1681387 0.078649245 -0.2815865
0002b0 60 b8 1c 3d 4f 0f 87 be 43 b9 f7 bc 41 d3 59 3f
       0.03826177 -0.26378867 -0.030239707 0.8508797
0002c0 ad dd 7f 3e 63 0f 73 3e c0 9d 33 be ca 4f 57 bd
       0.24986906 0.23736338 -0.17540646 -0.052566327
0002d0 ec ad 06 be e4 e1 61 3e a2 25 11 3f 1c 0b 0b 3e
       -0.13152283 0.22058827 0.5669805 0.13578457
0002e0 ab ae 8d be d4 e4 ed bd e8 3c fa 3c 68 27 3d 3e
       -0.27672324 -0.11615911 0.03054662 0.18472064
0002f0 2e 0e 0a bd 35 50 90 3e a0 57 1c be 97 ef 54 3e
       -0.03370493 0.28186193 -0.15267801 0.20794521
000300 87 5d e9 3d d5 49 08 be 1e 9c e6 3d 6b 9f 53 be
       0.11394792 -0.13309415 0.11260246 -0.20666282
000310 61 18 2d 3e 32 bc 30 3e ce 60 5b be a4 58 1d be
       0.16903831 0.17259291 -0.21423647 -0.15365845
000320 ec 21 00 3e 4b 7f 7d 3c 02 d7 a7 bc f9 c5 ab 3e
       0.1251294 0.015472244 -0.020488266 0.3354948
000330 f7 9c fc bc d8 b3 8c 3e d1 96 a8 3e 33 26 97 3d
       -0.030836565 0.2748096 0.32927564 0.07380333
000340 36 14 dc 3e 85 58 d0 3c 44 e9 6e 3d aa d8 4e bc
       0.4298417 0.025432834 0.05832793 -0.012624899
000350 69 40 79 bc 5b a1 18 3d 11 bf fe bd ae dc 77 bd
       -0.0152131105 0.037263256 -0.12438787 -0.06051319
000360 26 d0 cb bd 79 0b ea 3c 51 75 59 3b 97 06 c4 3e
       -0.099518105 0.028569924 0.0033181498 0.38286278
000370 96 1a 12 3e af c8 29 bc 7d 55 2b 3e 72 97 af be
       0.14267954 -0.010362788 0.1673183 -0.3429523
000380 a5 fe dd 3d 19 ff 6f be 17 3b d0 be 25 d2 40 3b
       0.10839585 -0.23437156 -0.40670082 0.002942213
000390 71 a2 00 3e 91 b3 44 3e ee 71 f1 bd 4c 89 a1 3d
       0.12561966 0.19209124 -0.117893085 0.078875154
0003a0 85 2f 40 3e 8b 27 5d 3d 01 2a e6 3d 27 8f 78 3e
       0.18768127 0.05399279 0.1123848 0.24273358
0003b0 ee 9d ed 3d d5 fc 8e 3e 27 a1 7b 3e d8 50 79 be
       0.11602388 0.2792727 0.24573193 -0.24347246
0003c0 60 77 1e bd fb fb b8 3d 91 a9 4b 3e 03 0b 79 3d
       -0.038688064 0.090324365 0.19888903 0.060801517
0003d0 d0 13 50 3e 7e fb a4 be bc 04 33 be 54 83 c6 3e
       0.20320058 -0.32223123 -0.17482275 0.3877207
0003e0 b0 e7 64 3e 02 74 e1 3e b3 d2 5f 3f 36 21 07 be
       0.22354007 0.4403382 0.87430876 -0.13196263
0003f0 05 c7 9b bb e6 36 8a be 10 e8 ea 3d 33 4c d8 bd
       -0.0047539496 -0.2699501 0.11470044 -0.10561409

decoder.3.weight f4 [32, 16, 3, 3]
000000 ae 57 e2 3c a8 a5 11 bd ba 04 27 38 e7 e9 82 bd
       0.0276297 -0.035558373 3.9820305e-05 -0.063922696
000010 c1 f9 80 bd fd 99 85 3b 1e f8 f2 bc b8 0b e0 bc
       -0.06297637 0.0040771947 -0.029659327 -0.027349338
000020 39 e5 35 3d 32 b9 31 3c 53 89 bf 3b 87 9b ae bb
       0.044408057 0.010847377 0.0058452277 -0.005328599
000030 c3 7b af 3b 88 94 94 bc 8f 02 7d 3b 09 0a 9a bc
       0.0053553297 -0.018137231 0.0038606261 -0.018803613
000040 48 af fb bc f6 18 13 bb a3 06 fe ba 79 ed 46 3e
       -0.030723229 -0.0022445298 -0.001938064 0.19426526
000050 69 ee 16 be f0 56 c6 bb cd 30 11 be b7 ed 64 3d
       -0.14739384 -0.006052844 -0.14178772 0.055890765
000060 7b 60 8e bd 12 d7 27 be 49 ad 93 bd 55 e6 00 3d
       -0.06951996 -0.16390637 -0.07210786 0.03146966
000070 d1 8d 43 bd 41 7a a3 3d 53 09 30 bd c8 ec 92 bc
       -0.04774267 0.079823025 -0.042977642 -0.017935172
000080 2e 69 f5 3d 7d 2b d7 bc 0d ae ba 3c 00 23 9c 3c
       0.11982952 -0.026265854 0.022788072 0.019059658
000090 1a 27 d3 3b e1 cc 1e bd 58 66 88 bd a8 d4 83 bd
       0.0064438703 -0.038769607 -0.066601455 -0.06437045
0000a0 48 fc f0 bd a1 d7 8f 3d de 25 19 3c 20 76 ef bc
       -0.11766869 0.0702355 0.009347407 -0.029231131
0000b0 8d 4f ec bc 26 2b 2f 3b 3c 13 6c be ce 20 87 bd
       -0.028846527 0.00267286 -0.23054212 -0.06598054
0000c0 cb d5 12 be 79 ba f9 3b cf 4c 00 3e 47 58 ce 3d
       -0.14339368 0.007621106 0.125293 0.10075431
0000d0 ba 5b db bd 3d 8c 29 bd e9 6a 27 bc 6f 54 b5 bc
       -0.10710855 -0.041393507 -0.01021836 -0.022134988
0000e0 ea 7e 17 3d 5c b2 38 3c d8 6f ff bb 3d 4e 49 bb
       0.03698627 0.011272993 -0.0077953152 -0.00307168
0000f0 fe 3a 37 3c d8 21 d5 bb 07 a0 e5 3a 50 cf ab 3d
       0.011183498 -0.0065042786 0.0017519005 0.08389151
000100 b1 91 de 3b 3f 94 8d be 89 22 a5 bd a7 66 40 3c
       0.00679227 -0.27652165 -0.08063228 0.011743224
000110 72 3f d9 3b 90 98 b2 bd 0b b0 34 bd 39 23 92 be
       0.0066298777 -0.08720505 -0.0441132 -0.28542498
000120 8c d3 64 3e f9 46 5b bb 14 0c a0 be dc e7 60 bd
       0.22346324 -0.003345905 -0.31259215 -0.05490862
000130 1b fc c1 3c b0 5e 54 bc 88 b6 43 bb b1 40 39 3d
       0.023679784 -0.012962028 -0.0029863436 0.04522771
000140 2d c3 ad 3b ad 24 26 bc 95 87 a1 bd 8b 58 eb bd
       0.005302808 -0.01014058 -0.07887188 -0.114914976
000150 04 3b b3 bd 58 e7 ea bd 14 ec 12 3d 11 df 11 3d
       -0.08751491 -0.114699066 0.035869673 0.035613123
000160 1b f2 ec 3c 66 f2 09 3e 50 97 eb bc 49 03 8c bd
       0.028924039 0.13471374 -0.028758675 -0.06836564
000170 51 da 10 bc 75 08 97 bc a8 a8 57 3c ba c5 64 3c
       -0.008841113 -0.01843665 0.013162769 0.013963157
000180 65 cb 13 bd 33 c8 e8 bc e8 6f f6 3c 8f 3f 45 3b
       -0.036082644 -0.028415775 0.030082658 0.0030097698
000190 b5 58 04 be 32 62 cc bc 11 7a d7 3c 3a e6 93 bc
       -0.12924464 -0.024949167 0.026303323 -0.018054117
0001a0 cf 8d e2 39 a2 45 84 3c a8 29 2c be fe 6c 3d bc
       0.00043211735 0.016146485 -0.16812766 -0.01156163
0001b0 2f ad 28 bd 00 fc 93 bd c0 ab 98 3d 67 7b 34 be
       -0.041180786 -0.072257996 0.07454634 -0.176252
0001c0 1c c5 91 3d 1b 09 ea bd 6f 3a 02 ba 53 96 9f bd
       0.07117674 -0.11427518 -0.0004967814 -0.07792344
0001d0 1a 10 7b 3d b3 d1 d6 bd 24 1c 38 3a 61 19 94 bd
       0.061294653 -0.10489216 0.0007023236 -0.07231403
0001e0 3c 6e d4 3c 65 7c c0 3d 62 fa 90 bd 29 91 1a bd
       0.02593147 0.093987264 -0.07079007 -0.03773609
0001f0 7d 52 a9 3d 4c 7a ba bc 8a ca a3 3c 79 5d 28 3c
       0.082676865 -0.022763394 0.01999404 0.010276192
000200 fb 64 0e 3d a5 a2 13 bb 25 1b 8c bd d7 01 62 3b
       0.03476427 -0.0022527364 -0.06841115 0.003448596
000210 af b0 f2 3a 0e 67 67 3c 7c 97 cb bd 71 aa c8 bd
       0.001851579 0.014123691 -0.09941003 -0.09798134
000220 00 19 9a bc 50 36 b2 3d 3c 49 d7 bc 39 21 7d 3c
       -0.018810749 0.087017655 -0.026280038 0.015449815
000230 ab 27 24 3d 86 5f 58 bd 7c 93 47 3c 7f 0d 56 3d
       0.040076893 -0.052825473 0.012181159 0.052258965
000240 66 cf ed 3b 13 c8 4a bc bd c6 7a 3c 28 99 67 bd
       0.00725739 -0.012376803 0.015306172 -0.056542546
000250 0d 16 95 bd b4 ab cf 3c 4f d8 78 bd 4c 5b 02 be
       -0.072795965 0.02535043 -0.060753163 -0.1273014
000260 d8 5a a5 bd 20 6f 4e bc b8 b1 1e bc b8 8c ac bc
       -0.08073968 -0.012599736 -0.009685926 -0.021063194
000270 33 29 38 bc 93 6f c4 bc 3a 07 67 bc e1 c0 23 bc
       -0.011240291 -0.023978984 -0.014100844 -0.009994716
000280 b7 8e 2b ba c3 f3 6b bb 6c f8 03 3e 67 83 81 bd
       -0.00065443985 -0.0036003448 0.12887734 -0.06323891
000290 e2 67 36 bd bd e9 06 3e 62 93 e8 be e7 83 8b bd
       -0.044532664 0.13175102 -0.45424944 -0.06812268
0002a0 e5 f9 15 bd f0 84 65 be aa 6e f7 bc bc da 80 bd
       -0.03661527 -0.22413993 -0.030204136 -0.0629172
0002b0 bc 3a 97 bc 4c ff 16 3d 81 a1 e6 bc 9b e5 80 bd
       -0.018460624 0.036864564 -0.028153183 -0.06293794
0002c0 e7 60 88 3c 35 b3 e8 bd cb 8b 18 be a3 2a 24 3d
       0.01664777 -0.11362306 -0.14897077 0.040079724
0002d0 53 81 13 3b 67 87 18 bd a0 73 92 3b cb f8 d2 bd
       0.0022507503 -0.037238505 0.00446935 -0.1030136
0002e0 49 ac cb bd c9 ec be bd c0 26 19 3c b4 8a 33 bd
       -0.0994497 -0.09322507 0.009347618 -0.04383345
0002f0 6c f9 2b 3d 5a fd 66 3d d9 86 9f 3d 20 07 75 3d
       0.041985914 0.05639396 0.07789392 0.059821248
000300 a2 c9 b7 bd 5d b0 9f bd 8b 66 78 bd 29 5b 40 3e
       -0.08974005 -0.077973105 -0.060644668 0.18784775
000310 2c 3a 44 38 f9 5d ba be 66 2a af 3c 67 96 7a 3c
       4.678422e-05 -0.3639982 0.021382522 0.015294648
000320 39 f6 4c 3b 72 27 42 3b 10 38 23 be 4b 5f 02 3c
       0.003127469 0.0029625562 -0.15939355 0.00795729
000330 07 88 9b 3b dc c3 84 bb c0 9e af 3b 45 60 31 3e
       0.0047464403 -0.0040516686 0.0053595006 0.1732188
000340 6d 0d 28 be f1 bb 92 3d 23 6b 54 be d4 40 13 be
       -0.16411372 0.07164753 -0.20743994 -0.14380199
000350 59 b0 a8 3d c7 b1 9e 3d 8f 8d 16 bc 2b 2e b4 bd
       0.08236761 0.07748752 -0.009189024 -0.08797868
000360 3f 9f 7b bd 76 0a c4 3c 53 96 33 3d 02 ec 26 be
       -0.061431166 0.02393077 0.043844532 -0.16300967
000370 d9 a3 b9 3c c4 11 c3 3c eb 4b 98 bd df a2 97 bc
       0.022661136 0.023812182 -0.07436355 -0.01851028
000380 5d 5a 14 3e ea cd 7c bc f3 82 bf 3d cb d4 07 3e
       0.14487596 -0.015429953 0.093511485 0.13264768
000390 02 83 91 bd ff d7 37 bc 7f 09 8f bd d9 ea 68 3c
       -0.07105066 -0.011220931 -0.06984233 0.014216148
0003a0 3e 54 c9 bd a5 e5 26 be 0b 35 8a bd a7 71 97 bd
       -0.09830521 -0.1629854 -0.067483984 -0.07394724
0003b0 0f 6c 2a 3c 0d ea 8d bd 77 97 13 be 58 ce ce bb
       0.01040174 -0.06929407 -0.14413248 -0.006311219
0003c0 f0 0e 71 bd 69 f7 d5 bd de 78 0d bc c0 31 9c bc
       -0.058852136 -0.1044758 -0.008634774 -0.019066691
0003d0 d0 7c 24 be f8 27 9a 3c 22 25 81 3c 88 20 b2 bb
       -0.16063237 0.018817887 0.015764777 -0.005436007
0003e0 ed 4b 76 3b 34 7c e0 39 42 ea 54 be a7 dd 03 3c
       0.0037581876 0.00042817148 -0.20792487 0.0080484515
0003f0 7f e6 6c be 28 ff eb bd 1f 34 17 be bc 28 28 bd
       -0.23134802 -0.115232766 -0.14765976 -0.041054472

decoder.3.bias f4 [16]
000000 8c 82 f4 3c 06 78 32 3f 28 48 3f 3d 35 95 a9 3d
       0.029847406 0.6971439 0.046699673 0.08280412
000010 32 c7 f7 3d 63 76 92 bd f6 22 07 be f0 7d bb bb
       0.1209854 -0.07151487 -0.1319693 -0.0057218
000020 78 31 d5 3e 01 0a 3e bd 2f 8a 92 3e 5f 9c b8 be
       0.41639304 -0.04639626 0.2862105 -0.36056802
000030 2d 0a 33 3e c0 35 af bd c3 e4 f5 3c 22 2f 5c 3d
       0.1748435 -0.08555174 0.030016309 0.053755887

decoder.5.weight f4 [16, 1, 3, 3]
000000 0c 5e e5 3e 87 ff b0 3e c3 c3 80 bd 29 6f 9c 3e
       0.44798315 0.34569952 -0.062873386 0.30553558
000010 23 a7 56 bd 76 ac be be 5e c4 56 bd 68 9a ba be
       -0.052405488 -0.37240952 -0.052433364 -0.36445928
000020 03 b6 a2 be fb 6c 6f bb 25 35 88 bd 20 77 86 bd
       -0.3177949 -0.0036533463 -0.066507615 -0.0656569
000030 bc 71 63 bd 38 65 5e be 86 e3 29 be ab 10 39 bd
       -0.055528387 -0.217183 -0.165907 -0.04518191
000040 4e 56 1c be 5e 1d d6 bd 07 3f cf 3d 36 9b 5b 3e
       -0.15267298 -0.1045482 0.101194434 0.21445927
000050 93 fc 23 3e 49 ff 8c 3e 1d 50 f5 3e 47 53 99 3e
       0.16014318 0.27538517 0.47912684 0.29946348
000060 18 b7 49 3e 32 1f 9a 3e d0 60 27 3e 2e 47 59 3d
       0.19698751 0.30101925 0.16345525 0.053046398
000070 bd 00 a3 3e 85 08 8e 3e 02 e5 90 3e 10 6d 47 3f
       0.318365 0.27740875 0.2829972 0.7790079
000080 c2 71 0d 3f fd c0 50 3e d8 f8 f3 3e 4f f1 90 3e
       0.55251706 0.20386119 0.4765079 0.28309104
000090 a4 8a 0d be c5 4a db be c8 19 9d be 2e 69 78 be
       -0.13822418 -0.42830482 -0.30683732 -0.24258873
0000a0 77 07 2f bf 8f 51 f5 be d6 10 1f be 8d 6f c7 be
       -0.68370765 -0.47913787 -0.15533766 -0.38952294
0000b0 7a a5 66 be 62 6c e0 bd 1f 4d 9c be 50 5a 7c be
       -0.22524062 -0.109581724 -0.3052759 -0.24643826
0000c0 41 e2 b3 be 71 17 26 bf 8c 9f e0 be 45 a6 70 be
       -0.35133556 -0.6487952 -0.43871725 -0.23500927
0000d0 d1 c7 c7 be 20 63 6b be 48 12 2a be a6 c4 b7 be
       -0.39019635 -0.22987032 -0.16608536 -0.35892218
0000e0 35 ce 8c be 02 a2 98 3e ce 70 6a 3e ad 80 ab 3d
       -0.27501073 0.29811102 0.22894594 0.08374152
0000f0 54 26 26 be ab f7 86 bd 07 5c 09 be 67 82 76 3d
       -0.16225559 -0.06590208 -0.13414012 0.060182955
000100 83 57 47 3e 62 41 24 3e 15 a9 42 3e 93 40 f5 3e
       0.19466977 0.16040567 0.19009812 0.4790083
000110 20 44 ab 3e ea f8 13 3e 60 4e af 3e e4 7d 57 3e
       0.33450413 0.14450422 0.34239483 0.21044117
000120 6e 41 bd bc ef c6 f1 bd ea bb ce bd 26 28 da bd
       -0.023102488 -0.11805522 -0.100944355 -0.10652189
000130 71 0c 9a be af 75 63 be 57 4f ce bd c8 5d 5c be
       -0.30087617 -0.22212861 -0.100737266 -0.2152015
000140 04 07 21 be b8 f5 ee 39 cf 39 52 3e 99 5f 4f 3e
       -0.15725332 0.00045577972 0.20529865 0.20251311
000150 6c f7 d3 3d 59 67 f6 3e e3 69 bb 3e dc c1 84 3d
       0.10349926 0.48125723 0.36604223 0.06482288
000160 d7 c8 8b 3e a1 54 36 3e 84 b4 0b be be fa 6d be
       0.27301666 0.17805721 -0.1364308 -0.23240182
000170 77 79 45 be d5 02 10 3c 99 16 32 bd 04 fc 0d be
       -0.19284616 0.008789738 -0.043478582 -0.13865668
000180 ba 8e 2d 3e d5 03 4d 3e ec 3e 15 3d 99 6f 22 be
       0.16948977 0.20020993 0.03643696 -0.15862884
000190 06 49 cd be 7d d4 46 be 1f 0c e8 be d9 b7 4b bf
       -0.40094775 -0.19416995 -0.45321748 -0.79577404
0001a0 17 9d 9f be db eb 99 be f4 47 dd be db a7 d8 bd
       -0.31174538 -0.30062756 -0.43218958 -0.10578891
0001b0 ae 6b ff 3b 70 9a e0 bd 20 fe c2 bd 1a fe da bd
       0.007794819 -0.109669566 -0.09521127 -0.10692997
0001c0 79 61 bd be d7 a6 80 be 59 a6 43 be 5b 4e cf be
       -0.36988428 -0.2512729 -0.19106425 -0.40489468
0001d0 c3 43 78 be cf 3f aa be e6 cb cb be 76 c0 a5 bd
       -0.24244599 -0.33251807 -0.39804 -0.0809335
0001e0 1c 56 17 bf f3 cc 12 bf b4 44 00 bd 73 c0 b3 be
       -0.5911577 -0.5734398 -0.03131552 -0.35107765
0001f0 35 51 69 be 08 cb 8d 3d 7b c2 9c 3e d0 2b 23 3e
       -0.22784884 0.06923491 0.30617127 0.15934682
000200 ac 9c 82 bd c3 2f 33 3e 63 1d 01 be b8 a9 96 be
       -0.06377539 0.17498688 -0.12608866 -0.2942636
000210 92 97 64 bd 87 a6 97 be 39 79 84 be db bd 94 be
       -0.05580861 -0.29619238 -0.25873736 -0.29051098
000220 74 bb c5 be c0 f2 34 be f0 20 b6 be 4c 08 d7 be
       -0.38619578 -0.17670727 -0.35572004 -0.41998518
000230 2f 9d 1e be f6 35 1b be c8 82 21 be 0e dc a0 bc
       -0.15489648 -0.15157303 -0.15772545 -0.01963618
