models/model_b1.pt (torch, 199311 bytes, 11 tensors)

encoder.0.weight f4 [16, 1, 3, 3]
-0.09980675 0.2727462 -0.1202817 0.17087737 0.23102336 -0.25218114 -0.022128753 0.009695402
-0.20761703 -0.08257814 -0.19899571 0.15101662 -0.10055935 -0.35458347 0.11538488 -0.22609453
0.17624578 0.30516136 -0.1837544 0.1560448 -0.017693983 0.12329673 -0.282795 -0.17803714
0.2470765 -0.185733 -0.0905853 0.3050069 0.04151698 -0.27788264 0.17891392 0.032435156
-0.19347505 0.22468616 -0.24399896 0.09242392 -0.048910227 -0.07406864 0.21373673 -0.19130155
0.36673138 0.31778583 -0.23674934 -0.030966353 -0.13848752 -0.21676165 0.3585016 0.18994565
-0.103929065 0.15957925 -0.044389516 -0.12114814 0.3472187 0.0799303 -0.030113285 0.048346005
-0.27329344 -0.19773339 -0.0057958975 -0.38612735 0.3044749 0.05234262 0.28516772 -0.11582135
-0.21048862 -0.06204872 -0.30427974 0.2410158 0.0997382 0.13347287 0.23442443 0.21135937
-0.19607386 0.19618899 0.04883098 0.19243667 -0.09943143 -0.28863978 0.32905313 -0.04824913
-0.26849324 0.026644094 0.03193966 0.40564296 -0.36740485 -0.14027081 0.29910892 -0.12627275
-0.41459066 0.14110391 0.0377093 0.022471702 0.04114958 0.19218957 0.06812746 0.10583907
0.20413437 -0.11964296 0.17517808 0.12655886 0.31198296 -0.25159207 0.046909835 0.27232435
0.17295572 -0.49678838 0.13921499 0.08038959 -0.3688587 0.11150554 -0.11330819 0.21780984
0.18036084 0.15143739 -0.02630795 0.13738982 -0.18013006 0.27589783 0.06139159 0.35007364
0.09802053 -0.12376238 -0.094880834 -0.2686466 0.111900315 -0.22968653 0.16125081 -0.060433365
-0.2717371 0.012188182 0.037860326 0.092957854 -0.057376567 0.23436046 0.17128843 0.26256856
0.1172608 -0.09758912 0.12975278 0.108765416 -0.09367861 -0.057959646 0.17103036 -0.1446796
00000000: 7b67 ccbd 64a5 8b3e 4056 f6bd 7afa 2e3e
00000010: 6391 6c3e e31d 81be 5c47 b5bc 77d9 1e3c
00000020: 8f99 54be ba1e a9bd 88c5 4bbe 1aa4 1a3e
00000030: 0ff2 cdbd f78b b5be e84e ec3d 5385 67be
00000040: c679 343e 1c3e 9c3e 1d2a 3cbe 35ca 1f3e
00000050: f9f2 90bc ff82 fc3d 82ca 90be 5e4f 36be
00000060: 9f01 7d3e cb30 3ebe c984 b9bd dd29 9c3e
00000070: b50d 2a3d a246 8ebe 3635 373e bada 043d
00000080: 531e 46be 2114 663e ddda 79be c148 bd3d
00000090: 1756 48bd 4db1 97bd cddd 5a3e 8ee4 43be
000000a0: 37c4 bb3e d3b4 a23e 6b6e 72be 26ad fdbc
000000b0: accf 0dbe c4f6 5dbe 868d b73e 1d81 423e
000000c0: c3d8 d4bd be68 233e c8d1 35bd 841c f8bd
000000d0: a6c6 b13e 7fb2 a33d 23b0 f6bc 7606 463d
000000e0: 1eed 8bbe 9f7a 4abe 83eb bdbb 7cb2 c5be
000000f0: 22e4 9b3e 3765 563d 8101 923e be33 edbd
00000100: 548a 57be cc26 7ebd 8eca 9bbe d9cc 763e
00000110: 8b43 cc3d 1dad 083e f50c 703e 976e 583e
00000120: 96c7 48be c4e5 483e fe02 483d 1e0e 453e
00000130: b5a2 cbbd 98c8 93be a779 a83e e1a0 45bd
00000140: f277 89be b744 da3c 29d3 023d 6fb0 cf3e
00000150: 7d1c bcbe 27a3 0fbe ce24 993e a54d 01be
00000160: 3a45 d4be 8b7d 103e 1175 1a3d 9316 b83c
00000170: 768c 283d 58cd 443e 6986 8b3d 28c2 d83d
00000180: 9a08 513e 5e07 f5bd e261 333e a598 013e
00000190: 3bbc 9f3e add0 80be 8724 403d 196e 8b3e
000001a0: 4e1b 313e 0c5b febe 608e 0e3e 4ca3 a43d
000001b0: 0cdb bcbe 045d e43d 200e e8bd 8b09 5f3e
000001c0: 83b0 383e 6712 1b3e c583 d7bc ebaf 0c3e
000001d0: 0474 38be 7b42 8d3e bf75 7b3d da3c b33e
000001e0: fdbe c83d 2177 fdbd e250 c2bd 0c8c 89be
000001f0: fe2b e53d f232 6bbe ef1e 253e fa88 77bd
00000200: 2021 8bbe f1b0 473c 6e13 1b3d b060 be3d
00000210: b103 6bbd 30fc 6f3e 3c66 2f3e 636f 863e
00000220: 6e26 f03d cedc c7bd eadd 043e 67c0 de3d
00000230: 92da bfbd 1867 6dbd 9522 2f3e e426 14be

encoder.0.bias f4 [16]
-0.022721149 -0.1677758 0.20634174 0.15317929 0.19016884 0.040231884 -0.10145256 0.20053023
-0.14041078 -0.15503737 0.26470324 -0.023367139 0.123362176 0.17584388 0.3067214 0.38860145
00000000: b421 babc 6bcd 2bbe 404b 533e 08db 1c3e
00000010: 9fbb 423e 30ca 243d 5cc6 cfbd cc57 4d3e
00000020: d8c7 0fbe 1ec2 1ebe 2f87 873e 716c bfbc
00000030: 4fa5 fc3d 6b10 343e 960a 9d3e c5f6 c63e

encoder.2.weight f4 [32, 16, 3, 3]
0.020811431 -0.12452235 -0.031804867 -0.0040146634 -0.14931709 -0.03097755 0.0025533852 0.026138553
0.023414303 -0.038279757 -0.14919749 -0.07842484 0.07239802 0.14054032 0.18141271 0.02473492
0.010474217 -0.035945337 0.0079618115 0.05173793 0.03501705 0.01514553 0.02982118 0.027832193
-0.06950769 -0.13442504 -0.010150781 0.0013955494 -0.00793622 0.048723765 -0.030421143 -0.18753602
-0.107619844 0.08486334 0.10653884 0.042757165 0.042162683 -0.10666351 -0.11204423 -0.07153449
-0.1034981 -0.048320286 0.047197457 0.121287495 0.12703128 0.036075752 -0.057758085 -0.019299675
0.017176572 0.023987915 -0.05610818 -0.09317182 -0.093498446 -0.1759576 -0.06354908 -0.08754156
-0.0357495 0.05702292 0.19794932 0.20128663 0.09606213 0.08426775 -0.00392946 -0.09652373
-0.12115005 -0.12188407 0.005587821 0.056267552 0.013547014 0.10090876 0.18940876 0.14179873
0.052766837 -0.11167685 -0.042511154 -0.11088005 -0.06905661 0.06896068 -0.01558953 0.18137826
0.028150855 -0.11789423 -0.09604189 0.031192962 -0.13848159 -0.121879354 -0.17144276 0.032848634
-0.043780383 4.992282e-05 -0.024292493 -0.016571919 0.011639852 -0.030391036 -0.0750865 0.08908171
0.049111396 0.02911485 0.04130334 -0.068858765 -0.058190107 0.09814795 -0.07993193 -0.042942207
0.14199625 0.12336981 -0.017193062 0.030780407 -0.07141319 -0.15289669 -0.16314055 -0.09314904
-0.03839099 -0.076300964 0.06833642 0.21871267 0.16771519 0.0786526 -0.06245435 -0.16447087
-0.056434657 -0.063794985 -7.7615354e-05 0.031188447 0.041403838 0.09273754 0.020004142 -0.062817045
0.08797006 0.055996496 0.10801598 0.08614865 0.12018468 0.2438228 0.09225738 -0.027210468
-0.070336916 -0.13356955 -0.09227512 0.030280747 0.020418346 0.024903705 0.07365099 0.07976245
0.13192151 0.07128948 -0.0077472245 0.041127693 0.041241508 -0.051613785 -0.0682912 -0.06361743
-0.047549907 0.23614393 0.032376856 -0.17497833 0.07654353 -0.09978964 -0.13210668 0.060729258
-0.09363121 0.038802322 -0.04090614 -0.02089438 0.14552839 0.00095031114 -0.008905551 0.07436981
-0.04652349 -0.061649363 -0.029588027 -0.065163076 0.22863741 0.067087814 0.18043251 0.15316835
0.045780353 0.025785934 0.006317096 -0.16779701 0.03761695 0.063209504 -0.0981081 0.1272345
0.049064744 -0.22343455 0.09502108 -0.04383035 -0.059657857 0.15836893 0.121561244 0.14564057
0.07133297 0.14843957 0.11625289 0.03744808 -0.03030754 -0.14625555 -0.17810987 -0.17729503
-0.17728958 -0.20253055 -0.046318058 0.013023296 -0.038610112 0.07778551 0.12746389 0.10238757
-0.025499517 -0.11282919 0.03263385 -0.033400882 -0.25684348 -0.039692186 -0.0123773515 0.05123017
0.018028216 0.021885166 -0.041092202 -0.11392041 0.040962446 -0.01183337 0.002365138 -0.005785068
-0.0983725 -0.054125212 -0.010955828 -0.1154472 -0.14214356 -0.28156692 -0.10598632 -0.01046676
-0.14441024 -0.18937044 0.009629249 -0.014063321 -0.10733793 0.070985295 -0.0045277025 -0.053665306
0.13206252 0.008026664 -0.083852455 -0.14214946 -0.09539434 -0.032582536 -0.114683755 -0.08621277
0.1471205 0.05593465 0.0010458456 -0.017278178 0.10715472 0.10001536 -0.23978482 0.11808156
00000000: bc7c aa3c 9305 ffbd d245 02bd 708d 83bb
00000010: 94e6 18be a2c4 fdbc b256 273b 8520 d63c
00000020: 5acf bf3c 3ccb 1cbd 3ac7 18be 349d a0bd
00000030: 6a45 943d cde9 0f3e 41c4 393e e3a0 ca3c
00000040: 0d9c 2b3c 6b3b 13bd 4272 023c 27eb 533d
00000050: 0a6e 0f3d f524 783c 8c4b f43c 5700 e43c
00000060: 0c5a 8ebd b8a6 09be 764f 26bc deea b63a
00000070: eb06 02bc 9292 473d c335 f9bc 7109 40be
00000080: cb67 dcbd d5cc ad3d 0931 da3d 2322 2f3d
00000090: c7b2 2c3d 6672 dabd 7277 e5bd ad80 92bd
000000a0: d0f6 d3bd 7eeb 45bd 1f52 413d 9465 f83d
000000b0: 7d14 023e 2bc4 133d be93 6cbd 5a1a 9ebc
000000c0: e2b5 8c3c 4e82 c43c b1d1 65bd ded0 bebd
000000d0: 1d7c bfbd 3b2e 34be 0526 82bd fd48 b3bd
000000e0: 116e 12bd de90 693d 3ab3 4a3e 151e 4e3e
000000f0: 39bc c43d 9294 ac3d b3c2 80bb 3cae c5bd
00000100: 841d f8bd 5b9e f9bd 0a1a b73b ce78 663d
00000110: 4cf4 5d3c 41a9 ce3d 5ff4 413e b033 113e
00000120: 0a22 583d d5b6 e4bd 2d20 2ebd 1415 e3bd
00000130: 8d6d 8dbd 423b 8d3d 3a6b 7fbc 39bb 393e
00000140: 9f9c e63c 8872 f1bd 9cb1 c4bd 6288 ff3c
00000150: 1ece 0dbe e29b f9bd b18e 2fbe 4a8c 063d
00000160: 0f53 33bd 3864 5138 0d01 c7bc d5c1 87bc
00000170: 14b5 3e3c 9ff6 f8bc f3c6 99bd 7970 b63d
00000180: 0829 493d 4482 ee3c b12d 293d d305 8dbd
00000190: c058 6ebd cb01 c93d 5ab3 a3bd 2be4 2fbd
000001a0: 7767 113e 50a9 fc3d 77d8 8cbc 3127 fc3c
000001b0: 1441 92bd f390 1cbe 510e 27be edc4 bebd
000001c0: df3f 1dbd ae43 9cbd f7f3 8b3d 37f6 5f3e
000001d0: 88bd 2b3e 9d14 a13d 22d0 7fbd 0d6b 28be
000001e0: 0728 67bd f2a6 82bd 6dc5 a2b8 ea7e ff3c
000001f0: 1297 293d 2eed bd3d badf a33c 39a6 80bd
00000200: a629 b43d 955c 653d 7b37 dd3d b46e b03d
00000210: 6323 f63d afac 793e 70f1 bc3d 7de8 debc
00000220: cd0c 90bd 75c6 08be bdfa bcbd 540f f83c
00000230: 6044 a73c db02 cc3c 55d6 963d 7f5a a33d
00000240: 6f16 073e 3800 923d 6edc fdbb 8375 283d
00000250: dbec 283d fa68 53bd 42dc 8bbd db49 82bd
00000260: b1c3 42bd b7cf 713e 989d 043d 852d 33be
00000270: dbc2 9c3d 835e ccbd f946 07be 3ebf 783d
00000280: b8c1 bfbd 2fef 1e3d 328d 27bd b12a abbc
00000290: 6505 153e 4d1e 793a 97e8 11bc 334f 983d
000002a0: 6a8f 3ebd 0b84 7cbd 9762 f2bc 3874 85bd
000002b0: ed1f 6a3e 5665 893d 4dc3 383e 2ad8 1c3e
000002c0: 2e84 3b3d 063d d33c a4ff ce3b fbd2 2bbe
000002d0: 3b14 1a3d fc73 813d e6ec c8bd c349 023e
000002e0: 1df8 483d 07cc 64be 699a c23d 7487 33bd
000002f0: cc5b 74bd 772b 223e 1af5 f83d cd22 153e
00000300: 0517 923d 8b00 183e ff15 ee3d 2863 193d
00000310: 8547 f8bc 04c4 15be 6f62 36be d48c 35be
00000320: 668b 35be 2b64 4fbe 01b8 3dbd aa5f 553c
00000330: a325 1ebd 024e 9f3d e585 023e 93b0 d13d
00000340: 5de4 d0bc fe12 e7bd 12ab 053d 5dcf 08bd
00000350: fd80 83be 4694 22bd 60ca 4abc bad6 513d
00000360: e9af 933c 8548 b33c 4c50 28bd 1b4f e9bd
00000370: 3dc8 273d c0e0 41bc 6e00 1b3b ab90 bdbb
00000380: 8577 c9bd 66b2 5dbd 1380 33bc 956f ecbd
00000390: 158e 11be 8a29 90be 5b0f d9bd c67c 2bbc
000003a0: 47e0 13be 53ea 41be ffc3 1d3c d869 66bc
000003b0: fdd3 dbbd bd60 913d 1f5d 94bb 27d0 5bbd
000003c0: 663b 073e 4582 033c d6ba abbd a18f 11be
000003d0: 1c5e c3bd 4475 05bd 51df eabd 5290 b0bd
000003e0: c2a6 163e bb1b 653d c114 893a f78a 8dbc
000003f0: ef73 db3d dad4 cc3d 278a 75be bfd4 f13d

encoder.2.bias f4 [32]
-0.03518892 -0.07901695 0.03828612 -0.005387358 0.049031556 0.023796372 -0.009362373 -0.019481074
0.12637913 0.030378275 -0.023115553 -0.06147391 0.085073695 0.09026118 -0.057595234 -0.01650958
-0.03867859 0.056201752 0.048329875 -0.041920688 -0.0032684696 -0.08678388 0.052082673 -0.072275415
0.029494796 -0.051629998 0.011551475 0.00539931 0.0445196 -0.02054848 0.054094378 -0.028849091
00000000: 4222 10bd a4d3 a1bd e8d1 1c3d 6f88 b0bb
00000010: 50d5 483d 9cf0 c23c a364 19bc c696 9fbc
00000020: 8869 013e dcdb f83c d45c bdbc 11cc 7bbd
00000030: 1e3b ae3d dbda b83d fbe8 6bbd 193f 87bc
00000040: 716d 1ebd cf33 663d 8cf5 453d 07b5 2bbd
00000050: d233 56bb bfbb b1bd a454 553d 2205 94bd
00000060: 129f f13c fa79 53bd 6642 3d3c b2ec b03b
00000070: 2f5a 363d 4955 a8bc 1192 5d3d ee54 ecbc

encoder.5.weight f4 [12, 1568]
0.023284288 -0.045798633 0.022672398 0.09246593 0.023311894 0.095326975 -0.01246106 0.016326496
-0.013751489 -0.037828606 -0.004722966 -0.025152499 -0.022080356 -0.07293321 0.18368086 0.004338934
-0.030501977 0.054398715 -0.05605898 -0.1381565 -0.112094216 0.001808299 0.010399996 0.09705663
0.036697756 -0.03796356 0.039024416 0.041358285 0.077594295 -0.09077202 0.024489341 -0.014246377
-0.060382377 -0.059800357 -0.046091627 0.009013572 -0.04712809 0.14526464 0.14331527 -0.0039755963
-0.1632684 -0.097422175 -0.0067491913 0.04146985 0.006892835 0.17732288 -0.36057726 -0.10904874
0.15289465 0.0023188735 -0.006103453 0.012243307 0.014769134 -0.042884476 0.028065419 -0.01793775
0.021086007 -0.06163623 -0.054897834 0.13909575 0.06489806 0.037436508 0.02930586 0.008435763
-0.17668064 0.053450022 -0.014905682 0.058124844 0.024119822 -0.07619952 -0.03920649 -0.0073897433
-0.031126091 -0.024460776 0.12457262 -0.016534403 0.022334488 -0.027256772 -0.057139974 0.032505937
-0.003356945 -0.015486013 0.13977227 0.060187522 -0.0082310485 -0.0790551 0.017796515 0.00082255155
0.060280755 0.08372697 0.045090985 -0.032407675 -0.11098914 0.19917677 0.03848395 0.003400872
-0.07338009 0.013007611 -0.0045021963 -0.02797953 -0.0075570005 0.035011955 0.039547436 0.010176861
-0.030912528 -0.0356055 0.0074343323 0.099467 0.06489149 0.09878796 -0.027967542 -0.07003338
0.07679842 0.007903028 -0.016614078 -0.0033907548 0.04466178 -0.08930305 -0.15752101 0.08677843
-0.039307207 -0.034832183 0.042613357 0.045781467 0.11788202 0.035711564 0.08182278 0.054286484
0.024998821 -0.07796986 0.0963756 0.104158066 0.06768122 0.022001762 0.07187413 0.10779022
0.06817006 0.030007167 -0.0060781194 0.010495131 -0.04586317 0.08266487 -0.009144755 -0.06328575
-0.13680278 -0.057756487 0.017448345 0.037214056 0.02493737 0.032584697 0.10828547 0.015003487
0.018110411 0.0334081 0.039736357 -0.022549197 0.0017617617 0.0038621451 -0.038338352 -0.023047939
0.037394665 0.046656556 -0.030001195 -0.010145688 0.13135952 0.061494414 -0.17511371 0.050164647
0.013240126 0.019713743 0.016658284 0.003298149 0.09160627 0.044070743 0.021172645 0.10257335
0.043779302 -0.0014734748 -0.03332191 0.15466768 0.066160575 0.050833397 0.010814756 0.021892617
-0.032529175 -0.064958066 0.0020236364 0.01148233 -0.014446988 -0.023307044 -0.0011720181 0.06963505
0.00019226936 -0.21455467 0.023491513 -0.004930757 0.0023719107 0.008376991 -0.00064598676 0.14823513
0.08283022 -0.09601743 -0.013747728 0.0089538945 -0.1047752 0.007661117 -0.0006271545 0.045490652
0.0030142523 -0.059674516 -0.01710017 -0.044060107 0.0058360077 0.12460975 -0.035097666 0.05381768
-0.025668869 -0.012343653 -0.005833419 -0.07134626 0.04554777 -0.017206635 0.1448409 0.04148547
0.0026340107 0.05348137 0.037239365 -0.043914605 -0.17127463 0.08107218 0.048882376 0.014872716
0.0128886355 0.09236282 0.04757194 -0.084716104 -0.00563605 -0.0053294236 -0.029945347 0.030551225
0.043905966 0.07807075 -0.09686078 -0.107347935 0.0060067736 0.0177956 0.0067379135 0.0025399413
0.05497442 0.031215614 -0.023892418 -0.009425651 -0.016575111 0.0517568 0.03777985 0.00030275917
00000000: b1be be3c 5997 3bbd 77bb b93c c75e bd3d
00000010: 96f8 be3c ca3a c33d 7929 4cbc 25bf 853c
00000020: ed4d 61bc 2bf2 1abd 1cc3 9abb 9d0c cebc
00000030: dde1 b4bc 025e 95bd d616 3c3e 9e2d 8e3b
00000040: 48df f9bc 30d1 5e3d 1a9e 65bd e678 0dbe
00000050: a791 e5bd 7204 ed3a bf64 2a3c a0c5 c63d
00000060: 6350 163d ae7f 1bbd 11d8 1f3d 4e67 293d
00000070: c2e9 9e3d aee6 b9bd df9d c83c a369 69bc
00000080: 8353 77bd 38f1 74bd 93ca 3cbd a9ad 133c
00000090: 6209 41bd 41c0 143e 3dc1 123e b845 82bb
000000a0: d52f 27be 4785 c7bd 5228 ddbb 4adc 293d
000000b0: 4add e13b 2194 353e 959d b8be f254 dfbd
000000c0: 6a90 1c3e 3ef8 173b 7aff c7bb 2798 483c
000000d0: 3dfa 713c a2a7 2fbd 73e9 e53c 30f2 92bc
000000e0: 90bc ac3c 4676 7cbd 8ddc 60bd 1e6f 0e3e
000000f0: 46e9 843d 0657 193d d812 f03c 2836 0a3c
00000100: c5eb 34be 69ee 5a3d f636 74bc 5114 6e3d
00000110: ef96 c53c 7e0e 9cbd fc96 20bd a925 f2bb
00000120: 25fc febc f761 c8bc ee1f ff3d 2873 87bc
00000130: d1f6 b63c 9849 dfbc 9b0b 6abd f224 053d
00000140: 3100 5cbb 0cb9 7dbc 7620 0f3e 3187 763d
00000150: 85db 06bc a4e7 a1bd ffc9 913c 80a0 573a
00000160: f4e8 763d 0c79 ab3d 53b1 383d e9bd 04bd
00000170: 464e e3bd fff4 4b3e 59a1 1d3d 2ae1 5e3b
00000180: 4d48 96bd e01d 553c 2987 93bb 5435 e5bc
00000190: b7a0 f7bb b268 0f3d 7efc 213d d9bc 263c
000001a0: 453c fdbc 13d7 11bd b39b f33b 5bb5 cb3d
000001b0: d4e5 843d 5851 ca3d 301c e5bc a96d 8fbd
000001c0: 7d48 9d3d b47b 013c 3f1a 88bc 6d37 5ebb
000001d0: 45ef 363d 84e4 b6bd 304d 21be e4b8 b13d
000001e0: 9800 21bd 31ac 0ebd 588b 2e3d 5985 3b3d
000001f0: 216c f13d 4a46 123d b492 a73d 815b 5e3d
00000200: 54ca cc3c a9ae 9fbd 9260 c53d d350 d53d
00000210: 749c 8a3d 0a3d b43c be32 933d 1ec1 dc3d
00000220: bf9c 8b3d 97d1 f53c f62a c7bb c5f3 2b3c
00000230: 05db 3bbd 334c a93d e2d3 15bc f69b 81bd
00000240: 0716 0cbe 1192 6cbd d5ef 8e3c c46d 183d
00000250: 7549 cc3c 8877 053d c6c4 dd3d 2fd1 753c
00000260: 495c 943c efd6 083d 97c2 223d 18b9 b8bc
00000270: eaea e63a 0b1c 7d3b ad08 1dbd 08cf bcbc
00000280: 262b 193d f21a 3f3d 11c5 f5bc 1a3a 26bc
00000290: 1c83 063e 91e1 7b3d 0251 33be 7279 4d3d
000002a0: 1ded 583c b77e a13c f476 883c c225 583b
000002b0: 119c bb3d 8683 343d 4172 ad3c fa11 d23d
000002c0: ed51 333d 9c21 c1ba 8e7c 08bd 3461 1e3e
000002d0: 327f 873d ae36 503d 6030 313c 2558 b33c
000002e0: 503d 05bd bc08 85bd fc9e 043b 6220 3c3c
000002f0: 0fb3 6cbc 6aee bebc 679e 99ba d29c 8e3d
00000300: ea9b 4939 38b4 5bbe 4671 c03c 3092 a1bb
00000310: 0f72 1b3b a63f 093c 7057 29ba f3ca 173e
00000320: e4a2 a93d c9a4 c4bd 273e 61bc 5bb3 123c
00000330: 6194 d6bd 1b0a fb3b a067 24ba 6854 3a3d
00000340: c38a 453b 446d 74bd a815 8cbc 5f78 34bd
00000350: fb3b bf3b 6633 ff3d 92c2 0fbd ed6f 5c3d
00000360: 8547 d2bc 083d 4abc 4426 bfbb fd1d 92bd
00000370: 4c90 3a3d eef4 8cbc 2c51 143e abec 293d
00000380: 5e9f 2c3b 480f 5b3d 4e88 183d cddf 33bd
00000390: 9e62 2fbe 2c09 a63d e338 483d b1ac 733c
000003a0: db2a 533c b828 bd3d cbda 423d a37f adbd
000003b0: 9dae b8bb 72a2 aebb f24f f5bc 9046 fa3c
000003c0: bed6 333d 8fe3 9f3d f25e c6bd 3cd9 dbbd
000003d0: 78d4 c43b 14c8 913c b7c9 dc3b 2575 263b
000003e0: dc2c 613d e3b7 ff3c 08ba c3bc 0c6e 1abc
000003f0: 87c8 87bc f0fe 533d 0bbf 1a3d a6bb 9e39

encoder.5.bias f4 [12]
0.001990555 -0.007022252 -0.00095518125 0.049744803 -0.004057163 -0.022870323 0.0014878644 -0.0006225012
0.013630406 -0.0031211432 -0.006268009 0.0062722946
00000000: f973 023b eb1a e6bb 2165 7aba 35c1 4b3d
00000010: f3f1 84bb 8b5a bbbc 7204 c33a 592f 23ba
00000020: 1152 5f3c 188c 4cbb df63 cdbb d287 cd3b

decoder.0.weight f4 [1568, 12]
-0.13572046 -0.2894781 0.04730418 0.056243643 0.1487843 -0.12876686 -0.15213469 -0.09090126
-0.23942818 0.06581421 0.027918998 -0.087172225 -0.56362057 -1.5718203 0.71522593 -0.8452594
0.3003688 0.1272865 0.44506443 0.8885214 -0.95393616 -1.1192684 -1.1239927 0.14904192
-0.4066138 -1.0573357 0.4573083 -0.55677575 0.21943331 0.07850933 0.27413487 0.5684412
-0.655814 -0.66304535 -0.70099026 0.16841269 0.14009835 0.17059489 -0.02002293 0.14278089
0.04452903 -0.06566356 -0.06534605 -0.21082506 0.18750124 0.23450166 0.09217255 0.046881627
-0.27341732 -1.14399 0.39572966 -0.35374698 0.27927816 -0.11903704 0.30914134 0.58446264
-0.74979365 -0.8732435 -0.7834226 0.3116204 -0.2075286 0.35467058 -0.019842992 -0.2805588
-0.15124126 0.15819795 -0.16283561 -0.23656802 -0.05629428 0.055360273 0.13987425 0.32409978
-0.44300455 -1.2575836 0.53497297 -0.39850953 0.24783264 -0.119844235 0.22364417 0.70550746
-0.6542816 -0.8232726 -0.7763652 0.017145 0.19787006 0.27295488 -0.124161735 0.34960368
-0.0717794 0.02551831 0.05981722 -0.21498127 0.12590578 0.1285801 0.28462496 0.15114732
0.09625302 0.353932 -0.18583852 0.30716482 -0.014095173 -0.07574818 -0.12610666 -0.44607162
0.15803678 0.33404082 0.43473348 0.09581326 0.11686234 0.08784886 -0.08826786 0.17263128
0.09865408 -0.03095242 -0.19374076 -0.13758522 0.060640603 0.12802096 0.15184326 -0.09136418
-0.06169738 -0.14506046 -0.17620042 -0.22670947 -0.15561573 -0.045711588 -0.2035681 0.26038173
0.06868885 0.2613151 -0.14157897 0.092237525 0.042676955 -0.14943425 0.19748747 0.45818895
0.03087875 -0.037303135 -0.16252829 -0.107769564 -0.0007982035 0.20523216 0.36750308 -0.42216206
-0.35203427 -0.28870633 -0.09804818 0.15810177 -0.025504872 -0.08836291 0.009339397 -0.14972849
0.025484981 -0.26323614 0.04598099 0.08202465 -0.044922393 0.18586984 0.14876431 0.26660556
-0.033871975 -0.16855882 -0.1459708 -0.24611801 0.2580052 0.002148214 0.19366662 0.04815812
-0.5098289 -1.4230658 0.5861875 -0.61181605 0.31033224 0.029374765 0.26036528 0.67652076
-0.85434073 -0.8586602 -0.81651014 0.08680139 0.07033713 0.0109220715 -0.27677327 0.037023045
0.40472338 0.19816586 0.40582997 -0.1813575 0.09023542 -0.29262558 -0.38365582 0.3237649
-0.12616421 -0.73992884 0.25726888 -0.24675773 0.20706591 0.0052393544 0.31768954 0.31283563
-0.4479101 -0.3622804 -0.50484407 0.32129028 -0.071984656 0.16527274 0.053752843 -0.052754268
-0.039811485 -0.04718354 -0.41056263 0.20634261 0.33321863 0.10347831 0.037897367 -0.2117773
-0.060778067 -0.5849633 0.39628854 -0.23233171 0.28245696 -0.028998693 0.15205817 0.29327235
-0.09497015 -0.5988866 -0.45712578 0.04381306 0.14158636 0.112498924 -0.22930686 0.07185673
0.1011703 -0.011128643 0.33776453 -0.3060789 -0.32984638 -0.3217092 0.16400045 -0.02684826
0.012433776 0.028134368 -0.053534865 -0.2604705 -0.21677686 0.2015204 -0.15754262 -0.014653523
-0.058818646 -0.04479959 0.19990262 -0.0896922 0.07516817 0.29846776 -0.1373283 0.1456754
00000000: 4efa 0abe 7936 94be 07c2 413d bc5f 663d
00000010: e95a 183e 76db 03be 32c9 1bbe 712a babd
00000020: a92c 75be 9ac9 863d 62b6 e43c 5a87 b2bd
00000030: 7049 10bf 6831 c9bf 0c19 373f ec62 58bf
00000040: f0c9 993e 6457 023e 7cdf e33e 2376 633f
00000050: 2935 74bf 3044 8fbf fede 8fbf 729e 183e
00000060: af2f d0be c756 87bf 5024 ea3e db88 0ebf
00000070: 20b3 603e 80c9 a03d 685b 8c3e 5d85 113f
00000080: 6de3 27bf 57bd 29bf 1974 33bf 6074 2c3e
00000090: f175 0f3e 6db0 2e3e 2107 a4bc 2735 123e
000000a0: 1264 363d 9e7a 86bd 26d4 85bd 86e2 57be
000000b0: 5300 403e 3421 703e f6c4 bc3d f306 403d
000000c0: 5bfd 8bbe 446e 92bf 149d ca3e 531e b5be
000000d0: 8cfd 8e3e b1c9 f3bd c647 9e3e 589f 153f
000000e0: 7af2 3fbf e38c 5fbf 628e 48bf b68c 9f3e
000000f0: 6182 54be 6297 b53e c58d a2bc 67a5 8fbe
00000100: fdde 1abe a5fe 213e 61be 26be e33e 72be
00000110: d594 66bd 74c1 623d 323b 0f3e 68f0 a53e
00000120: 7ed1 e2be 80f8 a0bf fdf3 083f 7109 ccbe
00000130: d7c7 7d3e e570 f5bd fa02 653e 239c 343f
00000140: 007f 27bf fec1 52bf dfbf 46bf ac73 8c3c
00000150: 739e 4a3e bec0 8b3e 8248 febd 41ff b23e
00000160: 1401 93bd c60b d13c e702 753d 0d24 5cbe
00000170: 72ed 003e 80aa 033e 5dba 913e 5dc6 1a3e
00000180: 4e20 c53d 9336 b53e 744c 3ebe b544 9d3e
00000190: 71ef 66bc dd21 9bbd 1b22 01be 8063 e4be
000001a0: 65d4 213e 6607 ab3e 6395 de3e be39 c43d
000001b0: 8655 ef3d 1aea b33d c8c5 b4bd 41c6 303e
000001c0: 260b ca3d ee8f fdbc fa63 46be 24e3 0cbe
000001d0: 4862 783d ed17 033e cd7c 1b3e 251d bbbd
000001e0: 64b6 7cbd bb8a 14be e26d 34be 8726 68be
000001f0: bb59 1fbe 133c 3bbd 2874 50be c150 853e
00000200: bdac 8c3d 18cb 853e 14fa 10be 07e7 bc3d
00000210: 08ce 2e3d 4b05 19be 283a 4a3e be97 ea3e
00000220: 6ff5 fc3c 2ccb 18bd d16d 26be 4ab6 dcbd
00000230: 883e 51ba 6128 523e 5d29 bc3e a025 d8be
00000240: d63d b4be 51d1 93be 7ccd c8bd 6ee5 213e
00000250: 98ef d0bc 9df7 b4bd 4504 193c 6d52 19be
00000260: e1c5 d03c e3c6 86be 9056 3c3d 8afc a73d
00000270: 8b00 38bd aa54 3e3e ac55 183e 8680 883e
00000280: 57bd 0abd af9a 2cbe 5f79 15be 5c06 7cbe
00000290: 4219 843e 0dc9 0c3b 8b50 463e 7341 453d
000002a0: 2684 02bf 0527 b6bf 6210 163f fa9f 1cbf
000002b0: dee3 9e3e 59a3 f03c 994e 853e 7730 2d3f
000002c0: 13b6 5abf 28d1 5bbf cf06 51bf edc4 b13d
000002d0: ea0c 903d 7df2 323c 3ab5 8dbe 7aa5 173d
000002e0: e737 cf3e feeb 4a3e f2c8 cf3e c8b5 39be
000002f0: 59cd b83d 05d3 95be 896e c4be 83c4 a53e
00000300: 3131 01be fa6b 3dbf bfb8 833e 0fae 7cbe
00000310: 1609 543e e4ae ab3b 34a8 a23e fe2b a03e
00000320: 7954 e5be d17c b9be 763d 01bf 2980 a43e
00000330: b16c 93bd 423d 293e f12b 5c3d dc14 58bd
00000340: 5e11 23bd 8743 41bd 4435 d2be 7a4b 533e
00000350: a29b aa3e 70ec d33d 453a 1b3d 26dc 58be
00000360: 6cf2 78bd 28c0 15bf 55e6 ca3e 5de8 6dbe
00000370: 339e 903e ab8e edbc 23b5 1b3e cb27 963e
00000380: b67f c2bd a250 19bf 640c eabe 5375 333d
00000390: 04fc 103e d665 e63d 6bcf 6abe 9f29 933d
000003a0: 6032 cf3d e954 36bc 79ef ac3e 60b6 9cbe
000003b0: a0e1 a8be 11b7 a4be bcef 273e e2f0 dbbc
000003c0: 09b7 4b3c 0c7a e63c 6047 5bbd 645c 85be
000003d0: c1fa 5dbe 5d5b 4e3e da52 21be 5515 70bc
000003e0: d2eb 70bd c67f 37bd 46b3 4c3e 8bb0 b7bd
000003f0: c5f1 993d c4d0 983e ca9f 0cbe ef2b 153e

decoder.0.bias f4 [1568]
0.03631216 -0.5783109 -0.39611822 -0.2612545 -0.23432918 -0.6221434 -0.039083917 -0.02938433
-0.09592448 -0.01907886 0.16150373 -0.2125811 -0.11225428 -0.3681119 0.08721524 0.20038384
-0.23043342 0.20767307 0.10042442 0.35911882 0.084022805 -0.39749622 -0.02889739 0.14243214
0.41086137 0.23102868 -0.058767825 -0.13923547 -0.13107502 -0.32696393 -0.07376287 -0.10505962
-0.097052276 0.15895523 -0.31965786 -0.33793366 -0.18869938 0.13887875 0.1839767 0.25170296
0.02236981 -0.4165998 -0.28448644 -0.2845951 -0.4405153 -0.18833584 -0.37063348 0.08663291
-0.03376838 0.1624108 0.36480546 0.4799223 -0.04425173 0.5379288 0.47678655 0.1667038
0.26404434 0.04578983 0.12892418 0.13506041 -0.16957487 -0.040332325 -0.00202897 0.4198225
0.12653875 -0.19824742 0.21185999 0.28949994 -0.4466446 -0.019710366 -0.18174398 0.20142093
-0.19787206 0.019588182 -0.38710618 0.06154238 0.37802416 -0.096209414 -0.29445738 -0.21555358
-0.16938983 0.15628959 -0.21530849 -0.0339194 0.0068235453 -0.438717 0.062495552 -0.20637879
-0.23139116 -0.22568072 0.13115141 0.44832835 0.22923422 -0.00699422 -0.19347185 -0.21695489
-0.37033617 0.51851046 -0.28673398 -0.2577387 -0.086771384 -0.25964332 0.0247743 -0.55979633
-0.23898612 -0.27343184 -0.25647354 0.33495304 -0.108674474 0.120927215 -0.51574296 -0.0382904
0.14867139 -0.23891981 0.046721134 -0.1252608 0.103950374 0.19981602 0.13149618 -0.3993157
0.31844494 -0.007756151 0.24766633 -0.14056273 0.41377357 0.15553777 -0.5531101 0.07736217
0.17342643 0.35656688 0.25141683 0.07099138 0.12215694 -0.74103606 -0.30239385 -0.22105199
-0.027427407 0.10614961 -0.50559324 -0.26856154 -0.30686557 -0.022045348 0.07194539 0.14357227
0.30929703 -0.052848462 0.09158804 -0.025000991 0.17206585 -0.07729485 0.54245025 0.5659335
-0.25334367 0.5923003 0.1319631 0.22963771 0.17304277 -0.12210053 -0.31817415 0.36570275
-0.08834057 -0.028090848 0.09843443 0.006743595 -0.42784467 0.2983039 -0.6161218 0.028858058
0.18787646 -0.10208796 0.38878646 -0.34823146 0.12791362 0.4085268 0.35155368 0.052419946
0.017548153 -0.29662514 0.047822293 -0.08730544 0.04432986 0.59508926 0.3756781 0.14543469
-0.2555822 0.09850013 -0.06633314 -0.13754554 0.1435393 0.3566931 0.37099564 -0.26700985
0.11699787 0.22659 0.10553495 -0.2048643 -0.21300137 -0.23526625 -0.33246568 -0.081144296
0.28076625 0.42782843 0.09586661 -0.40049794 0.15806888 -0.13845041 -0.055055227 -0.17789574
-0.19485694 0.043300815 0.1688073 -0.14034058 0.2662967 0.3845011 0.002767612 -0.5686084
-0.20176591 -0.36053726 -0.18705192 0.16599552 0.11248463 0.035767086 0.14850526 0.08779026
-0.16927062 0.0031874178 0.018022697 -0.26090395 -0.25928056 -0.12778848 0.33925074 0.2737634
0.11270628 0.72086644 -0.32068288 -0.41227663 -0.4395056 -0.19063076 0.2298927 -0.054852854
-0.3669453 -0.07261591 0.38236898 -0.20647384 0.5491419 0.32852992 -0.069923915 -0.0137165515
0.44521996 0.02228728 0.051970847 0.119265795 0.28811464 0.1953731 -0.31140715 -0.24937859
00000000: 0fbc 143d 2f0c 14bf 02d0 cabe 26c3 85be
00000010: fdf3 6fbe ca44 1fbf 7516 20bd 68b7 f0bc
00000020: 0e74 c4bd 454b 9cbc 3c61 253e dcae 59be
00000030: 92e5 e5bd 2a79 bcbe e79d b23d 6c31 4d3e
00000040: bdf6 6bbe 40a8 543e 51ab cd3d 6cde b73e
00000050: 2614 ac3d a084 cbbe 38ba ecbc bbd9 113e
00000060: 6c5c d23e c892 6c3e 88b6 70bd be93 0ebe
00000070: 8838 06be d167 a7be fd10 97bd 8029 d7bd
00000080: 58c3 c6bd 29c5 223e 32aa a3be a405 adbe
00000090: 693a 41be 3b36 0e3e 6364 3c3e 36df 803e
000000a0: e440 b73c 924c d5be 35a8 91be 73b6 91be
000000b0: 398b e1be 1cdb 40be acc3 bdbe 986c b13d
000000c0: b650 0abd 044f 263e c8c7 ba3e 60b8 f53e
000000d0: 4d41 35bd b4b5 093f 5e1d f43e 67b4 2a3e
000000e0: d230 873e 1e8e 3b3d b304 043e 474d 0a3e
000000f0: 09a5 2dbe 8233 25bd 78f8 04bb faf2 d63e
00000100: 6093 013e 5f01 4bbe d3f1 583e 5639 943e
00000110: 9aae e4be a277 a1bc 181b 3abe 4a41 4e3e
00000120: f99e 4abe 6577 a03c c832 c6be dd13 7c3d
00000130: 628c c13e 7109 c5bd 1ec3 96be 14ba 5cbe
00000140: 8774 2dbe 610a 203e d479 5cbe 12ef 0abd
00000150: 0c98 df3b 849f e0be 56fb 7f3d f654 53be
00000160: cef1 6cbe d918 67be 8e4c 063e 4b8b e53e
00000170: 60bc 6a3e c52f e5bb 7c1d 46be 6c29 5ebe
00000180: b49c bdbe 1abd 043f ccce 92be 54f6 83be
00000190: 32b5 b1bd f8ef 84be 79f3 ca3c d04e 0fbf
000001a0: c7b8 74be 42ff 8bbe 8050 83be f77e ab3e
000001b0: b990 debd b0a8 f73d bb07 04bf 65d6 1cbd
000001c0: 503d 183e 65a7 74be a95e 3f3d 5e44 00be
000001d0: efe3 d43d 929c 4c3e efa6 063e 1c73 ccbe
000001e0: 370b a33e 4f27 febb 3e9c 7d3e adef 0fbe
000001f0: 21da d33e 4b45 1f3e a098 0dbf 0f70 9e3d
00000200: b396 313e ef8f b63e b5b9 803e ee63 913d
00000210: 6b2d fa3d 8ab4 3dbf 5ed3 9abe 745b 62be
00000220: 71af e0bc f764 d93d 8f6e 01bf e680 89be
00000230: 7c1d 9dbe 7298 b4bc 1b58 933d 9c04 133e
00000240: 2e5c 9e3e a177 58bd 8392 bb3d e1ce ccbc
00000250: 0832 303e c34c 9ebd 05de 0a3f 05e1 103f
00000260: 43b6 81be fea0 173f 5621 073e 2626 6b3e
00000270: 2032 313e d80f fabd b9e7 a2be 643d bb3e
00000280: e7eb b4bd c71e e6bc fe97 c93d 60f9 dc3b
00000290: 750e dbbe 4abb 983e 29ba 1dbf bc67 ec3c
000002a0: b062 403e 7e13 d1bd 050f c73e 654b b2be
000002b0: cafb 023e 6d2a d13e d8fe b33e 4cb6 563d
000002c0: 25c1 8f3c 40df 97be 4fe1 433d 32cd b2bd
000002d0: 3a93 353d c557 183f e158 c03e d5ec 143e
000002e0: acdb 82be 70ba c93d abd9 87bd bdd8 0cbe
000002f0: f7fb 123e 7aa0 b63e 24f3 bd3e 84b5 88be
00000300: 949c ef3d 3507 683e b522 d83d f2c7 51be
00000310: 081d 5abe a3e9 70be f138 aabe fb2e a6bd
00000320: 98c0 8f3e 540c db3e b755 c43d 110e cdbe
00000330: cfdc 213e f2c5 0dbe 9781 61bd 4d2a 36be
00000340: 9488 47be 325c 313d d2db 2c3e 71b5 0fbe
00000350: 0b58 883e 54dd c43e d360 353b 5290 11bf
00000360: b99b 4ebe 5798 b8be 8a8a 3fbe bbfa 293e
00000370: 575e e63d 8280 123d c311 183e 61cb b33d
00000380: 4755 2dbe ffe3 503b 56a4 933c 3495 85be
00000390: 6cc0 84be fcda 02be 46b2 ad3e b72a 8c3e
000003a0: 8dd2 e63d b48a 383f 8c30 a4be ec15 d3be
000003b0: e106 e1be b634 43be fe68 6b3e 63ad 60bd
000003c0: 41e0 bbbe a6b7 94bd dec5 c33e e16d 53be
000003d0: 9094 0c3f 1335 a83e 4534 8fbd 63bb 60bc
000003e0: dff3 e33e d093 b63c 62df 543d a041 f43d
000003f0: c383 933e e30f 483e c270 9fbe 1a5d 7fbe

decoder.3.weight f4 [32, 16, 3, 3]
0.022204338 0.03644779 0.055579573 0.0044267178 0.048160624 0.055532437 -0.01022734 0.02243038
0.0056075905 -0.03079958 0.024532644 0.0028853083 0.07298924 0.15792179 0.068541914 0.1125833
0.2090184 0.080939986 -0.029823143 0.02600139 -0.028194936 0.0034951447 0.010557705 -0.0030520519
0.037310194 0.015788507 0.005995291 -0.037029956 0.078244604 -0.1456618 0.068703815 0.22750598
0.07085045 -0.15277672 0.19378008 0.02612696 -2.095925 0.19173776 -2.2575648 0.045096274
-0.045606382 0.016892489 -2.271542 -0.049160678 -1.8017362 0.00445535 -0.03817169 0.08308136
0.102098115 -0.0261301 0.116124004 0.11476999 0.05056305 0.07051218 -0.036320727 -0.39894298
0.0732813 0.035743367 0.115890004 0.1427696 0.09241091 -0.2501505 0.1325783 -0.07023693
0.012353245 -0.01867678 0.030983511 -0.0027170542 -0.00813256 0.05649973 0.0046947068 -0.004948655
0.023514781 0.0027168018 0.004914031 0.15843171 0.02007267 -0.018002333 -0.046639476 0.14980392
0.00856498 -0.03449017 0.047631543 -0.040327407 -0.006354281 -0.04623335 -0.0204053 -0.02548399
-0.05910036 -0.005636881 -0.10928975 -0.05910423 -0.0031962064 0.1277077 -0.024171606 0.095595345
0.015455323 0.022399267 0.1217994 0.0038963929 -0.021886922 -0.0093168905 -0.02503622 0.074268825
0.032333698 0.0021340197 -0.011806765 -0.013633024 -0.0071259644 0.11359786 0.03579696 0.011454799
0.24783936 -0.029736387 -0.032575347 0.093146026 0.0889538 0.09287341 -0.084953 0.017438361
-0.07230052 0.047628332 -0.07248786 0.044420917 0.050825384 0.014313453 0.08876877 -0.0073402133
0.05180357 0.022039166 0.017231578 -0.0049384525 0.07761903 0.033149626 0.0198288 0.006336123
-0.048202787 0.03503291 0.016500568 0.21452059 -0.018007698 0.048869252 0.037391216 -0.00029901814
-0.017380977 0.06921408 -0.07362682 0.04267942 -0.054840486 -0.053447798 0.021092782 -0.031522222
0.053035125 0.13471828 0.021880709 -0.07003549 0.08349716 -0.102412105 -0.12340156 -0.028917454
-0.13459146 -0.071099184 0.013903911 -0.045786273 0.06729402 -0.009975172 -0.0045570876 0.03348494
0.02818713 -0.0021519035 0.029733066 0.117926545 0.004744805 -0.22974233 -0.0009161367 -0.068670265
-0.040741656 -0.099808566 -0.097836256 -0.3491441 -0.7526261 -0.106578864 -2.7387652 0.03828589
-0.03346705 0.0006691028 -0.39916727 -0.14398311 -1.9293256 0.14308672 0.045756992 -0.15073608
0.06577246 -0.03548197 -0.09249894 -0.029384883 0.004228848 -0.04947822 0.18812238 -0.49741864
-0.13371804 0.12884024 -0.032047585 -0.11189157 0.0058140364 -0.2806224 -0.12205676 0.023870043
-0.0069419444 0.054335736 -0.005912545 -0.0051850323 -0.0001539827 0.03292935 -0.027617535 0.028789882
-0.043378416 0.12320082 -0.028978964 -0.015292869 0.02548542 -0.012779627 -1.09642e-05 -0.12015652
-0.012899791 -0.033155054 -0.035572067 0.018324612 0.001965612 0.02287615 0.01827408 0.05655526
0.006300359 0.032200813 0.1576906 0.0880592 0.0016435597 -0.04235427 0.09543001 -0.14291891
-0.0071697854 0.06108786 -0.055768125 0.04790634 -0.09496105 0.056658804 -0.017419832 -0.01128025
7.862117e-05 -0.013322728 -0.0036438387 -0.052763533 -0.038124066 -0.10728297 -0.068309784 0.021289874
00000000: dfe5 b53c 474a 153d 68a7 633d 000e 913b
00000010: 1344 453d fb75 633d 9390 27bc ebbf b73c
00000020: e1bf b73b 674f fcbc aff8 c83c 7117 3d3b
00000030: 627b 953d 40b6 213e b45f 8c3d 1392 e63d
00000040: eb08 563e ddc3 a53d aa4f f4bc de00 d53c
00000050: 11f9 e6bc cc0e 653b 39fa 2c3c ef04 48bb
00000060: 93d2 183d e656 813c 2574 c43b b9ac 17bd
00000070: b53e a03d 5e28 15be 96b4 8c3d 54f7 683e
00000080: 0a1a 913d 8071 1cbe 496e 463e 3508 d63c
00000090: a323 06c0 e756 443e f17b 10c0 dfb6 383d
000000a0: c2cd 3abd 1e62 8a3c f260 11c0 b55c 49bd
000000b0: 4b9f e6bf 2ffe 913b eb59 1cbd 8f26 aa3d
000000c0: d118 d13d cb0e d6bc 6cd2 ed3d 870c eb3d
000000d0: 331b 4f3d b168 903d 0bc5 14bd 4142 ccbe
000000e0: 8214 963d a367 123d bd57 ed3d 3232 123e
000000f0: ee41 bd3d ba13 80be 9bc2 073e 61d8 8fbd
00000100: 4465 4a3c 0c00 99bc 22d1 fd3c 9b10 32bb
00000110: 6e3e 05bc 436c 673d 0ed6 993b 5428 a2bb
00000120: 12a2 c03c 5f0c 323b e105 a13b ec3b 223e
00000130: 716f a43c a179 93bc 0909 3fbd 3366 193e
00000140: 2154 0c3c 9145 0dbd 4b19 433d 5a2e 25bd
00000150: 9337 d0bb 2e5f 3dbd 0429 a7bc cdc3 d0bc
00000160: 3813 72bd 96b5 b8bb 4ed3 dfbd 4717 72bd
00000170: 7277 51bb cfc5 023e 8803 c6bc 7ec7 c33d
00000180: 5338 7d3c ab7e b73c f771 f93d a05a 7f3b
00000190: 344c b3bc dfa5 18bc c218 cdbc 411a 983d
000001a0: 5770 043d e9da 0b3b 2971 41bc 0c5d 5fbc
000001b0: ec80 e9bb ffa5 e83d d59f 123d e9ac 3b3c
000001c0: 9ac9 7d3e b999 f3bc ba6d 05bd 58c3 be3d
000001d0: 692d b63d 6a34 be3d d7fb adbd e5da 8e3c
000001e0: 4c12 94bd ed15 433d 8474 94bd b5f2 353d
000001f0: 472e 503d f982 6a3c 67cc b53d 2c86 f0bb
00000200: fb2f 543d 7b8b b43c 3d29 8d3c bed2 a1bb
00000210: baf6 9e3d e7c7 073d 0270 a23c 419f cf3b
00000220: 4970 45bd ab7e 0f3d 332c 873c 49ab 5b3e
00000230: e184 93bc 202b 483d 8827 193d 89c5 9cb9
00000240: 8d62 8ebc 1dc0 8d3d a9c9 96bd 9ed0 2e3d
00000250: 6ba0 60bd 14ec 5abd c5ca ac3c 721d 01bd
00000260: 5c3b 593d 97f3 093e 2c3f b33c c46e 8fbd
00000270: 8f00 ab3d 70bd d1bd f5b9 fcbd 4ce4 ecbc
00000280: 58d2 09be 739c 91bd 3bcd 633c 638a 3bbd
00000290: 72d1 893d e76e 23bc 9f53 95bb 8127 093d
000002a0: b2e8 e63c f306 0dbb c292 f33c 7983 f13d
000002b0: 4f7a 9b3b 9341 6bbe e528 70ba ffa2 8cbd
000002c0: b9e0 26bd 6f68 ccbd 605e c8bd 04c3 b2be
000002d0: 1bac 40bf 0546 dabd ee47 2fc0 aad1 1c3d
000002e0: bf14 09bd bb66 2f3a a75f ccbe 4f70 13be
000002f0: 24f4 f6bf 5385 123e af6b 3b3d 8f5a 1abe
00000300: b6b3 863d 8b55 11bd 1670 bdbd 91b8 f0bc
00000310: 2692 8a3b ada9 4abd 27a3 403e a8ad febe
00000320: 62ed 08be b2ee 033e 5444 03bd 6827 e5bd
00000330: ac83 be3b bdad 8fbe e5f8 f9bd 1c8b c33c
00000340: 4079 e3bb 268f 5e3d 06be c1bb 34e7 a9bb
00000350: 6b76 21b9 ede0 063d 2b3e e2bc c2d8 eb3c
00000360: 91ad 31bd b650 fc3d 4b65 edbc f18e 7abc
00000370: cdc6 d03c a461 51bc e1f2 37b7 9f14 f6bd
00000380: a559 53bc 98cd 07bd 04b4 11bd 7f1d 963c
00000390: 7fd1 003b c466 bb3c 86b3 953c 7da6 673d
000003a0: 3e73 ce3b 00e5 033d a579 213e 6258 b43d
000003b0: b66c d73a ac7b 2dbd cf70 c33d 5659 12be
000003c0: 85f0 eabb 4437 7a3d 1e6d 64bd 7039 443d
000003d0: f07a c2bd 1013 683d 09b4 8ebc ccd0 38bc
000003e0: 6be1 a438 9247 5abc 78cd 6ebb 931e 58bd
000003f0: fb27 1cbd 2cb7 dbbd 00e6 8bbd 1a68 ae3c

decoder.3.bias f4 [16]
0.41134235 0.15242556 0.27890193 0.10445764 -0.004087321 -0.05622992 -0.043399487 0.26944065
0.088106565 0.35286248 -0.061814178 0.41989893 -0.046845965 -0.19776954 0.11379881 0.2182033
00000000: 779b d23e 7215 1c3e 3ccc 8e3e e3ed d53d
00000010: efee 85bb 5851 66bd a9c3 31bd 20f4 893e
00000020: 3771 b43d 64aa b43e dd30 7dbd fefc d63e
00000030: 8ee1 3fbd 1984 4abe 5a0f e93d b070 5f3e

decoder.5.weight f4 [16, 1, 3, 3]
0.059401017 0.01872059 0.01795706 -0.07639586 -0.24250107 -0.09542214 -0.16485377 -0.24408545
-0.07426239 0.120524794 0.75904524 0.7461556 0.12358839 0.8509224 0.7587885 -0.19859861
-0.019975163 0.027318677 -0.0036359644 -0.15021844 -0.21012424 0.1735294 0.036511365 -0.09048309
-0.00941708 -0.071676314 0.011719561 0.0013584583 -0.059184764 -0.17028406 0.40695184 0.65992993
0.17560162 0.62424135 0.9095032 0.33472252 0.122693844 0.3136169 0.19180427 0.22933318
0.37903443 0.16656941 0.20144653 0.26105115 0.081556894 -0.39739555 -0.52622503 -0.0663405
-0.5933802 -0.26037523 0.3877057 -0.11155714 0.41386458 0.48300025 0.33177945 0.2544959
-0.17296386 0.8853198 0.5766924 -0.23269914 0.5905902 0.23758988 -0.15356103 0.07058423
0.15647174 0.003347862 -0.03828467 -0.047826566 -0.18820557 0.08423504 0.11834849 -0.085904054
0.06987996 0.012175573 -0.22057292 0.09101831 -0.21906804 -0.5007556 -0.0034015796 -0.3043542
-0.34045756 -0.034241255 -0.05842072 -0.0061011864 -0.1667279 -0.28281078 -0.16198614 -0.16454892
-0.30822602 -0.221852 -0.104046166 -0.2713459 -0.19917355 -0.2741346 -0.51578486 -0.3142968
-0.20498812 -0.31603757 -0.13958694 0.008809446 -0.038435217 0.051511746 -0.14657831 -0.3224696
-0.10021956 -0.07727354 -0.19692886 -0.05805974 -0.27057132 -0.4822258 -0.14643069 -0.53561485
-0.62084365 -0.10998995 -0.2830259 -0.20433992 0.017943524 0.086197406 0.17250732 0.14007002
0.1758437 0.31772658 0.23413321 0.13966526 0.23376203 0.14341867 0.088316195 0.034220256
-0.0622068 0.083173096 -0.11485898 -0.27820802 0.04658793 -0.20580445 -0.24884523 0.034575596
-0.09688192 -0.14055768 -0.012927843 -0.30034187 -0.26418093 -0.09239395 -0.28750604 -0.19360739
00000000: 7b4e 733d ec5b 993c af1a 933c 6f75 9cbd
00000010: 3352 78be af6c c3bd 6dcf 28be 89f1 79be
00000020: e116 98bd b4d5 f63d ca50 423f 0e04 3f3f
00000030: e91b fd3d 0dd6 593f f73f 423f 6f5d 4bbe
00000040: f4a2 a3bc 6bcb df3c 5c49 6ebb ddd2 19be
00000050: cf2a 57be b1b1 313e f18c 153d 334f b9bd
00000060: 194a 1abc 08cb 92bd 6703 403c 4c0e b23a
00000070: b96b 72bd f25e 2ebe fe5b d03e 2bf1 283f
00000080: e9d0 333e 48ce 1f3f 34d5 683f c060 ab3e
00000090: e946 fb3d 6592 a03e 5768 443e 51d6 6a3e
000000a0: cd10 c23e 2c91 2a3e 0048 4e3e 7fa8 853e
000000b0: 4d07 a73d 6e77 cbbe afb6 06bf 87dd 87bd
000000c0: c4e7 17bf e74f 85be 5d81 c63e 1278 e4bd
000000d0: 0fe6 d33e cf4b f73e ffde a93e 494d 823e
000000e0: 701d 31be 52a4 623f 1da2 133f af48 6ebe
000000f0: eb30 173f c34a 733e 1a3f 1dbe 778e 903d
00000100: 213a 203e ce67 5b3b 63d0 1cbd cae5 43bd
00000110: f6b8 40be 6c83 ac3d b160 f23d 77ee afbd
00000120: 391d 8f3d 0e7c 473c dedd 61be cf67 ba3d
00000130: 5f53 60be 8531 00bf 09ed 5ebb 50d4 9bbe
00000140: 7450 aebe 8f40 0cbd 914a 6fbd 76ec c7bb
00000150: b8ba 2abe 93cc 90be b2df 25be 837f 28be
00000160: cdcf 9dbe 2c2d 63be 2816 d5bd daed 8abe
00000170: 27f4 4bbe 5f5b 8cbe 7a0a 04bf 83eb a0be
00000180: 68e8 51be adcf a1be e1ef 0ebe 7f55 103c
00000190: 3f6e 1dbd fbfd 523d a018 16be bc1a a5be
000001a0: ea3f cdbd 9741 9ebd b8a7 49be 0dd0 6dbd
000001b0: 5388 8abe 4de6 f6be edf1 15be 0e1e 09bf
000001c0: 9cef 1ebf 6942 e1bd c5e8 90be 7c3e 51be
000001d0: 4cfe 923c 4488 b03d c2a5 303e 846e 0f3e
000001e0: 5f10 343e 0fad a23e 9ec0 6f3e 6904 0f3e
000001f0: 505f 6f3e 58dc 123e 1fdf b43d 8a2a 0c3d
00000200: 8fcc 7ebd a856 aa3d 2f3b ebbd 4871 8ebe
00000210: fcd2 3e3d 67be 52be 49d1 7ebe 249f 0d3d
00000220: 076a c6bd 5aee 0fbe 4ecf 53bc 69c6 99be
00000230: b942 87be 0a39 bdbd fe33 93be 0441 46be
