models/model_a1.pt (torch, 199311 bytes, 11 tensors)

encoder.0.weight f4 [16, 1, 3, 3]
0.18486027 0.18739545 -0.13102162 0.21925488 0.30276453 0.04655399 -0.26438504 0.29076484
0.39200598 0.16755241 -0.23179667 0.02145101 0.25384 -0.31333154 -0.29153398 0.37902147
-0.035822354 -0.18855314 -0.28309834 -0.43749273 -0.1317954 0.112556666 0.2844929 -0.034539025
0.30045682 0.33650747 0.24812624 -0.02727625 0.20057331 -0.21482791 0.22113875 0.4127722
0.18244708 -0.2436254 0.08690909 -0.4630967 -0.22005495 -0.021719063 0.008116608 -0.15659918
-0.16079444 0.33801365 -0.0291801 0.2577881 0.19463891 -0.14503507 -0.24592407 -0.34194824
-0.28506935 0.15674181 -0.31994498 0.30753163 -0.10815106 0.008557562 -0.19276564 -0.39697108
0.26050845 -0.037653755 0.051333148 0.062193725 -0.03434343 0.052196216 0.09595224 0.13263334
0.27822194 0.055286497 0.25783056 0.25815025 0.029153492 -0.24854457 -0.27073953 -0.14636387
-0.09660722 -0.13695897 -0.080568135 -0.21385641 -0.30351946 -0.23451133 -0.03391271 0.21101232
0.11863573 0.17737727 -0.024823075 -0.09223927 0.1945515 -0.05678252 -0.08391233 0.35435507
-0.2808939 -0.17456558 -0.04256162 0.26766258 0.08603094 0.16348067 0.24193972 -0.3060945
0.2855907 0.14400093 -0.23070863 -0.3362895 0.37136242 0.12745856 -0.35266873 0.27405903
0.010863427 0.08480474 0.24550414 -0.17926733 -0.30372256 0.2997787 -0.2375876 -0.12739144
-0.19919918 -0.3099248 -0.0917988 0.23976487 0.19079457 0.25668627 0.328307 0.26546815
0.31254712 -0.16806939 0.3044843 0.38323355 0.015444492 0.17193311 -0.014928756 0.020107666
0.38984802 -0.18984969 0.056265507 0.1826218 -0.3897673 -0.17686951 0.28791893 0.122522876
-0.245772 0.03246104 0.066901684 -0.29746017 0.17070772 -0.33546117 -0.1616705 -0.1027872
00000000: 034c 3d3e 98e4 3f3e 882a 06be 5a84 603e
00000010: f403 9b3e 66af 3e3d 7a5d 87be 21df 943e
00000020: 02b5 c83e dc92 2b3e 1b5c 6dbe 07ba af3c
00000030: 51f7 813e fe6c a0be f143 95be 1a0f c23e
00000040: 76ba 12bd 1314 41be 44f2 90be 0cff dfbe
00000050: 60f5 06be 1c84 e63d 0ea9 913e cb78 0dbd
00000060: 7ad5 993e b54a ac3e ce14 7e3e 7172 dfbc
00000070: 1763 4d3e d9fb 5bbe 3272 623e e156 d33e
00000080: 68d3 3a3e f078 79be 65fd b13d 031b edbe
00000090: 1656 61be 2dec b1bc 85fb 043c 895b 20be
000000a0: 4ca7 24be 2010 ad3e 1b0b efbc cdfc 833e
000000b0: 6c4f 473e 1384 14be 85d3 7bbe d713 afbe
000000c0: 9cf4 91be ed80 203e d4cf a3be c974 9d3e
000000d0: 4e7e ddbd 0435 0c3c 5b64 45be cb3f cbbe
000000e0: 5d61 853e d33a 1abd b542 523d d9be 7e3d
000000f0: b2ab 0cbd b3cb 553d 9c82 c43d 09d1 073e
00000100: 1b73 8e3e 1874 623d 5e02 843e 452c 843e
00000110: 4ed3 ee3c 7882 7ebe 5f9e 8abe 69e0 15be
00000120: 02da c5bd f93e 0cbe e800 a5bd 2dfd 5abe
00000130: e766 9bbe bd23 70be 0ee8 0abd 9d13 583e
00000140: 4af7 f23d 63a2 353e c359 cbbc f1e7 bcbd
00000150: 8238 473e ca94 68bd 3ada abbd 076e b53e
00000160: 53d1 8fbe 52c1 32be 1855 2ebd 120b 893e
00000170: fd30 b03d 7a67 273e 0cbf 773e 6bb8 9cbe
00000180: f238 923e fb74 133e e23e 6cbe 232e acbe
00000190: 3723 be3e 7f84 023e ff90 b4be 7751 8c3e
000001a0: 84fc 313c 1cae ad3d 7065 7b3e db91 37be
000001b0: 8681 9bbe 987c 993e 2a4a 73be e772 02be
000001c0: dffa 4bbe 77ae 9ebe 0201 bcbd ec84 753e
000001d0: a75f 433e 626c 833e db17 a83e 71eb 873e
000001e0: 2d06 a03e 621a 2cbe 5ee5 9b3e 3037 c43e
000001f0: e50a 7d3c 3c0f 303e be97 74bc d5b8 a43c
00000200: 299a c73e f567 42be a976 663d 3601 3b3e
00000210: 948f c7be 481d 35be 1c6a 933e 46ed fa3d
00000220: a8ab 7bbe def5 043d c003 893d b34c 98be
00000230: 01ce 2e3e 91c1 abbe f48c 25be 1882 d2bd

encoder.0.bias f4 [16]
0.28457177 -0.06252596 0.39976943 0.13842753 0.19533335 -0.27028725 -0.13164856 0.35202658
-0.13817035 -0.0021808634 0.05984097 0.032972895 0.28445536 -0.096699156 0.15664165 0.22928396
00000000: 64b3 913e 9c0d 80bd 94ae cc3e f2bf 0d3e
00000010: 7705 483e 1763 8abe e1ce 06be d43c b43e
00000020: 877c 0dbe d1ec 0ebb ce1b 753d 960e 073d
00000030: 22a4 913e 350a c6bd ab66 203e 6ac9 6a3e

encoder.2.weight f4 [32, 16, 3, 3]
-0.077676415 -0.04032599 0.008450509 -0.10053565 -0.01703335 -0.07917942 -0.051200517 -0.102550015
-0.0021913706 0.026461557 0.048924636 0.017080646 -0.0011328364 -0.04576853 0.023619322 0.07528374
0.035244197 0.0032020523 -0.04628535 -0.008215622 -0.018873125 0.016428744 -0.0749549 -0.13218042
0.018884448 -0.012938088 -0.14666444 -0.09709752 0.11032585 0.040657688 0.007923763 0.096746564
-0.029224237 -0.0097206775 0.0129419835 -0.031451974 0.039659783 0.06888864 -0.10411945 0.06399015
0.077571854 0.016863422 0.038010083 -0.08538387 0.007003103 0.072797365 0.055834208 -0.035754744
0.065180525 -0.016722083 -0.075777486 -0.010140792 -0.028030997 -0.03804483 0.02825075 -0.037696324
0.06181338 0.067699276 0.08947664 -0.051692557 0.07761296 0.024525158 0.00015693626 -0.040570162
-0.025358064 -0.018563412 -0.08988927 -0.036436614 -0.015966404 0.00061685586 0.060276788 0.008913228
-0.07914268 0.050773907 -0.0013051216 0.063434646 -0.057935525 0.005935862 0.01983663 0.04571613
-0.054298904 -0.08417679 0.02126446 0.08861057 -0.0038666262 0.032761794 0.12286907 -0.03179059
0.028493105 0.021147143 -0.08314937 -0.013233139 -0.023110686 -0.077884436 0.069918424 -0.030817728
0.057449 -0.009602945 -0.0029689018 -0.22042575 -0.062188003 -0.027654015 0.012888738 0.052141704
0.005627615 -0.045155115 0.06232384 0.06257623 0.014901936 0.053539045 0.07610388 -0.024203967
-0.037063725 0.0066459975 0.037281517 0.05148618 -0.040012438 -0.058401685 -0.13477176 -0.13720876
-0.0739233 -0.094585516 -0.08305346 0.048408594 -0.07741781 -0.02802165 0.059565127 0.06779704
-0.029435577 0.01928173 0.03495308 -0.014650088 0.12172173 0.029408028 -0.09508428 -0.064385444
-0.0067574084 -0.01976184 0.057615172 -0.00028312285 -0.0006939225 -0.030161275 0.037423722 0.050417073
-0.015152159 -0.105103396 -0.04162926 0.095855266 0.020820826 -0.08767765 -0.027072066 -0.036522258
-0.07683019 0.067637295 0.007507742 -0.01608276 -0.018735534 -0.044613246 0.035077453 0.0014017314
-0.0009217888 0.0062610884 -0.04550577 0.04609844 0.061131544 -0.11315433 -0.028401898 -0.1434691
-0.025678162 -0.02507441 -0.019333059 0.0037803096 -0.062142458 -0.038243525 -0.041691326 -0.052300155
0.03790158 -0.07245622 -0.044885214 0.07668624 -0.048125207 -0.07978659 -0.017113829 -0.081886224
-0.08614191 -0.041252214 -0.03030388 0.019983616 -0.08346361 0.03148419 0.07720478 -0.0014349857
0.09998205 -0.011630997 -0.007030759 -0.01843679 0.02138311 0.012421823 -0.014010068 -0.11181952
0.0038425399 -0.028555712 0.01645638 0.040498335 -0.046431925 0.08254055 -0.009112104 0.059622172
-0.06718853 0.027984008 -0.031073844 -0.09596662 -0.03871687 0.010480852 0.076661475 0.025903618
0.04036705 0.041916516 0.03425344 0.05832084 0.07173759 -0.06517762 0.004059785 0.0817083
-0.037389718 0.117703944 -0.0071687303 0.00487458 0.034195352 -0.087857984 0.047012698 0.017817758
-0.018837664 0.030926442 -0.07992848 -0.08333887 -0.07517788 -0.0938726 -0.046485424 -0.042783182
0.085018165 0.029993808 -0.016935853 -0.0509254 -0.10680487 -0.17589653 0.0040658317 -0.021607596
-0.018847626 0.029705051 0.065527916 0.10892257 0.048290364 -0.060937766 0.065651104 0.008627316
00000000: d014 9fbd de2c 25bd 0174 0a3c a3e5 cdbd
00000010: 8689 8bbc d228 a2bd a2b7 51bd be05 d2bd
00000020: 199d 0fbb e8c5 d83c 3365 483d b6ec 8b3c
00000030: af7b 94ba c877 3bbd 4f7d c13c 5d2e 9a3d
00000040: 385c 103d 86d9 513b b595 3dbd d19a 06bc
00000050: d09b 9abc 9395 863c f481 99bd 4e5a 07be
00000060: 8fb3 9a3c 46fa 53bc 342f 16be 11db c6bd
00000070: 85f2 e13d ad88 263d acd2 013c 1023 c63d
00000080: ab67 efbc 7a43 1fbc 9d0a 543c c9d3 00bd
00000090: 4c72 223d 7d15 8d3d 943c d5bd 450d 833d
000000a0: fedd 9e3d 2925 8a3c 76b0 1b3d bddd aebd
000000b0: 497a e53b c916 953d 69b2 643d 9173 12bd
000000c0: 5e7d 853d c0fc 88bc 3a31 9bbd 9025 26bc
000000d0: 43a1 e5bc e5d4 1bbd 1e6e e73c 7667 1abd
000000e0: 0730 7d3d eba5 8a3d 873f b73d 93bb 53bd
000000f0: 8bf3 9e3d fce8 c83c 428f 2439 e62c 26bd
00000100: b7bb cfbc 4c12 98bc de17 b8bd 8f3e 15bd
00000110: facb 82bc 7fb4 213a cbe4 763d ca08 123c
00000120: 8f15 a2bd 4df8 4f3d 9d10 abba 06ea 813d
00000130: cd4d 6dbd 9f81 c23b 6e80 a23c d640 3b3d
00000140: 8768 5ebd e264 acbd ce32 ae3c 7579 b53d
00000150: 3967 7dbb 3b31 063d c7a2 fb3d da36 02bd
00000160: 5f6a e93c c63c ad3c 384a aabd cfcf 58bc
00000170: 9f52 bdbc e081 9fbd 6431 8f3d 7675 fcbc
00000180: a54f 6b3d ac55 1dbc e891 42bb 4ab7 61be
00000190: d9b8 7ebd ac8a e2bc 492b 533c 8a92 553d
000001a0: db67 b83b 92f4 38bd 4847 7f3d f727 803d
000001b0: 4027 743c c24b 5b3d 5adc 9b3d 6647 c6bc
000001c0: 22d0 17bd abc6 d93b 81b4 183d 2ce3 523d
000001d0: 15e4 23bd 9b36 6fbd 9c01 0abe 7480 0cbe
000001e0: 1965 97bd 0db6 c1bd ef17 aabd 1748 463d
000001f0: 3b8d 9ebd a98d e5bc 90fa 733d 2dd9 8a3d
00000200: e122 f1bc b8f4 9d3c f62a 0f3d ec06 70bc
00000210: 3e49 f93d 1be9 f03c 8cbb c2bd 84dc 83bd
00000220: 406d ddbb 95e3 a1bc e3fd 6b3d 1b70 94b9
00000230: 5ae8 35ba c714 f7bc 9e49 193d 2282 4e3d
00000240: c340 78bc 7340 d7bd 7183 2abd c44f c43d
00000250: 7090 aa3c 5790 b3bd 3dc6 ddbc 5d98 15bd
00000260: 2659 9dbd 6c85 8a3d 8103 f63b febf 83bc
00000270: 437b 99bc 61bc 36bd 60ad 0f3d 4dba b73a
00000280: 33a4 71ba d129 cd3b 4264 3abd b8d1 3c3d
00000290: 1265 7a3d 75bd e7bd 19ab e8bc 90e9 12be
000002a0: 025b d2bc d968 cdbc 5d60 9ebc 12bf 773b
000002b0: 1789 7ebd 3ea5 1cbd 86c4 2abd b038 56bd
000002c0: b03e 1b3d ed63 94bd 8fd9 37bd ad0d 9d3d
000002d0: f01e 45bd 2767 a3bd 4d32 8cbc f7b3 a7bd
000002e0: 2b6b b0bd 15f8 28bd d83f f8bc aeb4 a33c
000002f0: f8ee aabd 91f5 003d 8a1d 9e3d 2116 bcba
00000300: 64c3 cc3d f08f 3ebc 4862 e6bb c008 97bc
00000310: a22b af3c e784 4b3c 7c8a 65bc a201 e5bd
00000320: 1fd3 7b3b abed e9bc 88cf 863c 95e1 253d
00000330: 672f 3ebd 050b a93d ef4a 15bc 6136 743d
00000340: 249a 89bd b83e e53c 938e febc 268a c4bd
00000350: 9595 1ebd e1b7 2b3c b100 9d3d d333 d43c
00000360: eb57 253d a7b0 2b3d 564d 0c3d d5e1 6e3d
00000370: 28eb 923d d87b 85bd f207 853b ae56 a73d
00000380: f625 19bd c40e f13d abe7 eabb f1ba 9f3b
00000390: 6d10 0c3d e3ee b3bd 6390 403d 8cf6 913c
000003a0: 7251 9abc 7359 fd3c 8bb1 a3bd 92ad aabd
000003b0: dcf6 99bd 4740 c0bd 8067 3ebd 6b3d 2fbd
000003c0: 011e ae3d 93b5 f53c 0fbd 8abc 2797 50bd
000003d0: 83bc dabd 381e 34be ab3a 853b 6a02 b1bc
000003e0: 5666 9abc 0258 f33c 8033 863d cc12 df3d
000003f0: 1ecc 453d e199 79bd 1674 863d 9659 0d3c

encoder.2.bias f4 [32]
0.0630354 -0.03037158 0.05117717 -0.04996661 -0.004598921 0.046778608 -0.05536449 0.046143662
0.044351213 0.04322171 0.034251027 0.004826701 0.054282274 -0.00906658 0.024420464 0.005506017
0.05607789 0.0051645003 -0.00453459 0.029435787 0.03168154 0.07461709 -0.023196172 0.017692162
0.0407013 0.05279184 0.033970077 -0.04624525 -0.017190127 0.028140478 -0.060892764 0.051798403
00000000: b418 813d d2cd f8bc 279f 513d caa9 4cbd
00000010: 8cb2 96bb ed9a 3f3d e0c5 62bd 2301 3d3d
00000020: 9ea9 353d 3f09 313d ce4a 0c3d 4d29 9e3b
00000030: 1757 5e3d fe8b 14bc 6d0d c83c d16b b43b
00000040: eeb1 653d f83a a93b e696 94bb 5223 f13c
00000050: 81c4 013d d8d0 983d e605 bebc 27ef 903c
00000060: 68b6 263d 423c 583d 3524 0b3d a96b 3dbd
00000070: 4fd2 8cbc dc86 e63c b16a 79bd 902a 543d

encoder.5.weight f4 [12, 1568]
0.01479503 -0.023005612 -0.0062774005 0.010597697 0.02435992 0.02334929 0.00608359 0.022983743
0.014595385 -0.013630492 -0.0024528822 -0.039485987 6.860821e-05 0.0067465683 0.022594858 -0.00027877916
0.006058588 -0.069501154 -0.053192098 0.020517156 -0.00012232678 0.009575288 -0.006209661 -0.022487804
0.018836403 -0.055104125 -0.041372146 0.003519319 -0.010493135 -0.0075526126 0.029959178 -0.035060085
-0.09083061 -0.054864954 0.0041291565 0.008607582 0.017648783 0.013977304 -0.0812156 -0.0572404
-0.0038113135 -0.0055251885 -0.008983648 0.008558104 0.00730976 -0.037656873 -0.034133047 -0.010679732
-0.01214027 -0.030099552 0.0039364565 -0.011137109 0.03729288 0.035233192 -0.013861883 -0.034808576
-0.012749298 -0.0133654885 -0.015174185 -0.0965862 -0.033832256 -0.009804897 -0.010227864 -0.022597348
0.0014825277 -0.04092884 -0.15500386 0.015063287 0.09385328 0.037106942 0.019572848 -0.023188557
0.038773037 0.06512761 -0.13437948 -0.017364591 -0.015880894 -0.019457135 -0.00049940107 0.011638735
0.09121365 -0.13661258 -0.012398697 -0.022960156 0.016036037 -0.018390559 0.016028758 -0.04669406
-0.074283436 -0.009483416 0.014718928 0.004879785 0.016679166 0.017918097 -0.03343436 -0.02693523
0.028736169 0.023977853 -0.024777904 -0.0070498246 -0.021543115 -0.028817536 -0.0057152295 -0.0056894184
0.011718293 -0.009113105 0.0065425206 0.0025114072 -0.06032912 -0.010281963 0.03051795 -0.0076427762
0.018630998 -0.0009077537 -0.015731173 0.0060036127 -0.056532644 0.018480195 0.025001852 -0.0025789102
-0.018887635 0.083410285 0.08647209 -0.0030248251 -0.08037992 -0.02215995 -0.0026535008 0.036593486
0.014819262 -0.018702947 0.0027642755 0.016130686 0.00727531 0.012973815 0.005759031 0.085069455
0.067736186 -0.0041590175 0.022700397 0.015352186 -0.0076050693 0.006269551 -0.006822387 -0.022952396
-0.026552252 -0.015966905 0.02300868 -0.012519619 -0.012836335 -0.014029731 -0.041763484 0.025809042
0.02576131 -0.013662894 0.016173745 -0.030569425 -0.0144418655 -0.12272008 0.0046739676 0.031065471
0.011516176 0.012820786 -0.003929083 -0.04997911 0.02185704 -0.056198947 0.11550725 0.052725457
0.012844506 -0.012474553 0.04264077 0.07834938 -0.04248578 0.0011998835 -0.00090894615 0.02456282
0.030797893 -0.05097116 0.06487616 -0.049990013 0.013530491 -0.017607402 -0.0024947042 0.015613316
0.0408061 0.028474357 -0.010816055 -0.022521766 -0.015109139 -0.014440963 -0.013386197 -0.021638792
-0.035612695 -0.006975608 -0.009258594 0.009177202 -0.025880191 0.01580017 -0.010790166 -0.039257128
0.017121624 0.013013766 0.022164917 -0.007367534 0.03304074 -0.060383365 0.14843883 -0.09438311
-0.15422192 0.019072227 0.013994158 0.014123899 0.079060905 -0.0066726613 0.022205101 -0.16295773
-0.16310294 0.053234484 -0.047148734 -0.036580816 0.03279107 0.0753918 -0.03962811 -0.07014503
-0.02811888 -0.020218713 -0.078131415 -0.03552343 -0.027096469 0.056262165 0.011930862 0.0015098681
-0.0035053233 0.017586933 0.009878144 0.043074574 0.023150906 0.003688331 0.022341259 -0.019128598
0.013653378 0.022829037 0.02382347 0.04503938 0.07761358 0.027710354 0.023170598 -0.018812286
-0.0034201224 0.008302196 0.017359618 -0.0018536524 0.026267393 -0.016509788 0.008577547 -0.018722203
00000000: da66 723c 4476 bcbc a7b2 cdbb f7a1 2d3c
00000010: 748e c73c 0347 bf3c da58 c73b 6748 bc3c
00000020: 7b21 6f3c 6d52 5fbc 89c0 20bb 0fbc 21bd
00000030: c1e1 8f38 5112 dd3b da18 b93c 1b29 92b9
00000040: 1f87 c63b 9f56 8ebd f5df 59bd 9813 a83c
00000050: d844 00b9 abe1 1c3c 697a cbbb 5838 b8bc
00000060: cd4e 9a3c ddb4 61bd d775 29bd 60a4 663b
00000070: 66eb 2bbc e87b f7bb f36c f53c 2a9b 0fbd
00000080: 6605 babd 13ba 60bd e04d 873b d106 0d3c
00000090: 2e94 903c 1001 653c 5d54 a6bd e974 6abd
000000a0: 3bc7 79bb a40c b5bb 2730 13bc 4a37 0c3c
000000b0: b686 ef3b 183e 1abd 18cf 0bbd 0bfa 2ebc
000000c0: fce7 46bc 5693 f6bc 64fd 803b 6c78 36bc
000000d0: 6bc0 183d ae50 103d f41c 63bc 7093 0ebd
000000e0: 6ee2 50bc ecfa 5abc 259d 78bc fcce c5bd
000000f0: b193 0abd b8a4 20bc c592 27bc 131e b9bc
00000100: 6051 c23a 00a5 27bd 55b9 1ebe 01cc 763c
00000110: 2636 c03d 73fd 173d 3d57 a03c eef5 bdbc
00000120: 7ad0 1e3d a061 853d c69a 09be 3040 8ebc
00000130: a618 82bc 9264 9fbc 3dea 02ba 65b0 3e3c
00000140: 39ce ba3d 2be4 0bbe e823 4bbc f016 bcbc
00000150: 025e 833c cca7 96bc be4e 833c 4542 3fbd
00000160: ea21 98bd 5460 1bbc a927 713c 9ae6 9f3b
00000170: bfa2 883c f9c8 923c 78f2 08bd 45a7 dcbc
00000180: 1d68 eb3c 346d c43c 08fb cabc 3702 e7bb
00000190: 307b b0bc c112 ecbc d246 bbbb 4d6e babb
000001a0: 15fe 3f3c 224f 15bc a462 d63b 6c96 243b
000001b0: ab1b 77bd ae75 28bc c800 fa3c 4170 fabb
000001c0: 09a0 983c 52f6 6dba a9de 80bc f4b9 c43b
000001d0: c68e 67bd c763 973c afd0 cc3c ef02 29bb
000001e0: 3eba 9abc 03d3 aa3d 4718 b13d 253c 46bb
000001f0: 3a9e a4bd c988 b5bc 5be6 2dbb 0de3 153d
00000200: 7dcc 723c ec36 99bc d928 353b 8024 843c
00000210: b965 ee3b 2090 543c 41b6 bc3b e538 ae3d
00000220: 45b9 8a3d 5e48 88bb 2ff6 b93c bc87 7b3c
00000230: f233 f9bb ce70 cd3b 558e dfbb aa06 bcbc
00000240: 1c84 d9bc 07cd 82bc b37c bc3c 171f 4dbc
00000250: 7e4f 52bc f5dc 65bc 3010 2bbd 7c6d d33c
00000260: 6209 d33c 55da 5fbc cd7e 843c bb6c fabc
00000270: 939d 6cbc aa54 fbbd 1528 993b 047d fe3c
00000280: 58ae 3c3c 460e 523c 89bf 80bb e5b6 4cbd
00000290: 890d b33c de30 66bd 118f ec3d a6f6 573d
000002a0: c371 523c 1162 4cbc 17a8 2e3d a475 a03d
000002b0: 9205 2ebd 6945 9d3a 5846 6eba f837 c93c
000002c0: dd4b fc3c 23c7 50bd cbdd 843d 54c2 4cbd
000002d0: feae 5d3c 663d 90bc 317e 23bb fece 7f3c
000002e0: 4c24 273d 0e43 e93c d335 31bc 917f b8bc
000002f0: 528c 77bc ca99 6cbc c851 5bbc d643 b1bc
00000300: 9ede 11bd a493 e4bb 5cb1 17bc fa5b 163c
00000310: b202 d4bc 5c6f 813c 3dc9 30bc 15cc 20bd
00000320: a642 8c3c b137 553c 3393 b53c 5b6b f1bb
00000330: ba55 073d 8c54 77bd 5900 183e ef4b c1bd
00000340: 5aec 1dbe 5c3d 9c3c c147 653c ed67 673c
00000350: afea a13d 57a6 dabb 79e7 b53c 64de 26be
00000360: 7504 27be 670c 5a3d 081f 41bd c4d5 15bd
00000370: ee4f 063d 0467 9a3d 1651 22bd 33a8 8fbd
00000380: 9159 e6bc b7a1 a5bc 5d03 a0bd 0481 11bd
00000390: 6af9 ddbc 2873 663d aa79 433c c4e6 c53a
000003a0: 91b9 65bb 7912 903c f0d7 213c f76e 303d
000003b0: f8a6 bd3c edb7 713b 0405 b73c 94b3 9cbc
000003c0: 6bb2 5f3c f603 bb3c 7029 c33c 377b 383d
000003d0: def3 9e3d d300 e33c 44d0 bd3c 391c 9abc
000003e0: 2224 60bb ef05 083c c235 8e3c 41f6 f2ba
000003f0: b72e d73c 893f 87bc d788 0c3c 4e5f 99bc

encoder.5.bias f4 [12]
-0.020491086 -0.012865666 0.012053244 0.01981586 -0.027683506 0.031182718 0.0143389795 -0.020178998
0.019927112 -0.022422386 0.030103369 0.009587677
00000000: ecdc a7bc 84ca 52bc f87a 453c df54 a23c
00000010: 85c8 e2bc e672 ff3c 0aee 6a3c 6d4e a5bc
00000020: 2f3e a33c 27af b7bc 579b f63c a215 1d3c

decoder.0.weight f4 [1568, 12]
-0.19213912 0.046791308 0.19015226 -0.00994764 0.0671242 0.1971044 -0.10919801 -0.09087225
0.16441268 0.17040013 0.21981801 -0.25116834 0.10852035 0.02152995 0.04470973 -0.108335614
-0.3190479 0.18688187 0.18968269 0.23080099 0.1367609 -0.19591886 -0.08046651 0.22629564
0.15643623 0.03971453 0.24262032 -0.051587656 -0.088511236 -0.32556325 -0.026754417 -0.09352952
0.26916996 0.12040082 -0.10143914 -0.3323031 -0.06096074 0.10239631 0.02857178 0.17361751
0.22292852 0.33692613 0.009690479 -0.08709163 -0.23400629 -0.06130691 -0.010599681 -0.280121
0.04517852 -0.37815765 0.3614788 0.25857717 -0.13647118 0.24689625 -0.014560362 0.25028396
-0.1241783 0.42750862 0.096664645 -0.24595419 0.18934152 0.30895317 -0.32081816 -0.14065199
-0.09013143 0.079925284 0.011566894 -0.40053168 0.0096048275 0.07521353 -0.10621989 0.21176131
0.1950896 0.23524852 -0.014165963 0.06883229 -0.16222303 0.25148463 0.013287966 -0.046129227
-0.121538416 0.008493073 0.19667952 -0.0055663595 0.02762761 -0.15674561 -0.20439373 0.036957413
0.2264094 -0.057628963 -0.0859813 0.19134806 -0.073327616 -0.14706331 -0.24423073 -0.21966642
0.29031894 -0.20695232 -0.24730714 -0.050372526 0.30198163 -0.103598 -0.018137302 -0.2700069
0.06966456 0.34541053 0.11866598 0.14227927 -0.13781345 -0.09371312 -0.18953548 -0.04488015
-0.31927943 0.18643358 -0.17688859 0.013306516 0.27232945 -0.11173347 0.20508392 0.1931956
-0.6178989 -0.23476775 0.0003679977 -0.18776159 -0.21017583 -0.16363971 0.08154877 -0.12312606
0.45037857 -0.100448124 -0.1421246 0.20190707 0.011681895 -0.26432666 -0.06840829 -0.084879786
0.23982587 -0.2682902 -0.17343092 -0.23002842 -0.2510544 0.050044443 -0.25538006 0.085709296
-0.17746423 0.20246054 -0.1863986 0.2981695 0.08172495 0.054581728 0.20099929 0.17285855
-0.07544166 -0.12657526 0.08879434 -0.018936792 -0.21650048 -0.18318258 0.06592329 -0.023510842
-0.04603669 0.25734746 0.006004011 0.18148719 -0.0541675 -0.19468676 0.10791761 0.21995284
0.10312468 0.35222277 0.14578828 0.008567351 0.12968546 -0.24311592 0.099875644 -0.3387622
0.13597278 0.21091251 -0.25065884 -0.17020664 -0.33746183 -0.11027577 -0.18053886 0.11148452
0.09269509 -0.3029321 0.083175115 0.16459453 -0.23355587 0.17601004 -0.23444472 0.13713767
-0.26704407 -0.11625514 0.19952779 0.030261558 0.14324427 0.081767134 0.07026177 -0.06059363
0.19528325 -0.35345423 0.06892283 0.039270036 0.06349172 0.13410725 -0.15902638 0.215303
-0.031500794 0.33421803 -0.081288435 0.1880791 -0.25103286 0.07626701 0.2099812 -0.20599861
0.15011255 -0.11544025 0.11083007 -0.26137623 0.27404815 -0.022547973 0.10070041 -0.20652051
0.04679447 0.07473377 -0.048095103 0.0024858639 0.09061609 0.047779165 -0.19244157 -0.24608783
0.18892674 -0.2464491 0.027225047 0.039467573 -0.19598833 0.07496788 -0.19347195 -0.20069708
0.23567589 0.04642191 -0.28587043 0.10058539 0.049862634 0.0904394 0.09762584 -0.009223914
-0.031336296 -0.06498013 0.34218267 0.057809032 0.006727982 0.12388966 0.026598053 0.16037393
00000000: 1ec0 44be 3ea8 3f3d 46b7 423e 6dfb 22bc
00000010: 6a78 893d bcd5 493e 35a3 dfbd 3b1b babd
00000020: cc5b 283e 5f7d 2e3e f917 613e 2399 80be
00000030: eb3f de3d 945f b03c 8d21 373d 10df ddbd
00000040: 3f5a a3be f65d 3f3e 2e3c 423e 1857 6c3e
00000050: 0d0b 0c3e f49e 48be a0cb a4bd 0bba 673e
00000060: d230 203e b4ab 223d 7671 783e 944d 53bd
00000070: 6145 b5bd 3ab0 a6be 142c dbbc 688c bfbd
00000080: a5d0 893e b594 f63d 53bf cfbd a223 aabe
00000090: f8b1 79bd 28b5 d13d 5e0f ea3c cac8 313e
000000a0: 6047 643e 9581 ac3e d1c4 1e3c 195d b2bd
000000b0: 589f 6fbe f41c 7bbd 49aa 2dbc 056c 8fbe
000000c0: 1d0d 393d e19d c1be c013 b93e 3a64 843e
000000d0: 1abf 0bbe 5fd2 7c3e 968e 6ebc 3825 803e
000000e0: 3151 febd 69e2 da3e 1df8 c53d 6adb 7bbe
000000f0: bee2 413e 1c2f 9e3e 4742 a4be 1307 10be
00000100: d496 b8bd deaf a33d 1283 3d3c 7d12 cdbe
00000110: 915d 1d3c 8d09 9a3d d089 d9bd f5d7 583e
00000120: 91c5 473e fde4 703e 5b18 68bc f2f7 8c3d
00000130: cb1d 26be 98c2 803e c5b5 593c 00f2 3cbd
00000140: 22e9 f8bd 8826 0b3c 5b66 493e 0266 b6bb
00000150: 4c53 e23c ec81 20be 974c 51be a860 173d
00000160: ded7 673e 590c 6cbd f716 b0bd bff0 433e
00000170: ca2c 96bd c497 16be 9f17 7abe 3cf0 60be
00000180: afa4 943e 4feb 53be 153e 7dbe 6c53 4ebd
00000190: 569d 9a3e 302b d4bd ae94 94bc 583e 8abe
000001a0: 4bac 8e3d a6d9 b03e 2607 f33d a8b1 113e
000001b0: f81e 0dbe aaec bfbd 9715 42be 40d4 37bd
000001c0: 9878 a3be 72e8 3e3e 4822 35be 9303 5a3c
000001d0: c46e 8b3e 84d4 e4bd 8501 523e 11d5 453e
000001e0: 9f2e 1ebf f566 70be d1ef c039 9344 40be
000001f0: 5538 57be 2b91 27be 0b03 a73d 8429 fcbd
00000200: 0598 e63e bfb7 cdbd 1c89 11be bac0 4e3e
00000210: 6b65 3f3c d355 87be a519 8cbd 74d5 adbd
00000220: ea94 753e 555d 89be e097 31be 928c 6bbe
00000230: 348a 80be 67fb 4c3d 2dc1 82be 5b88 af3d
00000240: 2fb9 35be d151 4f3e 46df 3ebe aca9 983e
00000250: 695f a73d 1791 5f3d c2d2 4d3e d501 313e
00000260: 2881 9abd f29c 01be cfd9 b53d 5521 9bbc
00000270: 4db2 5dbe 3794 3bbe ca02 873d cf99 c0bc
00000280: f890 3cbd 0cc3 833e 4bbd c43b c7d7 393e
00000290: bede 5dbd f75b 47be e803 dd3d 513b 613e
000002a0: 0833 d33d 8b56 b43e 8649 153e 135e 0c3c
000002b0: 44cc 043e 61f3 78be 9a8b cc3d 3d72 adbe
000002c0: 733c 0b3e 73f9 573e 5b56 80be a64a 2ebe
000002d0: ccc7 acbe 43d8 e1bd 2edf 38be ff51 e43d
000002e0: ecd6 bd3d eb19 9bbe b757 aa3d 788b 283e
000002f0: 4529 6fbe fa3b 343e 4712 70be d16d 0c3e
00000300: 00ba 88be 2d17 eebd 0351 4c3e 16e7 f73c
00000310: a0ae 123e 8775 a73d 67e5 8f3d 0731 78bd
00000320: 55f8 473e f4f7 b4be 6a27 8d3d 9ed9 203d
00000330: f207 823d 6953 093e d0d7 22be 6478 5c3e
00000340: fa06 01bd a01e ab3e 8d7a a6bd cf97 403e
00000350: 6187 80be e131 9c3d 5005 573e 4df1 52be
00000360: 1bb7 193e f06b ecbd e0fa e23d 1bd3 85be
00000370: 0a50 8c3e 87b6 b8bc 043c ce3d 1d7a 53be
00000380: 8fab 3f3d 050e 993d 5fff 44bd e0e9 223b
00000390: ee94 b93d 16b4 433d 670f 45be 73fe 7bbe
000003a0: 0376 413e 275d 7cbe 1007 df3c c0a8 213d
000003b0: 2ab1 48be c388 993d 831d 46be 8983 4dbe
000003c0: 0555 713e e724 3e3d 9c5d 92be b7ff cd3d
000003d0: c33c 4c3d 4b38 b93d 0ef0 c73d e61f 17bc
000003e0: 7d5a 00bd 4d14 85bd 9132 af3e 2ac9 6c3d
000003f0: 6776 dc3b ddb9 fd3d 29e4 d93c 1039 243e

decoder.0.bias f4 [1568]
0.2953146 0.10118376 -0.19087768 0.017839843 0.35454887 0.45027015 0.20761606 -0.0027476945
-0.30362543 -0.093115196 0.29105294 0.034117907 -0.06501455 0.2567683 0.017023714 -0.2985119
0.042936433 -0.182697 -0.12635604 -0.28123963 0.042154644 0.31295395 -0.18899278 0.086649664
0.035968628 0.0073948987 0.13029808 -0.16710816 0.14816947 0.2130922 0.027358884 0.3150313
-0.10869864 0.1390723 -0.27164268 0.3247995 0.14673276 0.11614458 -0.10792026 0.012788202
0.041537505 0.33229944 0.20295352 0.35175413 0.18663727 0.1625061 -0.0518518 -0.016744576
0.37503755 -0.2719503 0.24018551 -0.017435385 -0.04666867 0.087731674 -0.14513527 0.32268673
-0.035776403 -0.33480763 -0.002255773 -0.02275883 0.15953375 -0.20477535 -0.16697975 -0.1279745
-0.23164631 0.2784014 -0.36009178 0.09395388 0.29095072 -0.26203966 0.3058454 -0.062492963
-0.3808258 0.021265158 -0.09695449 -0.023633173 -0.04074617 0.39255 0.24980995 0.2298546
0.035838667 0.004978959 -0.16430439 -0.3307949 0.1834091 0.19644742 0.062665135 -0.025670622
0.17319484 0.048662383 0.24034786 -0.05395073 0.1105973 0.36828065 -0.0076267044 0.10654637
0.18775487 0.36465722 0.08100243 -0.055765554 0.2758254 0.30304107 0.22612165 0.3397526
0.21529448 0.07899572 0.14307965 -0.07157149 -0.058388542 0.41723233 -0.2020895 -0.08220153
0.3501266 0.1377437 0.042519454 0.029321902 0.01975078 -0.34223893 0.035219397 -0.075224325
-0.19159916 -0.11317586 -0.15080677 -0.012750377 0.16253312 0.13670506 0.1623722 -0.16184193
-0.016036622 0.31113547 -0.1633962 -0.130494 0.19828309 0.12404915 -0.028258229 -0.1039039
-0.0149925165 0.00347281 0.09698689 -0.086002044 0.24948353 0.1315031 0.36652336 -0.17258762
-0.1492269 0.025564322 0.36150518 0.11839878 -0.24793245 0.1612161 0.36608317 0.2719051
-0.15781179 0.10602534 0.11856942 -0.1394769 -0.16286828 0.019709853 -0.16247353 -0.02075916
0.28222114 0.056096185 -0.013824513 -0.1540685 0.20953351 0.22190745 0.25810838 0.06832475
-0.031145371 -0.12511414 0.16438062 0.18425362 0.07472024 0.1807255 -0.16820909 0.13316485
0.2242782 -0.24705747 0.22398318 -0.34577277 -0.12179548 0.08829882 -0.072916605 0.15704459
0.15320763 -0.19214348 -0.08196853 -0.3276846 -0.09917417 -0.29272836 -0.18383801 -0.08472603
-0.15348615 -0.0055409838 0.12449504 0.3691767 0.10008161 0.10058107 0.039313234 -0.044106506
-0.1604086 -0.09137588 0.07469646 0.2282277 -0.028984498 0.13230677 -0.014087105 0.15675533
0.22549051 0.2220796 0.118414484 0.30415618 0.034947857 0.3372396 0.07784487 -0.18996829
-0.006285605 0.3680145 -0.2607155 -0.053543314 0.15633868 -0.17921008 -0.013244055 0.15582952
0.22451465 -0.16339152 -0.032484215 -0.10844503 0.037261337 -0.13531306 0.16994026 -0.060788706
-0.08368501 0.059816472 0.071144566 0.2440157 0.11126797 0.33332705 0.35522974 -0.0182937
-0.33460096 -0.26381865 0.20284139 0.003611143 -0.16579238 0.35636213 0.09541213 -0.04989214
0.3863631 0.13243191 0.34857893 0.42345685 0.0924229 0.03908591 -0.07017582 0.11719514
00000000: 7a33 973e 6e39 cf3d 7075 43be dd24 923c
00000010: 6e87 b53e cf89 e63e 4e99 543e aa12 34bb
00000020: cb74 9bbe 2eb3 bebd e404 953e 38bf 0b3d
00000030: 5926 85bd 2277 833e 5175 8b3c 8dd6 98be
00000040: 1dde 2f3d ec14 3bbe 7a63 01be a4fe 8fbe
00000050: 59aa 2c3d 803b a03e 5387 41be 6175 b13d
00000060: d753 133d e850 f23b dc6c 053e 671e 2bbe
00000070: bdb9 173e d734 5a3e bd1f e03c c84b a13e
00000080: 649d debd f868 0e3e c014 8bbe 1f4c a63e
00000090: 1d41 163e 36dd ed3d 4c05 ddbd 9b85 513c
000000a0: 3b23 2a3d 2723 aa3e 0cd3 4f3e 1e19 b43e
000000b0: d71d 3f3e 0068 263e 8e62 54bd ec2b 89bc
000000c0: ec04 c03e 123d 8bbe 31f3 753e a7d4 8ebc
000000d0: a627 3fbd aaac b33d 579e 14be 3237 a53e
000000e0: 478a 12bd e86b abbe 97d5 13bb ba70 babc
000000f0: d15c 233e a1b0 51be bdfc 2abe bf0b 03be
00000100: b134 6dbe a18a 8e3e f35d b8be e46a c03d
00000110: 7ef7 943e 102a 86be c597 9c3e 9ff8 7fbd
00000120: 99fb c2be 4534 ae3c 1390 c6bd 5b9a c1bc
00000130: 75e5 26bd 50fc c83e 2ece 7f3e 015f 6b3e
00000140: 91cb 123d 8926 a33b 693f 28be f35d a9be
00000150: 98cf 3b3e 8329 493e 9456 803d 324b d2bc
00000160: fd59 313e 3552 473d c01d 763e 71fb 5cbd
00000170: d680 e23d 488f bc3e 6fe9 f9bb fc34 da3d
00000180: d042 403e 5ab4 ba3e 9ae4 a53d 6c6a 64bd
00000190: fd38 8d3e 3328 9b3e 6f8c 673e 0ef4 ad3e
000001a0: 2876 5c3e 82c8 a13d 7983 123e 1394 92bd
000001b0: d328 6fbd 7a9f d53e 8df0 4ebe 4759 a8bd
000001c0: cb43 b33e af0c 0d3e e128 2e3d 7c34 f03c
000001d0: 63cc a13c f139 afbe 3742 103d 360f 9abd
000001e0: 9232 44be bfc8 e7bd 176d 1abe f5e6 50bc
000001f0: 156f 263e 69fc 0b3e e644 263e e4b9 25be
00000200: 3c5f 83bc 264d 9f3e 5551 27be 38a0 05be
00000210: b90a 4b3e 7b0d fe3d cd7d e7bc 91cb d4bd
00000220: 2ca3 75bc 1598 633b 10a1 c63d d721 b0bd
00000230: 9c78 7f3e c0a8 063e f3a8 bb3e cfba 30be
00000240: f0ce 18be 456c d13c 3517 b93e 0f7b f23d
00000250: 01e2 7dbe d515 253e 416f bb3e 2537 8b3e
00000260: 6a99 21be d023 d93d 86d4 f23d 08d3 0ebe
00000270: f1c6 26be 8f76 a13c 765f 26be 1d0f aabc
00000280: 4a7f 903e 1dc5 653d 3680 62bc 22c4 1dbe
00000290: f48f 563e b53b 633e c826 843e d9ed 8b3d
000002a0: 9424 ffbc ec1d 00be 6553 283e fbac 3c3e
000002b0: ed06 993d 1b10 393e 013f 2cbe 5e5c 083e
000002c0: 2fa9 653e a2fc 7cbe d95b 653e 2109 b1be
000002d0: e96f f9bd 03d6 b43d 4d55 95bd 4cd0 203e
000002e0: 76e2 1c3e 43c1 44be 1edf a7bd 47c6 a7be
000002f0: d41b cbbd 7ee0 95be 0840 3cbe d784 adbd
00000300: 792b 1dbe 2491 b5bb 41f7 fe3d ba04 bd3e
00000310: 96f7 cc3d 73fd cd3d ea06 213d 06a9 34bd
00000320: 2742 24be 4723 bbbd 75fa 983d 86b4 693e
00000330: e670 edbc 6d7b 073e 9acd 66bc 7884 203e
00000340: fce6 663e d668 633e 4b83 f23d 5cba 9b3e
00000350: 7c25 0f3d abaa ac3e 226d 9f3d 0c87 42be
00000360: 7af7 cdbb 666c bc3e 817c 85be 3c50 5bbd
00000370: 3f17 203e d982 37be 98fd 58bc c691 1f3e
00000380: 2be7 653e 1b50 27be 2b0e 05bd 6e18 debd
00000390: 589f 183d 828f 0abe d204 2e3e 94fd 78bd
000003a0: 0c63 abbd 1e02 753d 3eb4 913d 40df 793e
000003b0: 76e0 e33d d8a9 aa3e ace0 b53e abdc 95bc
000003c0: d150 abbe 3d13 87be a7b5 4f3e eda8 6c3b
000003d0: 7ac5 29be 1975 b63e 6f67 c33d b35b 4cbd
000003e0: 62d1 c53e 3b9c 073e f078 b23e 56cf d83e
000003f0: 3848 bd3d 8c18 203d 57b8 8fbd 0104 f03d

decoder.3.weight f4 [32, 16, 3, 3]
0.006233653 -0.02759519 -0.041987754 0.020929595 -0.0052860263 -0.026001072 0.015549644 0.036291406
0.033656884 -0.061198667 0.049207658 -0.011002894 -0.07050152 -0.07071056 -0.013152896 0.044748005
-0.03276521 -0.051284682 0.014014059 -0.12344329 -0.09162865 -0.003635188 -0.15988818 -0.24132623
-0.05632701 -0.12356691 -0.10305323 0.030924115 0.0011160602 -0.107870564 -0.032052126 -0.013797538
-0.014527201 -0.051698823 0.0041063833 -0.07948852 -0.01524919 0.03625264 0.024578601 -0.03072431
-0.02026784 0.04577852 -0.033976227 -0.0058393376 0.0021589103 0.08228085 -0.011680993 0.008111928
-0.017362421 0.020919776 -0.18069144 -0.19031721 -0.13975318 -0.0074561886 -0.011200608 0.009511503
-0.029908389 0.042001408 -0.046412818 -0.030746669 0.0238632 -0.008650606 -0.017220214 -0.021085387
-0.006872119 -0.059561066 0.010688526 -0.019121554 -0.070070565 0.0058720545 0.025038254 0.024776697
0.013245835 -0.057395868 -0.06240415 -0.07571753 -0.2071509 -0.17155398 -0.12541768 -0.2004998
-0.12203435 -0.0067947637 0.018948844 0.049590137 0.0005987509 0.0155586125 0.025646424 -0.0033637306
0.0028496862 0.0136961425 0.0032695187 -0.09210522 0.043102495 -0.08247128 -0.14988376 -0.11330642
-0.07072757 -0.07203031 -0.039812945 0.20504415 -0.00032460154 0.014933238 0.0042499155 0.011089958
0.0117032295 -0.026695073 -0.130786 -0.24420774 -0.085138164 -0.014767105 -0.087659545 0.0443463
-0.144173 0.017017579 -0.024784554 -0.016380824 -0.028993135 -0.014977176 -0.08325026 -0.07468453
-0.11429317 0.012826659 -0.11164249 -0.09692968 -0.07342509 -0.03497502 0.008637351 0.024322143
0.040176786 0.01868515 0.025246182 0.018169703 -0.022297364 -0.011120676 0.007260757 0.005247896
-0.03380878 -0.056574572 0.07885849 -0.007929914 -0.10500433 0.037079807 0.042031974 0.010841922
3.896692e-05 0.0011519636 0.002758399 0.03614453 0.008143725 -0.024741318 -0.001789249 0.080854736
0.014985878 0.05212699 -0.03228465 -0.006460928 0.028273685 0.006070947 -0.044994954 -0.05047616
0.025439763 -0.05235477 0.028335221 0.026476795 -0.022645835 -0.013997657 -0.08138783 -0.1786167
-0.06520964 -0.17158426 -0.09773242 0.023893917 -0.00033392583 3.9430786e-05 -0.045650974 0.016583467
-0.04023326 -0.018446794 0.0459035 -0.05365604 -0.0034786891 0.008771003 -0.007014075 -0.038102813
0.060225505 0.02671547 -0.01082367 -0.014186158 0.036112245 -0.11577043 0.026117198 0.033614628
0.059848715 0.029950945 -0.06454269 -0.121841155 -0.11340291 -0.22409126 -0.017968632 0.040447008
-0.08515398 -0.09747425 -0.07338344 -0.06960174 -0.10190142 -0.028458206 0.0015221866 0.0036619583
0.031236691 -0.030504338 0.036061987 0.004372027 -0.13395977 0.015611529 0.02503192 0.022857541
0.03798896 0.044530638 0.024641741 0.016862838 -0.057756986 -0.082676776 -0.13065132 -0.18798591
-0.107118346 -0.0034717058 0.0321577 0.032603003 -0.0070435447 -0.0097987745 0.04417319 -0.009840463
-0.02874256 -0.002381975 0.019106446 0.022621691 -0.06668657 -0.041642606 -0.073283814 -0.11635306
-0.012529864 -0.17261066 -0.19700636 0.025715007 0.025957244 0.0023261441 0.012796812 -0.023412876
-0.012939643 -0.04553054 -0.059079796 -0.18014933 -0.065726995 0.0060194135 0.05262683 -0.0760065
00000000: ac43 cc3b 4f0f e2bc 5afb 2bbd 8b74 ab3c
00000010: 6736 adbb 3300 d5bc efc3 7e3c 4ca6 143d
00000020: cddb 093d 74ab 7abd f88d 493d 7b45 34bc
00000030: 1a63 90bd b3d0 90bd 3f7f 57bc af49 373d
00000040: d034 06bd e30f 52bd 399b 653c d6cf fcbd
00000050: cda7 bbbd 563c 6ebb bab9 23be 391e 77be
00000060: 27b7 66bd a610 fdbd 920d d3bd 9254 fd3c
00000070: c448 923a 3eeb dcbd 1749 03bd 120f 62bc
00000080: 7f03 6ebc 25c2 53bd d78e 863b e1ca a2bd
00000090: bdd7 79bc a67d 143d 1059 c93c 8cb1 fbbc
000000a0: be08 a6bc 4282 3b3d a82a 0bbd ea57 bfbb
000000b0: 817c 0d3b dd82 a83d a361 3fbc e4e7 043c
000000c0: a33b 8ebc f35f ab3c 2d07 39be 84e2 42be
000000d0: 751b 0fbe 0b53 f4bb c182 37bc 23d6 1b3c
000000e0: 7002 f5bc ab09 2c3d 5e1b 3ebd 70e0 fbbc
000000f0: c27c c33c 45bb 0dbc 6811 8dbc 43bb acbc
00000100: 832f e1bb 4ef6 73bd ed1e 2f3c cea4 9cbc
00000110: 2881 8fbd 5d6a c03b 061d cd3c 80f8 ca3c
00000120: 0f05 593c ee17 6bbd 7e9b 7fbd cb11 9bbd
00000130: 5e1f 54be d9ab 2fbe 7e6d 00be d24f 4dbe
00000140: 25ed f9bd 9ca6 debb 9b3a 9b3c 071f 4b3d
00000150: 7ef5 1c3a 8de9 7e3c 7318 d23c 0972 5cbb
00000160: cdc1 3a3b c965 603c 6c45 563b a9a1 bcbd
00000170: 3e8c 303d b4e6 a8bd 217b 19be 320d e8bd
00000180: 9ed9 90bd a184 93bd e612 23bd 18f7 513e
00000190: 482f aab9 8aaa 743c e042 8b3b a8b2 353c
000001a0: e7be 3f3c a0af dabc c4ec 05be 9811 7abe
000001b0: eb5c aebd baf1 71bc d986 b3bd 77a4 353d
000001c0: 16a2 13be 7368 8b3c fa08 cbbc 1431 86bc
000001d0: 0383 edbc d462 75bc 1d7f aabd 34f4 98bd
000001e0: 8a12 eabd e826 523c d1a4 e4bd 1183 c6bd
000001f0: e55f 96bd f741 0fbd ad83 0d3c 3b3f c73c
00000200: 6a90 243d 9a11 993c 15d1 ce3c a1d8 943c
00000210: f6a8 b6bc 7f33 36bc a5eb ed3b 8bf6 ab3b
00000220: 137b 0abd bdba 67bd 8f80 a13d 78ec 01bc
00000230: 830c d7bd ffe0 173d b829 2c3d 51a2 313c
00000240: 6970 2338 7cfd 963a 41c6 343b 490c 143d
00000250: 426d 053c 4eae cabc 3c85 eaba 2b97 a53d
00000260: 5487 753c 1c83 553d e93c 04bd 31b6 d3bb
00000270: 379e e73c cbee c63b a14c 38bd 17c0 4ebd
00000280: 0d67 d03c f571 56bd 441f e83c dde5 d83c
00000290: c283 b9bc 6e56 65bc aaae a6bd 4ce7 36be
000002a0: a28c 85bd c9b3 2fbe ef27 c8bd 2dbd c33c
000002b0: c412 afb9 7c62 2538 84fc 3abd 0dda 873c
000002c0: a1cb 24bd bb1d 97bc 4f05 3c3d 70c6 5bbd
000002d0: b8fa 63bb 41b4 0f3c 53d6 e5bb b211 1cbd
000002e0: 05af 763d 67da da3c c355 31bc 0f6d 68bc
000002f0: 6fea 133d 0c19 edbd bcf3 d53c 7eaf 093d
00000300: ed23 753d af5b f53c f52e 84bd db87 f9bd
00000310: c93f e8bd 2e78 65be f432 93bc c3ab 253d
00000320: 3665 aebd 94a0 c7bd 0f4a 96bd 5b8b 8ebd
00000330: b1b1 d0bd 2f21 e9bc 1b84 c73a 77fd 6f3b
00000340: 17e4 ff3c 3ce4 f9bc bcb5 133d 3843 8f3b
00000350: c02c 09be 80c7 7f3c be0f cd3c bd3f bb3c
00000360: 509a 1b3d c265 363d 7add c93c ef23 8a3c
00000370: 9792 6cbd 7152 a9bd 76c9 05be 617f 40be
00000380: dd60 dbbd 8f85 63bb cbb7 033d ba8a 053d
00000390: 89cd e6bb 0a8b 20bc f2ee 343d e539 21bc
000003a0: 8475 ebbc e91a 1cbb 1f85 9c3c 2051 b93c
000003b0: f892 88bd 7091 2abd d315 96bd 834a eebd
000003c0: 0f4a 4dbc d9c0 30be 09bc 49be 47a8 d23c
000003d0: 49a4 d43c 3972 183b b8a9 513c 5ccc bfbc
000003e0: cc00 54bc 3b7e 3abd a8fd 71bd 1179 38be
000003f0: e09b 86bd 803e c53b 3b8f 573d 4ca9 9bbd

decoder.3.bias f4 [16]
0.18112698 0.056193344 0.023356654 0.07032698 0.16789372 0.07350695 -0.09288426 0.2480526
0.06927847 0.25413463 0.061429057 0.22725417 -0.045462653 -0.022621524 0.1688483 0.17512812
00000000: 5a79 393e fe2a 663d 7456 bf3c 9707 903d
00000010: 55ec 2b3e d08a 963d 1a3a bebd 8001 7e3e
00000020: dfe1 8d3d ef1d 823e 099d 7b3d 51b5 683e
00000030: 0c37 3abd c650 b9bc 92e6 2c3e c954 333e

decoder.5.weight f4 [16, 1, 3, 3]
0.019139735 -0.22637287 -0.035812642 0.13223666 -0.036271118 -0.1326235 -0.0048169005 0.17960887
-0.105382755 -0.23462738 0.06493929 0.08765436 -0.049068447 -0.3106404 0.27609402 0.32674614
0.23175943 -0.2600715 -0.09309464 -0.20877331 -0.35177866 0.47600412 0.19994517 -0.3686111
0.6700545 0.23257324 -0.22136834 0.26531193 0.15159634 0.03893319 0.09681699 -0.12746377
0.020838227 0.025042977 -0.28900996 0.12716313 -0.03710153 -0.105797015 -0.038311798 -0.08516936
-0.14429818 -0.2287359 -0.16656803 0.020785026 -0.17912506 0.38952243 0.4477078 0.17144515
0.20147759 -0.19251756 -0.18028556 -0.044150304 -0.29911572 -0.06084977 -0.06499845 -0.057076063
0.0405683 0.033775397 0.21113123 0.22553453 0.1660583 0.36469996 0.27206558 0.10224766
-0.019253729 0.04850359 -0.09667083 -0.01033784 -0.04313535 -0.09946527 -0.30375534 -0.22627066
0.22702026 0.6309296 0.4331652 0.3547354 0.8728324 0.50922215 -0.0555705 0.1876269
0.050218064 -0.18626536 0.047435023 -0.07201945 0.08341749 -0.23117422 -0.3165332 -0.001383193
-0.21389094 -0.05756769 -0.09285672 -0.045240026 0.13452666 -0.14428474 0.2391231 0.4465252
0.090022445 0.5355133 0.40873352 -0.10917471 -0.1226312 -0.16855188 -0.27443516 -0.45808667
-0.33255023 -0.23496054 -0.2261741 -0.17631085 -0.32944882 0.04260175 -0.2006813 -0.3789356
0.21758278 -0.09083333 -0.36517712 -0.060984433 -0.27754214 -0.32731003 -0.3773119 0.026928978
-0.56270206 -0.3145566 0.2260972 -0.25996542 0.00076086516 0.16498518 0.14702417 -0.13454923
-0.15189879 -0.15269706 -0.19693138 0.03067696 0.050089315 -0.19237536 -0.03562942 -0.14456135
0.09419676 -0.18050703 -0.22383827 -0.3851907 -0.15259193 -0.25797608 -0.34157398 0.10032908
00000000: efca 9c3c 4ace 67be 47b0 12bd 0c69 073e
00000010: 0691 14bd 74ce 07be 17d7 9dbb 63eb 373e
00000020: ead2 d7bd 2942 70be e4fe 843d 2184 b33d
00000030: fffb 48bd 420c 9fbe 325c 8d3e 454b a73e
00000040: 5852 6d3e 1728 85be 67a8 bebd acc8 55be
00000050: 551c b4be d0b6 f33e 6dbe 4c3e 98ba bcbe
00000060: b188 2b3f ae27 6e3e 62ae 62be f7d6 873e
00000070: 123c 1b3e 6978 1f3d fc47 c63d dd85 02be
00000080: eeb4 aa3c ee26 cd3c 1df9 93be 0d37 023e
00000090: c6f7 17bd 1bac d8bd d5ec 1cbd 466d aebd
000000a0: e7c2 13be be39 6abe cf90 2abe 5c45 aa3c
000000b0: 8f6c 37be 7c6f c73e f539 e53e 518f 2f3e
000000c0: 2450 4e3e 5323 45be c79c 38be f3d6 34bd
000000d0: b225 99be 9c3d 79bd e81d 85bd 97c8 69bd
000000e0: f22a 263d 1258 0a3d c932 583e 86f2 663e
000000f0: 300b 2a3e f4b9 ba3e 2e4c 8b3e 3967 d13d
00000100: ffb9 9dbc b3ab 463d 5bfb c5bd 0b60 29bc
00000110: b1ae 30bd 73b4 cbbd d285 9bbe 7fb3 67be
00000120: 0078 683e 9a84 213f d4c7 dd3e e19f b53e
00000130: f271 5f3f 625c 023f e59d 63bd 4421 403e
00000140: 75b1 4d3d 59bc 3ebe 3a4b 423d ef7e 93bd
00000150: cad6 aa3d efb8 6cbe a410 a2be 414c b5ba
00000160: 3a06 5bbe 19cc 6bbd aa2b bebd 9b4d 39bd
00000170: 5bc1 093e 61bf 13be b0dc 743e f39e e43e
00000180: b05d b83d 6617 093f 8545 d13e fe96 dfbd
00000190: 1126 fbbd dd98 2cbe c482 8cbe 568a eabe
000001a0: 0644 aabe 7f99 70be 2f9a 67be d58a 34be
000001b0: 84ad a8be 2c7f 2e3d 667f 4dbe d903 c2be
000001c0: 05ce 5e3e d306 babd 7ff8 babe d0ca 79bd
000001d0: 011a 8ebe 2e95 a7be 062f c1be 299a dc3c
000001e0: 3e0d 10bf 900d a1be 0686 673e 301a 85be
000001f0: cc74 473a e0f1 283e 818d 163e 46c7 09be
00000200: 5b8b 1bbe 9e5c 1cbe 61a8 49be 3f4e fb3c
00000210: 742a 4d3d 0cfe 44be 28f0 11bd e407 14be
00000220: 3bea c03d d6d6 38be dc35 65be b737 c5be
00000230: 0f41 1cbe 7115 84be c9e2 aebe 5579 cd3d
