models/model_b1.pt (torch, 199311 bytes, 11 tensors)

encoder.0.weight f4 [16, 1, 3, 3]
000000 ac 0c 19 3e c9 26 ad bd 0d a3 9d 3e 43 92 a7 3c
       0.1494624 -0.08454663 0.3078846 0.020455485
000010 e9 27 97 bd fe a0 16 bd 8e 46 80 be 3f 79 b9 be
       -0.07380659 -0.036774628 -0.2505383 -0.36225316
000020 9b b1 1f 3e 82 25 5e be c7 88 5f be f9 e5 7a bd
       0.15595095 -0.21693996 -0.2182952 -0.061254475
000030 80 92 75 be 32 3b a4 bc 27 e4 77 be 06 84 6f be
       -0.23981667 -0.020047758 -0.24208127 -0.23390207
000040 9f 9b 59 3e d7 cf 0f 3d 50 ce 1b bd 52 7d 5b 3e
       0.21250771 0.03511032 -0.03803855 0.21434525
000050 6b 1a 05 be 00 28 cf 3e 06 47 36 be a1 c1 ce bd
       -0.12998359 0.40460205 -0.17800531 -0.100955255
000060 d9 58 6e 3e 31 05 2b bd fb 02 df bd 2a 73 2e 3d
       0.2327608 -0.041752998 -0.1088924 0.042590298
000070 78 31 cc 3d e9 51 1f be b3 b9 2d be 4d bd 8b 3e
       0.09970373 -0.1555859 -0.1696537 0.27292863
000080 5d b6 94 be dc 79 8d 3d 19 47 59 bd 06 8d 59 bd
       -0.29045382 0.069080085 -0.05304632 -0.053113006
000090 6a 40 98 be 48 66 ab be d0 ff 84 be b4 9b 83 3e
       -0.29736644 -0.33476472 -0.2597642 0.2570473
0000a0 d7 cc 48 3e 21 ee ab 3e 1c b5 86 be 01 bc 17 3e
       0.1960939 0.33580115 -0.2631005 0.14817812
0000b0 3a 89 81 3e 18 9d 60 3d 5e 5b d8 3d 9c 7f 01 be
       0.25300008 0.054837316 0.10564302 -0.12646335
0000c0 4b 14 9d 3e 7f a2 9d 3e 0e 65 55 bd 62 8e 06 3e
       0.30679545 0.30788037 -0.052098326 0.13140252
0000d0 a2 24 11 3c 6b 4d 0e bd db 22 a8 3e d1 f4 09 be
       0.008858832 -0.0347418 0.32839093 -0.13472296
0000e0 0f 57 15 be 5b 6d e1 3d 98 3c 69 3e 32 00 82 3e
       -0.14583991 0.11007186 0.22777021 0.25390774
0000f0 f5 bf b1 be 89 a5 8f be 29 6d 50 bc 75 1e 94 be
       -0.34716764 -0.2805598 -0.012721338 -0.28929487
000100 52 53 af 3e 02 b2 4b be fe 14 40 bd 62 ef 11 3d
       0.34243256 -0.19892123 -0.04689502 0.035628684
000110 5d d5 58 be e7 4d 61 3e 21 16 2e be 1b 60 21 3e
       -0.21175142 0.22002374 -0.17000629 0.15759318
000120 19 11 2f bc 46 a0 3a 3e f9 bd 10 3d d7 73 e3 bd
       -0.010685229 0.18225202 0.035337422 -0.11106079
000130 eb 1d c9 be ed 1f 15 3d a9 4a cf bd d1 66 0c bb
       -0.39280638 0.0364074 -0.10121662 -0.0021423588
000140 1c ad ff bd 12 40 6e be bb c2 00 be 8f f4 8d 3e
       -0.1248419 -0.23266628 -0.12574284 0.27725646
000150 06 23 6a be ed 4f 9f 3c f5 04 89 3e 31 3d 5d be
       -0.22864923 0.019447291 0.26761594 -0.21605374
000160 0e 77 c4 3d 62 79 fc 3d 14 93 1c 3b c6 e5 ba 3c
       0.095930204 0.123278394 0.0023891376 0.022814643
000170 e8 14 51 be 99 f0 19 be 17 f6 d9 3d 27 c8 82 be
       -0.20418131 -0.15033187 0.10642641 -0.2554333
000180 7c e1 74 3e 35 9d bf 3e 53 27 bb 3d 25 6b 01 be
       0.2391414 0.37424627 0.0913836 -0.12638529
000190 db fa 95 3e 94 74 fb 3b b8 ae 91 be e8 e2 27 be
       0.2929295 0.0076738093 -0.28453612 -0.16395152
0001a0 9b e8 19 3e a5 80 6a bc 04 a3 d1 3e d0 c3 04 3d
       0.15030138 -0.014312898 0.40944684 0.032413304
0001b0 47 d6 3e 3e 85 8e 69 be c6 58 85 be e4 90 06 be
       0.18636428 -0.22808273 -0.2604429 -0.13141209
0001c0 87 b7 89 3e 82 b2 51 3e 47 63 80 3e 77 3c bb bd
       0.26897833 0.20478252 0.25075743 -0.09142392
0001d0 1d f5 e3 3c 8e 7b 50 be d6 2e 70 bd 5e ce 37 3e
       0.02782684 -0.20359632 -0.058638416 0.17949817
0001e0 ac 4c 80 be ea b8 8d 3e 93 f8 34 3e 8b e4 6b be
       -0.25058496 0.2768014 0.17672949 -0.23036401
0001f0 64 f1 99 be 36 54 ed bc e4 0e 6a 3e 20 0f b2 3d
       -0.3006698 -0.028970819 0.22857243 0.08694291
000200 cf 50 e1 bd 8d fc 6f bd 76 d9 50 be bd 36 a2 be
       -0.11001741 -0.05859046 -0.20395455 -0.31682387
000210 d5 90 47 3e a4 3b 61 3c 51 35 61 be 0b 40 69 3d
       0.19488843 0.01374713 -0.21992995 0.05694584
000220 7f 12 fc bd 90 55 91 3e 1f 3f 78 bd b5 dc 96 3e
       -0.12308215 0.28385592 -0.060607072 0.2946526
000230 02 03 a7 3d 78 23 45 3d ce f9 34 3e 7c c6 ab bd
       0.081548706 0.04812953 0.17673418 -0.08387467

encoder.0.bias f4 [16]
000000 5c b6 ce bd 03 9f 6e be 55 d8 79 3e 23 f7 7c bd
       -0.10093376 -0.23302846 0.2439893 -0.061759125
000010 94 36 01 3d d2 51 3f 3e 97 d7 87 bc bc b8 30 be
       0.03154619 0.18683556 -0.016582293 -0.1725797
000020 34 d8 e8 3d 4a 6a 45 bc 15 a4 50 3e d2 d2 95 3e
       0.113693625 -0.012049267 0.20375092 0.29262406
000030 72 ff 62 3e b2 9d de bd f7 70 28 ba b6 be ab 3e
       0.22167757 -0.10869922 -0.00064255245 0.33543938

encoder.2.weight f4 [32, 16, 3, 3]
000000 af f5 d2 3b 00 7b 2a bd c9 da 7f 3d 09 f6 72 bd
       0.006437979 -0.04162121 0.06246451 -0.05931667
000010 f6 23 d6 bd d3 83 02 be 38 7a b8 3d fb c4 e0 3c
       -0.10456078 -0.127456 0.090076864 0.027437678
000020 5d 25 5d 3d 6b 76 1f bd af ab 23 bd eb b9 0e 3d
       0.05399071 -0.03893129 -0.039958652 0.034845274
000030 c6 cb 28 3d bc de 71 bd db db b6 3c 4f 2f 55 bd
       0.04120996 -0.059050307 0.022321632 -0.05204707
000040 37 51 63 bc e4 eb ec bd d1 43 14 bc 31 95 6e 3d
       -0.013874344 -0.1156843 -0.009049372 0.05824775
000050 5c 7e 1c bc 24 cf f5 3d 5d d3 30 3d 14 f9 9a bc
       -0.009551611 0.120023996 0.04317032 -0.018917598
000060 9f f8 ca bc b5 63 12 be 0c 22 9d 3d b1 50 89 3c
       -0.024776755 -0.14295848 0.076725096 0.01676211
000070 b4 b9 f0 3c f2 d6 5f 3d 3d 5e 59 bc 4f 8c f0 3b
       0.029385425 0.054648347 -0.013267097 0.007340945
000080 77 5d ac bb ad ac 5f 3c 4d 22 5a 3c 70 16 db 3c
       -0.0052601653 0.013652009 0.013313842 0.026744097
000090 41 29 24 3d eb 8e 39 3c b0 d9 89 bd 12 a7 b1 3d
       0.040078405 0.011325578 -0.06730974 0.08674444
0000a0 23 49 db 3d 38 84 67 3c 7c b1 14 be 2b 42 ad 3d
       0.10707309 0.0141306445 -0.1452083 0.08459886
0000b0 14 ff 58 bd 6a 3b d2 bd 47 00 3f be 47 e2 1d be
       -0.052977636 -0.102652386 -0.1865245 -0.15418349
0000c0 ba 00 b3 3d b7 68 22 3c ef 98 31 3d 2f 4d c5 bd
       0.08740373 0.009912661 0.04335874 -0.09633862
0000d0 3a fa 89 bc 6c 48 42 bd 1c 89 ca 3b 24 62 de 3c
       -0.01684295 -0.047432348 0.0061808955 0.027146406
0000e0 23 4e b0 3c b6 c2 1d bc 57 a6 39 3d 99 8e 5a 3c
       0.021521633 -0.009628942 0.04532465 0.013339662
0000f0 b2 2a 02 3e 83 f0 89 3d 2f be bb 3d ed 2f 17 3d
       0.127116 0.06735327 0.09167134 0.03691094
000100 71 ab 5c 3d a4 f6 90 3d a5 05 0e 3e 66 28 17 3e
       0.053874437 0.07078293 0.1386934 0.14761505
000110 cf 6f 8b 3d 2c 87 b7 bc b3 79 8b bd e7 b0 5c 3c
       0.06808435 -0.022403322 -0.06810322 0.013469911
000120 0b 1e 6f 3c 06 06 bb 3d a5 ca c5 3d 5a 13 f3 bd
       0.014594565 0.09132008 0.09657792 -0.118689254
000130 c5 31 01 be fc 37 d8 bd b8 15 e5 3d 37 74 24 bb
       -0.12616642 -0.10557553 0.11185783 -0.0025093684
000140 08 43 44 3d 56 61 c8 3d 4e b2 d8 bd 78 16 a2 3b
       0.04791549 0.0978419 -0.10580884 0.004946526
000150 07 f0 ef bc 25 60 26 bc 70 06 f8 bc 98 0e a9 3d
       -0.029289259 -0.010154759 -0.030276507 0.08254737
000160 8f 20 9f bc a2 9a 4e bd 45 40 89 3d 32 b3 39 3d
       -0.019424705 -0.050440438 0.067017116 0.04533691
000170 69 4a 3b be 09 82 08 3e 0a ab d8 3d c2 b0 d2 3c
       -0.18290104 0.13330854 0.10579498 0.02571905
000180 45 7e 35 be 7b 04 96 bd b4 9d e3 bb 8c d6 24 39
       -0.17723949 -0.07325073 -0.00694629 0.00015720184
000190 3b 01 85 bd ab 91 6c bd 4e 8c fb 3d 11 06 ea 3d
       -0.06494375 -0.057756107 0.1228262 0.11426938
0001a0 1d 9b ac bd 07 f3 46 be 4b eb ea 3c 4e 58 e3 bd
       -0.08428023 -0.19428645 0.02867665 -0.11100827
0001b0 06 c2 22 bd b2 79 1d bd 34 d0 36 bd e5 49 73 bb
       -0.039735816 -0.038446136 -0.04463215 -0.0037122902
0001c0 ab 26 84 3c 60 d7 c2 3b f7 f4 14 bd 0d b4 03 3d
       0.01613172 0.005946085 -0.03636643 0.03215413
0001d0 48 d5 b3 3d 70 a2 04 bc a9 8a ea 3d c6 68 56 bc
       0.087809145 -0.008095369 0.114522286 -0.013086503
0001e0 75 3f 85 3c 29 b3 dc 3d da 1f 79 3c 6e 24 38 3e
       0.01626561 0.107763596 0.015205348 0.17982647
0001f0 7f 16 d0 3d bb f9 81 3d 6f e3 ba 3d 26 e8 33 bc
       0.10160541 0.063464604 0.09125411 -0.0109806415
000200 71 2d ba 3d 6e 05 a0 bd 2d 31 05 3d d3 55 77 3d
       0.090906985 -0.07813536 0.0325176 0.060384583
000210 36 56 9f 3d 80 a9 8b bd d8 59 f5 3d ed 90 a6 bd
       0.07780115 -0.06819439 0.11980027 -0.08133111
000220 ce 57 71 be a4 fb 84 be b3 d0 a7 ba 37 01 22 bd
       -0.23568651 -0.25973237 -0.0012803286 -0.03955194
000230 d8 df 12 be 21 c4 0f be 05 3e 5b bd 09 51 8b bd
       -0.14343202 -0.14039661 -0.053525943 -0.068025656
000240 a6 d3 90 3d 28 ef 1f 3e da 30 e4 bc fd 26 4d ba
       0.07071619 0.15618575 -0.027855325 -0.0007825939
000250 67 81 0e bd 0a ae 97 bd 50 7c 9d 3d b0 6b 08 3d
       -0.034791376 -0.07406242 0.07689726 0.033305824
000260 b3 f8 6a 3d 60 82 bc 3c 48 4c 94 bc 22 ec 9b 3d
       0.057366084 0.023011386 -0.01810278 0.07613398
000270 42 0e 89 3d 97 6c 42 3d a5 4d 3d bd 3f ff 6e 3d
       0.066921726 0.04746684 -0.046216626 0.05834889
000280 7e 92 df 3d bb 6a 83 3d ca 0c 43 3e 64 cf ce bb
       0.10916613 0.064168416 0.19047847 -0.006311344
000290 28 2f 0c 3d a9 20 9b 3d ab 9b 0d bd ff 8a 50 3d
       0.03422466 0.07574589 -0.034572285 0.050913807
0002a0 5d c3 32 be e5 76 73 bd 0e d0 81 bd 99 9f b9 3d
       -0.17457338 -0.05943956 -0.063385114 0.09063644
0002b0 4b f6 f3 3a 29 ca c4 3d d9 a5 79 bc 91 cf 0f bd
       0.001861283 0.096088715 -0.015237295 -0.03511006
0002c0 5a 6c b5 3d 4c 34 5f 3b a6 67 b1 3d 24 d6 e1 3c
       0.08858557 0.003405827 0.086623475 0.02756793
0002d0 e7 00 20 3d 8e 74 b4 bc 36 ff 68 bd 33 ce 1a 3c
       0.03906336 -0.022028234 -0.056884013 0.009448576
0002e0 f7 29 1b 3d af 6e c9 bd 18 ce 68 bd d0 80 38 bc
       0.037881818 -0.09835564 -0.05683717 -0.01126118
0002f0 40 b2 11 be 0e a6 06 3e 83 83 9b 3d 2e dc 9e 3b
       -0.14228153 0.13149282 0.07593443 0.004848025
000300 c2 41 c2 3c 19 85 6e bc 5f 99 41 be ca ee 13 be
       0.023712996 -0.0145581 -0.18906163 -0.1444656
000310 50 df 32 bd eb 51 ef bd 25 15 73 3d cb 1d 0f 3e
       -0.04367 -0.116855465 0.059346337 0.13976209
000320 e2 e4 06 bc 1b 92 8a 3d 02 e2 c6 bd 2b 2d 00 be
       -0.008233281 0.06766149 -0.09711076 -0.1251723
000330 eb 9e 84 bd 23 4a cf bc 3d 0f 87 bd 0c d3 2d 3e
       -0.06475624 -0.025303906 -0.06594703 0.16975039
000340 31 cc 0f 3c cc 18 cb 3a 95 91 72 3d 17 4a 76 bd
       0.00877671 0.0015495061 0.05922087 -0.06012925
000350 2c 70 9c 3c 16 dd 80 bd 8a 70 db 3c f4 29 08 bd
       0.019096456 -0.06292169 0.026787061 -0.033243135
000360 fb c9 4b 3d b2 58 47 bb e4 54 27 3d 51 d4 4d 3d
       0.04975317 -0.0030417857 0.040852442 0.05025131
000370 27 21 83 bd ef 2a 9d 3d 4a 98 47 3d b0 ee 93 3d
       -0.06402808 0.076742046 0.04872922 0.072232604
000380 a5 26 ae bc 72 06 bc bb e0 fe 3a be e3 de 2b be
       -0.021258662 -0.005738073 -0.1826129 -0.16784243
000390 81 30 bf bd f7 99 a0 bd e1 0c d7 bd a9 ab 4b bd
       -0.09335423 -0.078418665 -0.10500503 -0.049724255
0003a0 3f b3 8a bd 1f 0d 58 be 21 5f 1b 3c af 68 11 be
       -0.0677247 -0.21098755 0.00948313 -0.1420009
0003b0 6f 68 5d be f3 c9 9c be 5b 2d 25 be 26 f1 91 bd
       -0.2162187 -0.30622825 -0.16130583 -0.071260735
0003c0 be 9d cb be cd d7 94 be e7 ed 59 be 5c a9 61 3e
       -0.39768785 -0.29070893 -0.21282159 0.22037262
0003d0 a9 02 b2 bd 3c d7 7f bd dd bc 1a be b6 d4 cd bc
       -0.08691914 -0.062461123 -0.15111108 -0.025125843
0003e0 66 b2 51 be 85 35 23 be f6 ad c0 bd b6 a5 92 be
       -0.2047821 -0.15938385 -0.094081804 -0.28642052
0003f0 45 87 83 bc 40 ab 4b 3c 29 67 08 3d 7d 1a 60 bd
       -0.016055712 0.012430966 0.033301506 -0.05471276

encoder.2.bias f4 [32]
000000 93 fc 1f bd 60 bb 54 bc 79 53 6b 3d 55 2a e1 bc
       -0.039059233 -0.012984127 0.057452653 -0.027486006
000010 ed 00 86 3d 03 7f c4 3d 86 75 d4 3c 17 ba a5 3c
       0.06543145 0.09594538 0.025934946 0.020230336
000020 60 33 96 3d fb bb 02 ba 93 60 82 bc cb 7b 09 3c
       0.07334018 -0.0004987118 -0.01591519 0.008391331
000030 b5 84 58 bd 11 fa 20 bd df 48 2d 3d 47 7b 08 3d
       -0.052860934 -0.039300982 0.042305823 0.03332069
000040 4d 03 2a 3d 7e d9 8c bc b2 0d a5 3d 2c 1c 1a 3d
       0.041507054 -0.017193552 0.08059253 0.037624523
000050 8c c3 81 39 fb d9 6d bd e2 25 03 3d b8 a3 bc 3b
       0.0002475049 -0.05806921 0.03201855 0.0057568215
000060 6a 4d 99 bc ca f5 19 bd b1 69 c0 bc 08 bf dc bc
       -0.018713672 -0.03758792 -0.023487898 -0.02694656
000070 03 3b 82 3d c5 84 c9 3d 1b 70 46 bc 86 3b d3 bc
       0.06358912 0.09839777 -0.012111689 -0.025785219

encoder.5.weight f4 [12, 1568]
000000 27 99 49 bc 2a 7a 63 3c e3 a9 83 3d 70 db b5 3d
       -0.012304581 0.013884107 0.06428888 0.08879745
000010 1a 83 b6 3b 77 77 ac 3c ca 96 5f 3b 28 15 bf 3c
       0.0055698277 0.021053059 0.0034116977 0.023325518
000020 5e 75 af bc 7b 13 89 bc 59 74 43 3b be df dc bd
       -0.02141827 -0.016732922 0.0029823987 -0.10784863
000030 5f 33 fe bc 59 11 b0 bc b3 3f d3 3c 37 28 c3 bb
       -0.031030355 -0.021492647 0.02578721 -0.0059557217
000040 dd 51 cf 3c a6 46 ad 3c 24 36 d8 bd fb 23 a7 bd
       0.02530759 0.021151852 -0.105572015 -0.081611596
000050 12 57 4f bd bb 82 8a 3c 88 d6 04 3c 61 23 a9 3c
       -0.050620146 0.01690804 0.008107789 0.020646753
000060 b9 85 5e bc 42 46 1a 3d 13 67 85 3d 8f a8 d9 bc
       -0.013581687 0.03766466 0.065138005 -0.026569633
000070 65 47 36 ba 64 ec 19 ba b8 3a 90 3c 25 98 96 bd
       -0.00069533876 -0.0005871712 0.017606124 -0.07353238
000080 1d df fa bd 0f a3 63 bd 18 3a 8d 3c 25 03 2f 3b
       -0.12249587 -0.055575427 0.017239615 0.0026704755
000090 61 b7 7c 3c 89 4b 37 bd 63 45 fb bd 8f cc d7 bd
       0.01542458 -0.04474977 -0.12269094 -0.10537063
0000a0 87 44 39 bd c7 8e 2d bc fa f4 5f bc a0 0f 9a 3c
       -0.04523137 -0.010593123 -0.013669247 0.018806279
0000b0 da 02 b9 bb 6c f2 08 bd 8a af 0b 3d ed bf c6 3c
       -0.005646092 -0.033434317 0.034102954 0.02426144
0000c0 63 b9 39 bb b3 e8 4e 3c 6b 0e fc bc 53 05 55 bc
       -0.002833926 0.012628722 -0.030768594 -0.013001758
0000d0 18 9a e1 bc a4 da 34 bd a6 ce 00 3c 72 cb d0 bc
       -0.027539298 -0.044153824 0.007861769 -0.025487635
0000e0 3e 1a 19 bc 3d ed c4 bc 48 3a 89 bd a7 57 c9 bd
       -0.0093446355 -0.024038905 -0.067005694 -0.098311715
0000f0 b2 6d 41 bd d7 e1 bc 3d 3f a5 d2 3c d9 ac d3 bc
       -0.047223754 0.09222763 0.025713561 -0.025839256
000100 3d 3b 22 bd be ab d3 bd aa a5 9c 3d 4c 1b db bc
       -0.039607275 -0.103354916 0.076487854 -0.026746415
000110 72 61 17 3d db cb 70 3a 86 ee 6a bb 18 49 04 bd
       0.036958165 0.000918565 -0.0035847737 -0.03229627
000120 05 fe 1e bd a3 29 12 bb 0f 3c df bc a7 3e 87 be
       -0.03881647 -0.002230265 -0.027250318 -0.26414987
000130 5c 4d 2f bd cf eb 1a bd 62 8c f4 bc f2 6a ad bc
       -0.042798385 -0.03782254 -0.029852096 -0.02116916
000140 df 2b d3 bd 0e f6 36 be a2 84 99 bb 79 30 6f bd
       -0.10311102 -0.178673 -0.0046850005 -0.058395837
000150 9a 51 95 3b 5e 76 d3 bc 90 00 0f 3d f1 3f 8b 3d
       0.004556847 -0.025813278 0.034912646 0.06799305
000160 76 b3 ba 3e 8e ca 9b bc 6b 5b 9a ba 30 38 e1 bc
       0.36465043 -0.019017484 -0.0011776512 -0.027492613
000170 60 1d be bc 71 4f 17 bd 80 59 0d 3d ed b9 1e 3d
       -0.023207366 -0.036940996 0.034509182 0.03875153
000180 7b 19 0f 3c aa 30 27 bd da 89 3d 3c 09 19 18 3a
       0.008734102 -0.040817894 0.011568511 0.00058020704
000190 56 16 09 bb 6a 9b 3b bc 94 62 c1 bc b4 dd a5 bb
       -0.0020917854 -0.011450628 -0.023606576 -0.0050618295
0001a0 5e ac 1b bd d8 13 a4 bb 53 2a 38 bd 0a d3 82 bc
       -0.03800618 -0.0050072484 -0.04496224 -0.015969772
0001b0 60 14 9a bd e5 bd 9f 3d 13 3c a9 3d f0 d8 6b bc
       -0.075234175 0.077998914 0.082634114 -0.014394984
0001c0 8b 79 25 bc dd 32 d7 bc 08 15 91 3d 0f 16 8a 3d
       -0.010099779 -0.02626937 0.070840895 0.067424886
0001d0 22 9c 08 bd 8b b6 9a bd aa 65 bd 3a 97 b3 c3 bc
       -0.033352025 -0.075543486 0.0014449854 -0.023889346
0001e0 ea c2 e9 bc a9 4b 65 bc 4f 85 4e 3d b6 49 0b be
       -0.028535325 -0.01399509 0.0504201 -0.13602337
0001f0 cc 69 0e be 16 70 95 bd 4b e6 bf bc 1b f9 18 bc
       -0.13907546 -0.07296769 -0.023425242 -0.009336735
000200 3f 6f df 3c 06 44 72 bd b8 5b 6f 3d 42 40 85 bd
       0.027274726 -0.059146903 0.05843708 -0.06506397
000210 12 56 90 bd c1 8a d0 bc 3b 7b b4 bb 12 da 7f bc
       -0.070476666 -0.025456788 -0.0055078543 -0.015615957
000220 48 9e a2 bd c5 9d ce ba 1b 09 99 3d 82 3c 4e bc
       -0.07940346 -0.0015763572 0.0747244 -0.012587668
000230 6d af cc bb 13 d1 07 bd 31 a8 d7 bc 25 b4 ff bc
       -0.0062464983 -0.033158373 -0.026325317 -0.03121383
000240 64 22 95 3c 3a 39 32 3c 60 0a 2f bd df 63 be bb
       0.018204875 0.010877902 -0.042734504 -0.0058102454
000250 19 91 b2 bc 7c 51 db bb bb b7 94 bc e2 29 af bb
       -0.021797704 -0.0066930633 -0.018154016 -0.005345569
000260 4e 90 18 3c d9 7c 79 bc 08 9b 80 bb ad 7f 2f 3c
       0.009311749 -0.01522752 -0.003924731 0.010711593
000270 1f d8 dd bc b4 34 93 bd de d8 3d be 8d d9 9b bd
       -0.027080594 -0.07187787 -0.1853976 -0.07609854
000280 d3 f8 d8 bb c4 7e 5f 3b e9 2d 79 bb da 37 47 3d
       -0.006621459 0.0034102658 -0.003802175 0.04863725
000290 e5 43 a5 bd 4c 9b b1 3d 77 c5 a6 bd b3 dd ac bd
       -0.080695905 0.08672199 -0.08143132 -0.08440723
0002a0 83 58 f8 bc b5 c7 09 bd cb 71 88 3d b9 65 16 be
       -0.030315643 -0.03363772 0.06662329 -0.14687242
0002b0 60 1e ac 3c 64 0c 55 3d fc 80 0b 3d 0f db 06 bd
       0.021010578 0.05201377 0.034058556 -0.032923754
0002c0 94 8c 4c bd 77 3e 88 3c b0 70 b6 bc a4 26 40 be
       -0.049938753 0.016631348 -0.02227053 -0.1876474
0002d0 ae 54 0f 3d 30 fc 21 3d fe a2 0b bd 89 75 16 3d
       0.034992866 0.039547145 -0.03409099 0.036733184
0002e0 8d ed 84 3c 80 b7 14 bc b8 26 0f 3d 4e 29 d1 bd
       0.016226554 -0.009076953 0.034949034 -0.10212956
0002f0 74 f7 7c bd 94 b7 07 3c c6 5b c2 bc d2 2a ea ba
       -0.061759427 0.0082835145 -0.023725402 -0.0017865545
000300 6e 6e 44 3c 4a ea 25 bc 1a e4 41 bd c4 9c e5 3a
       0.011989219 -0.01012666 -0.047336675 0.0017518033
000310 d4 66 c2 bb 4c 40 8b 3d 0c 43 42 bc b6 80 42 3c
       -0.005932668 0.06799373 -0.0118568055 0.011871507
000320 58 49 9e 3b a8 9d a8 bd 3e 38 df bb 96 cd 13 3d
       0.0048305206 -0.082331955 -0.0068121245 0.036084734
000330 60 98 a1 bc 5a 15 a3 bb 96 3a 47 3c e6 92 18 bd
       -0.019725978 -0.0049769105 0.012159964 -0.03724947
000340 2a bd 33 bd 2f 55 3e bb 12 e2 09 be b2 e4 ff bc
       -0.043881573 -0.0029042473 -0.13465145 -0.03123698
000350 03 d2 5e bc 19 59 2c be 97 f9 5e be c5 4e c5 3c
       -0.013599875 -0.16830863 -0.21774898 0.024085412
000360 e6 68 0f bc 6a bd c8 3c e2 09 13 3c 20 9d ea bc
       -0.008753037 0.024504382 0.008974524 -0.028639376
000370 4c 93 8c 3b ee ce ce bc 27 b5 a5 3d 45 38 72 bc
       0.00429002 -0.025245156 0.08091193 -0.0147839235
000380 6d 94 7b 3d f0 38 db bc 0b 63 fb bc e6 45 73 bd
       0.061420847 -0.026760548 -0.030686876 -0.059392832
000390 62 98 d1 bc 06 7d 4f bd 29 05 74 bc b4 bd 08 3d
       -0.025585357 -0.05065634 -0.014893808 0.03338404
0003a0 1e 15 04 bb c0 01 6e 3c ac fa 3a 3d 3e 42 8f be
       -0.0020154188 0.014526784 0.045649216 -0.27980226
0003b0 14 33 0a 3d 71 dc 0b bd 39 03 d0 3c cf 07 f5 bc
       0.03374012 -0.034145776 0.025392162 -0.02991095
0003c0 e3 1b 3e 3c 6c a9 87 3d c7 0e 75 3e 57 8a 2d 3d
       0.011603328 0.066241115 0.23931418 0.04236826
0003d0 44 7c 77 3b 50 3c 0a bc 49 1b 07 3c 09 1c 78 3d
       0.0037763277 -0.008437231 0.008246251 0.06057361
0003e0 34 28 1c 3d c0 65 27 bd 7b 37 76 3c ac 7b 88 3a
       0.03812428 -0.04086852 0.015027876 0.0010412834
0003f0 75 d8 9e 3b b9 7a 83 3c f1 b5 11 bd 7e ea 54 bd
       0.004847581 0.01604973 -0.035573903 -0.05198144

encoder.5.bias f4 [12]
000000 b4 43 51 bd d0 8c 9a bc 69 d0 8f bc 4e d8 2c bd
       -0.051089957 -0.018865973 -0.017555432 -0.04219847
000010 33 1e 8a 3c d3 3c 4c bb 2f 93 e6 3c ea 68 22 3b
       0.016860103 -0.0031164184 0.028146354 0.0024781772
000020 81 f5 40 bc 38 2b 76 3c 1f 48 2e bc 3f d0 c2 bc
       -0.011777283 0.015024953 -0.010637312 -0.02378094

decoder.0.weight f4 [1568, 12]
000000 b6 76 1b 3e 43 32 91 bd ea 9d 6d 3c a6 41 7d bc
       0.15182003 -0.07089665 0.014502982 -0.015457546
000010 c3 b4 28 3e bd c7 19 3e a1 b7 ad bd e3 c3 59 3d
       0.16475205 0.150176 -0.0848229 0.053165328
000020 71 b2 8c bd b3 e3 01 be f8 e9 17 be dc 23 15 3e
       -0.068699725 -0.12684517 -0.14835346 0.1456446
000030 00 3c d5 3f ef 08 c7 bf 2e 81 dc 3f 29 01 79 3f
       1.6658936 -1.5549601 1.7226923 0.97267395
000040 ab 81 ad be 47 25 cf bf 2c d7 5e bf 3a 88 87 3f
       -0.3388799 -1.6183251 -0.87047076 1.0588448
000050 ec d3 9f bf 72 c9 84 be 3b 1b 7b 3f d6 a1 c5 3f
       -1.2486548 -0.2593494 0.98088425 1.5440013
000060 07 55 00 bd bd 8d 5b 3c 22 e7 0f be 61 77 d7 3d
       -0.03133109 0.013400492 -0.14053014 0.105208166
000070 fe 39 73 be 06 73 a9 bd b1 90 30 3d 7d 4c 15 bd
       -0.23752591 -0.08273892 0.04310674 -0.036449898
000080 7c 53 2d 3e d2 1e 65 bc e5 f2 2d 3e 97 74 f1 3c
       0.16926378 -0.013984399 0.16987188 0.02947454
000090 84 84 92 3e 5e 6e 54 3d 0a 5b 44 bd d2 01 17 3e
       0.28616726 0.051863067 -0.047938384 0.14746788
0000a0 0c da 93 3d cb 25 ca bc 05 1e 12 bc 5e da 8a bc
       0.072193235 -0.024676224 -0.00891829 -0.016949829
0000b0 e9 0b 78 3e 36 c0 28 3d 68 9e 95 3e d1 1c ff bc
       0.24223293 0.04119893 0.29222417 -0.03114167
0000c0 ed b2 c6 3f 63 ce bf bf 85 80 cb 3f b0 48 5d 3f
       1.5523354 -1.4984859 1.5898596 0.8643904
0000d0 0d 8b 06 bf 0e ee cd bf d6 35 79 bf f5 0e 77 3f
       -0.52555925 -1.6088274 -0.9734777 0.965072
0000e0 57 d4 96 bf 12 28 55 be 59 9b 88 3f ba 26 c5 3f
       -1.1783551 -0.20816067 1.0672408 1.5402443
0000f0 9b 08 ec 3f 93 5f d6 bf 04 6a 06 40 3e 28 8c 3f
       1.8440126 -1.6747917 2.1002207 1.0949781
000100 e2 4a b0 be 3d eb e3 bf b2 75 71 bf 1c 21 ae 3f
       -0.3443213 -1.7806164 -0.94320214 1.3603854
000110 92 a1 c7 bf 0b 02 c9 be e9 61 70 3f d4 9c c8 3f
       -1.5596182 -0.3925937 0.938994 1.567286
000120 47 53 c3 3f ee 01 a4 bf 8c e0 c8 3f 9a 20 72 3f
       1.5259789 -1.2813089 1.5693526 0.94580996
000130 41 dc d3 be 2c 98 dc bf fa 00 58 bf 45 cc 92 3f
       -0.41378978 -1.7233939 -0.8437649 1.1468588
000140 76 8e ac bf 7d ff 49 be 57 fe 69 3f f4 4b 9a 3f
       -1.3480976 -0.19726367 0.91403717 1.2054429
000150 a2 87 f5 bd e8 6c 0a 3c c1 9a 56 3d f9 ac a6 bd
       -0.119887605 0.008448817 0.05239368 -0.08138461
000160 c3 df 8b bd 68 f2 68 3c f7 b3 4f 3e 90 7d 08 bd
       -0.068297885 0.01421795 0.20283495 -0.03332287
000170 5b 5b 0f 3c 8c 28 fd 3c 1f 02 90 bb 55 c9 6e bb
       0.008749808 0.030903123 -0.004394784 -0.0036435921
000180 6f af ea 3f 8f 24 a5 bf 04 85 00 40 e8 37 8f 3f
       1.8334788 -1.2901782 2.0081186 1.1188936
000190 54 0a d4 be a7 40 e5 bf 4a ee 49 bf 17 cc a4 3f
       -0.4141413 -1.7910355 -0.78879225 1.2874783
0001a0 c7 61 be bf 54 3c a9 be d9 04 5c 3f 4a 6a ac 3f
       -1.4873589 -0.3305384 0.85944897 1.3469937
0001b0 df e9 a7 3f 03 f0 60 bf af bd ae 3f 8f ab 7d 3f
       1.3118247 -0.8786623 1.3651637 0.990899
0001c0 33 5e ed be d3 f0 ab bf bd 3c 09 bf f4 0b 57 3f
       -0.4636093 -1.3432869 -0.53608304 0.84002614
0001d0 15 1c 81 bf e6 a5 01 be 13 c2 40 3f a4 2d 8b 3f
       -1.0086695 -0.12660941 0.75296134 1.0873303
0001e0 d3 1e f6 3e 48 31 a5 3e 2e 91 46 be 1f 5a 7e 3e
       0.48070392 0.3226416 -0.19391319 0.24839066
0001f0 8b 64 55 be 32 e3 cb 3d a9 0e 32 3e b8 25 07 3e
       -0.20839135 0.099554434 0.17388405 0.13197982
000200 c1 37 f6 bb e1 00 92 3d 32 f9 08 bb d3 42 25 be
       -0.0075139706 0.07129074 -0.0020900485 -0.16138773
000210 7a 57 ae 3e 00 7a 84 bc cd 9f c5 3d 2c 7d ec b9
       0.34051114 -0.016171455 0.0964962 -0.00045106688
000220 73 a4 5e 3e a7 2c 99 be 2f 12 2d 3e 26 92 2c 3e
       0.2174242 -0.2991688 0.16901468 0.16852626
000230 14 be be 3d b7 f8 5f bf 25 d2 bb be 9f 95 d5 3c
       0.09313598 -0.87488884 -0.36683765 0.026072321
000240 23 62 12 3e e0 a4 05 be ae fe 21 3d 57 f2 16 be
       0.14295249 -0.13051176 0.039549522 -0.14740883
000250 72 b3 26 3e cc a2 25 3d 1b 6b 14 3e 3f 66 9e bd
       0.1627939 0.04043846 0.14493982 -0.07734346
000260 8f 88 54 3d 9e 46 d5 be 87 fc 08 be 7c 1b d2 3d
       0.051888045 -0.4165544 -0.13377582 0.102591485
000270 df 38 82 bd fd 5d 98 bc 54 38 1e bd 10 ea 9a bd
       -0.063585036 -0.018599505 -0.038627937 -0.07564175
000280 e3 48 d1 3b 1f 2a ec 3c 0e a4 92 be 4a ce f8 bd
       0.0063868626 0.028828679 -0.2864079 -0.121487215
000290 18 0b d6 be 92 31 39 3e a8 3a 36 be b0 b0 f5 bc
       -0.4180534 0.18085316 -0.17795813 -0.029991478
0002a0 0d 6b 2d be 5e 86 65 bd ae 80 83 3c 4c f9 fa bc
       -0.16935368 -0.056036346 0.01605257 -0.030636452
0002b0 73 73 37 3d 24 22 8c 3d 9a 82 42 3d 42 0e 05 3e
       0.044787835 0.06842449 0.047487833 0.1299372
0002c0 97 6b 4b bd d6 9f 03 bd b8 d4 4d bc 8a fb e6 bd
       -0.049663153 -0.032134853 -0.012562923 -0.11278446
0002d0 ec 7d 10 3f 1e aa ad be d1 11 20 3f f3 53 b6 3e
       0.5644214 -0.33918852 0.62527186 0.35610923
0002e0 08 2e 89 be a5 50 27 bf 43 86 ce be 3d 7b d6 3e
       -0.26792932 -0.6535743 -0.4033681 0.41890898
0002f0 a2 33 f8 be 70 b8 cb bd 3d d9 e1 3e 12 0f 0c 3f
       -0.48476893 -0.09947288 0.44111052 0.54710495
000300 49 38 56 be ed 3f ba bd 12 55 94 3e 71 ae 95 be
       -0.20919909 -0.09094224 0.28971153 -0.2923465
000310 67 16 04 be 52 f9 1c be 91 29 dc 3d 62 2f 4e 3d
       -0.12899171 -0.15329483 0.10750116 0.050338157
000320 bf 27 a3 3d bc 3e fc 3d 75 2e a6 bd 2d 79 14 be
       0.07966565 0.12316653 -0.0811433 -0.1449935
000330 bc de 43 3f db 40 ce be 65 a3 32 3f d3 d9 09 3f
       0.7651174 -0.40283856 0.6978057 0.53848
000340 b5 40 c3 be 97 a7 50 bf 7d 2e 71 be 5b ee c7 3e
       -0.38135305 -0.8150572 -0.2355289 0.39049038
000350 3c 6a 09 bf 3e 0b 3d bd ff 9b e2 3e 8e bd 0d 3f
       -0.53677726 -0.0461533 0.4425964 0.5536736
000360 f6 d8 73 3f 50 7d 53 bf 51 32 9d 3f d0 0c 1d 3f
       0.9525293 -0.82613087 1.228098 0.61347675
000370 5e 1c e7 be 78 ae a0 bf 67 45 27 bf f1 93 73 3f
       -0.4513883 -1.2553244 -0.65340275 0.95147616
000380 a9 d1 80 bf 81 e3 6a be 08 71 2d 3f ca b5 4a 3f
       -1.0063983 -0.22938348 0.67750597 0.7918364
000390 f7 ac ed 3d 46 b1 0b be 88 06 c2 be 4b 48 ab be
       0.11605256 -0.13641843 -0.37895608 -0.33453593
0003a0 a0 33 82 3e e9 ef 3b be 74 04 61 bb 7a 66 ab 3c
       0.25430012 -0.18353237 -0.003433493 0.020922888
0003b0 1d 1c ad 3d ad 7d 03 bf fc d3 4c be df 53 08 3e
       0.08452628 -0.5136364 -0.2000274 0.13313244
0003c0 60 ce 20 bd 21 0a d1 3d ca ab c9 3d 01 33 df bc
       -0.039259315 0.1020701 0.09847219 -0.027246
0003d0 40 1a 29 3e 38 98 17 bd 33 9d d8 bb 72 5f 49 bd
       0.1651392 -0.0370104 -0.0066105365 -0.04916329
0003e0 bf d0 e9 be d4 ca 9f bd 1f e8 8d bd 1b 98 32 be
       -0.45667073 -0.07802358 -0.06929039 -0.17440836
0003f0 a6 13 07 40 46 32 fc bf 10 4b 10 40 c5 95 9c 3f
       2.1105742 -1.9702842 2.2545815 1.2233206

decoder.0.bias f4 [1568]
000000 5a 9e 95 3e 08 57 41 3d b6 c8 77 3d c1 3d 8c bd
       0.29222375 0.04720214 0.060494147 -0.06847716
000010 d1 aa ef be 38 ad c3 be ee 5a d2 be 7c 8b d4 3e
       -0.4681001 -0.38218093 -0.41085 0.41512668
000020 88 cb e4 be 25 8c 4e be 59 c0 85 bd 6f 43 bd bd
       -0.44686532 -0.20170648 -0.06530828 -0.092413776
000030 4c a2 81 bd 47 9b cd bd e1 3c 86 3d 3b 05 b9 3d
       -0.06329784 -0.100393824 0.065545805 0.09034201
000040 ae 5f d4 be 1b d3 0d 3e 3e 69 c1 be 72 e7 93 be
       -0.41479248 0.13850062 -0.37775606 -0.28887516
000050 56 0e d4 3c 70 b5 e2 bb 23 c6 33 3e df f1 79 be
       0.025885742 -0.0069186017 0.17556052 -0.24408673
000060 4c 55 b2 3d 9e b5 65 3e d7 c5 a6 3d 8c 0d c9 be
       0.08707675 0.22432563 0.08143204 -0.39268148
000070 59 48 61 39 cd cb 73 be e6 47 99 be 6c d0 d0 be
       0.00021484624 -0.23808213 -0.29937667 -0.40784013
000080 ad e6 ce bd 46 49 10 3e 49 b0 24 bd ae be b8 3e
       -0.10102592 0.14090452 -0.04020718 0.36082977
000090 ae 38 0e 3e 11 8c f3 3d d1 60 ef bc 28 ce 59 bd
       0.13888809 0.1189195 -0.02922097 -0.05317512
0000a0 a9 3f c6 be e7 df ca bd 0f 29 f9 3d 72 12 7d be
       -0.38720444 -0.09905987 0.121660344 -0.24714068
0000b0 47 0d a4 be 4d aa 85 bd 16 b9 b0 be be 00 b4 3c
       -0.3204138 -0.06526623 -0.3451621 0.02197301
0000c0 3a d2 81 bb 84 d0 a8 3e cc 15 c9 3e ae 6e 9b 3e
       -0.0039618285 0.32971585 0.39274442 0.3035788
0000d0 67 ba a7 3d e4 dc 4b 3e 5b 4c 9a be 87 7f 75 3b
       0.0818985 0.19908482 -0.3013638 0.0037460045
0000e0 ff e4 66 3c 99 b8 28 3e f8 69 13 3e c7 6a 39 3e
       0.014092683 0.16476668 0.14395893 0.18107139
0000f0 8c 87 c7 be 4b 58 78 bd a5 70 ad 3d 04 8c eb bd
       -0.38970602 -0.060631078 0.08468751 -0.11501315
000100 26 cc fc bd f1 c0 8f be c8 83 69 be 53 f8 09 be
       -0.12343626 -0.2807689 -0.22804177 -0.13473634
000110 a3 28 1e be 92 c2 9f be fa 7f c3 3e 13 fd 92 be
       -0.15445189 -0.31203133 0.38183576 -0.28708705
000120 06 05 06 be 1c 9b b8 3d bf d4 84 be df fa 14 3b
       -0.13087854 0.0901396 -0.25943562 0.0022732539
000130 91 c9 e2 be ed f6 98 3d 2b 6b 80 3e 4f e5 aa 3c
       -0.44294408 0.07468972 0.25081763 0.020861296
000140 6c b5 b2 bd 32 cb 64 be d1 f7 95 be bc df 60 3e
       -0.0872601 -0.22343138 -0.2929063 0.21960348
000150 10 c3 f4 3e e3 56 21 3d 36 06 3c be 36 5c d8 bd
       0.4780507 0.039389502 -0.18361744 -0.10564463
000160 51 3c 95 be e9 58 68 3d 14 1c d5 3d fe df 2d 3e
       -0.2914758 0.056725416 0.10405746 0.16979977
000170 b7 46 d0 bd 9f ee 77 3e f2 5f a4 be a8 1d 1a bd
       -0.10169738 0.2421212 -0.3210445 -0.03762594
000180 bd c0 77 be d1 3d 18 bd dd f9 68 3e 29 66 db be
       -0.24194618 -0.037168328 0.22751565 -0.4285138
000190 66 bb 1a 3b af 7b c3 3e ff 55 0c 3e 18 75 14 3d
       0.0023610233 0.381803 0.1370468 0.03624448
0001a0 ac 78 7d be d4 fa 21 3e f5 77 90 3d 10 ef 8e 3d
       -0.24753064 0.1581834 0.0705413 0.06979191
0001b0 94 b7 24 be 19 d1 5a bd 95 eb 3c 3d f8 a7 ce bc
       -0.16085654 -0.053422067 0.046123106 -0.025226578
0001c0 d3 3e 1a 3e 0c 74 22 bd 74 ee 89 bd dd 6c 9f bd
       0.15063028 -0.039661452 -0.067349344 -0.07784436
0001d0 f8 48 e1 bd ac 43 14 3e 21 a6 76 be 80 18 4f 3e
       -0.11000246 0.1447894 -0.2408681 0.2022419
0001e0 36 e3 98 3d 47 bf 16 3e 3e cb 5e bd ed e3 44 be
       0.07465212 0.14721404 -0.054393046 -0.19227572
0001f0 40 e5 cf be 50 5b 42 3d 6e 47 ed 3e b1 ef a5 bd
       -0.4060459 0.047450364 0.4634356 -0.08102358
000200 7d 27 56 bc 1f 35 f1 bd 97 71 57 be 8c 80 c3 be
       -0.013070938 -0.1177771 -0.21039425 -0.3818401
000210 d3 1c 83 be 55 39 9a 3e 75 a7 d0 be e2 32 8f be
       -0.2560793 0.30121866 -0.4075276 -0.27968508
000220 c8 08 9d bd b0 e7 74 bd ba f2 47 bd 55 dd 83 be
       -0.076676905 -0.059791267 -0.048815466 -0.257548
000230 8c 35 fc be a5 37 e4 3e 14 83 63 be 15 c1 97 3d
       -0.49259603 0.44573703 -0.22217971 0.07409874
000240 bc 68 0a 3d f0 bf b5 be 90 cb 3f 3f b2 e1 69 3c
       0.03379129 -0.35498 0.74919987 0.014275001
000250 67 e1 81 bd 69 e1 4e 3d 37 d2 9e 3c 31 53 51 bd
       -0.0634182 0.050507937 0.019387348 -0.051104728
000260 11 e3 c5 be b5 03 1c 3e ea b0 46 3e 1c 91 d7 3e
       -0.386498 0.15235789 0.19403425 0.42102897
000270 24 ef 11 3e 3c c8 57 3d 55 f3 be bd 47 f5 ae 3b
       0.14251381 0.052681193 -0.09323756 0.005339298
000280 58 56 a3 bd 90 20 da 3e 73 de 7c 3e ec 0a 81 3e
       -0.07975453 0.42602968 0.24694233 0.25203645
000290 ca 35 12 3e df 1a a5 3e d5 68 3c bd 19 b6 08 3e
       0.14278331 0.32247064 -0.045998413 0.13350715
0002a0 2b a6 42 3e 85 cf e3 3e a4 d3 10 be d7 7e 00 3f
       0.190087 0.44494262 -0.14143234 0.5019354
0002b0 9d 97 e9 bc 7e 01 89 3e c4 f4 09 bd 42 f7 b6 3e
       -0.028514678 0.2675895 -0.033680692 0.35735518
0002c0 21 a5 75 3e 1d 09 ee be c7 b9 b9 3e 53 3e 54 be
       0.23988773 -0.46491328 0.3627455 -0.207269
0002d0 35 48 8f bd 90 6d bc 3e 51 19 19 3f 5b 8e 5a 3d
       -0.06996194 0.3680234 0.59804255 0.053358417
0002e0 a9 35 95 3e 94 a2 69 3d d1 3b 4b be 03 aa 0d 3f
       0.29142502 0.057039812 -0.19847037 0.5533754
0002f0 9c 97 4e 3d 27 9f c1 be 05 74 d8 3d a3 04 54 3d
       0.050437555 -0.37816736 0.10569004 0.051762234
000300 11 c1 27 be 09 b8 9b 3d c3 42 6a 3e 72 c3 fb 3d
       -0.16382243 0.07603461 0.2287703 0.122931376
000310 c2 68 7a be 89 35 04 bd 37 16 ec 3d 61 a7 d5 3e
       -0.24454024 -0.032277618 0.11527675 0.41729262
000320 e6 75 b4 3d f6 a0 47 be 77 87 b0 3e 3e 5c b5 3d
       0.0881155 -0.19494995 0.3447835 0.088554844
000330 e2 60 18 be b9 57 99 3e d1 03 08 be e6 c0 87 3e
       -0.14880708 0.2994974 -0.13282706 0.26514357
000340 ff f9 a9 3e 6a d6 dd 3e 23 9e 59 3e 29 8e 74 bd
       0.33198544 0.43327647 0.2125173 -0.059705887
000350 28 47 26 bd 1c 70 62 3c 48 d2 06 3e fe 35 c0 be
       -0.040595204 0.013820674 0.13166153 -0.37541193
000360 bf e6 70 be a8 db 92 3e 4e 8a d7 be c2 98 84 be
       -0.23525523 0.2868321 -0.42097706 -0.25897795
000370 08 f7 d3 bd 06 25 2f 3e f0 25 f7 be f7 db 36 be
       -0.10349852 0.17103967 -0.48271132 -0.17857347
000380 bc 13 83 3e 91 3c a9 bd 9a d1 48 be 72 7d 6b be
       0.25600994 -0.08263505 -0.19611207 -0.22997072
000390 49 4c 64 ba 35 df 2c be 28 8b 7e 3e 2c 9c ea be
       -0.0008708877 -0.16882022 0.24857771 -0.45822275
0003a0 82 3d c7 bd d0 77 c7 3d e9 d4 47 be b6 24 94 be
       -0.097285286 0.09739649 -0.19514813 -0.28934258
0003b0 45 ae 7c be 29 51 ba 3d 85 4e 62 3e 55 ee 6a 3d
       -0.24675854 0.09097511 0.22100265 0.057356197
0003c0 a2 9a 65 be bc 57 97 bd 23 8f c2 bd 7c 0f cb 3d
       -0.22422269 -0.07389781 -0.094999574 0.09915063
0003d0 a6 e1 df 3d 6c 90 81 3e 7d 1f b1 bd 1d 0c b2 3e
       0.10931711 0.25305498 -0.08648584 0.34774867
0003e0 c4 34 16 3e 20 3f 85 3e 2c 5b 8e bc 8c 34 84 3e
       0.14668566 0.26024723 -0.017377459 0.2582134
0003f0 eb aa 81 3e 93 d0 7a 3e 30 fe af be 55 19 42 be
       0.25325713 0.24493627 -0.34373617 -0.18954976

decoder.3.weight f4 [32, 16, 3, 3]
000000 e2 88 16 bd 1a eb 04 3c 82 0b 63 bd f1 ff 8e 3d
       -0.036751635 0.008112693 -0.055430897 0.06982411
000010 33 52 a3 bd 53 07 b4 3c 1c 3d 29 3d 8d f4 40 3a
       -0.07974663 0.021976149 0.041318044 0.00073606597
000020 be f5 d3 3b fb 9a 02 bd 0c ae 64 bd 39 a0 0a 3a
       0.0064685037 -0.031886082 -0.055830047 0.0005288157
000030 54 4c 4d bd 26 92 85 3c 24 35 f8 3c 25 91 77 bd
       -0.05012162 0.01630504 0.030298777 -0.060441155
000040 b8 e8 3a bc 8a cf de 3c 04 c5 85 ba ef c0 e4 3c
       -0.011408024 0.027198572 -0.001020581 0.02792403
000050 07 b8 11 3d 90 6f 93 3d 90 b6 12 bd 23 76 0c 3c
       0.035575893 0.07199013 -0.035818636 0.008573088
000060 1d 2b 2f 3d ee e0 df 3d 67 9d 82 3d f7 28 2f 3b
       0.042765725 0.10931574 0.06377678 0.0026727298
000070 85 22 c0 bd e9 11 5e 3d 03 90 f8 bd a0 f9 00 be
       -0.09381584 0.0542163 -0.12136843 -0.12595224
000080 9b 88 e7 3c 6e 69 4a 3c 17 21 64 be de 67 4e 3d
       0.02826338 0.012354238 -0.22278248 0.050392024
000090 84 5c 21 ba ac b5 60 be b3 df 7a be 27 0c f8 3c
       -0.00061554485 -0.21944302 -0.24499397 0.030279232
0000a0 5f 97 30 3c c6 5d c1 3b 51 fe 12 3c 69 db 3e 3e
       0.010778277 0.0059010712 0.008971767 0.18638386
0000b0 c2 70 2c be c8 ec 1d 3d ac 3e 86 bc e5 b1 f8 bb
       -0.16839889 0.03855589 -0.016387306 -0.007589566
0000c0 fd 41 d1 bd 27 99 33 3d 38 93 65 3d b1 4a ca 3c
       -0.102176644 0.04384723 0.056048602 0.024693819
0000d0 3e 2b ad 3d cd c5 2a bd 19 bb 04 bb 0a e4 b3 bc
       0.084555134 -0.041692544 -0.002025312 -0.021959323
0000e0 7b 06 80 3d c1 55 7b 3d cc f4 1b be fc f1 50 be
       0.06251236 0.06136108 -0.15230101 -0.2040481
0000f0 8f 11 ba 3a f7 dd e5 3c bb c7 26 3c b9 9c a9 bc
       0.0014195907 0.028059943 0.010179455 -0.020704614
000100 c7 22 d9 3c bf 1e 1e 3d ec a5 88 bd e7 d4 3b be
       0.026505841 0.03860354 -0.06672272 -0.18342935
000110 24 5f b6 bd c8 33 e2 3c 36 34 c0 bc 9b 17 9a 3c
       -0.089048654 0.027612582 -0.023462396 0.018810084
000120 26 da 80 bd b9 11 2b be 53 cf 1a be cb 40 5d bc
       -0.062916085 -0.1670598 -0.1511815 -0.013504217
000130 b1 c1 17 be d5 07 7e 3c 50 56 b4 bc a7 50 21 be
       -0.14819981 0.015504797 -0.022013813 -0.15753423
000140 da b3 0d bd a2 00 9e bd 70 d8 f2 3c ec 97 f3 bb
       -0.034595348 -0.077149644 0.029644221 -0.007433882
000150 66 33 81 3d 4b 76 e7 bd 21 74 85 3c f4 e8 b6 bc
       0.063086316 -0.113018595 0.016290726 -0.022327878
000160 73 e3 2f 3d 2e 6a b6 bc ef a2 80 be ea 37 ea bc
       0.04294152 -0.022267427 -0.25124308 -0.028591115
000170 08 78 1f bd 91 ea 89 bb 61 19 e3 bd ba 42 41 be
       -0.03893283 -0.0042088707 -0.11088825 -0.1887311
000180 91 73 f8 bb 96 0b a8 3c 85 27 12 3d 05 e2 27 be
       -0.007582136 0.020513337 0.03568222 -0.16394813
000190 3e bc f4 bd 6a 1a 24 3d 06 39 09 be 4d a2 0a be
       -0.11949967 0.040064253 -0.13400659 -0.13538475
0001a0 67 81 cc 3d e6 3b f3 bd 72 ad fd bc 79 26 3c 3d
       0.09985619 -0.11876659 -0.030966494 0.045935128
0001b0 12 e5 90 3d 3f ea 9e 3d bb a9 7a 3d 5a e7 e5 3d
       0.07074942 0.07759523 0.061197024 0.112257674
0001c0 1c 32 54 bd e7 bf 90 bc 09 f5 70 3c 96 cb 06 bd
       -0.0518056 -0.017669631 0.014706858 -0.032909
0001d0 38 43 ba bb 40 7a bd 3d f0 7e 31 3d da 67 2f 3c
       -0.0056842826 0.09251833 0.043333948 0.0107059125
0001e0 27 1d 88 3d 89 18 af 3c 93 19 a7 bd ae 40 9f 3d
       0.06646185 0.021374004 -0.08159175 0.077760085
0001f0 19 85 8c bc 64 ab 03 bc c3 8e 1f 3d a1 8d 38 3d
       -0.01715331 -0.008036468 0.038954508 0.045056943
000200 01 5e f9 bc 06 7a 15 bd 9b c9 24 be a3 48 b5 3d
       -0.030440332 -0.036493324 -0.16092531 0.08851745
000210 e4 ca 59 3d 47 20 96 3d 02 db 2f be 45 f5 a5 bd
       0.053172007 0.07330375 -0.17173389 -0.08103422
000220 38 54 fb 3c 46 a4 4b 3b 95 3c 15 be dc 16 7b 3d
       0.030679807 0.0031073256 -0.14573891 0.061301097
000230 94 45 91 3d 02 52 94 bd 63 f8 69 3d 63 47 2e 3c
       0.07093349 -0.07242204 0.057121646 0.010637137
000240 ff 2e 98 bb b0 47 5a 3d c9 52 96 bc c6 1a d5 3c
       -0.0046442742 0.053291023 -0.018350022 0.026013743
000250 a3 79 26 3c ec 09 8e bc 45 14 b4 bb 97 bc cc bb
       0.010160836 -0.017338715 -0.0054955804 -0.0062480676
000260 42 6f 64 3d e7 c7 41 bd 6b 5c b6 3b cb 9a bb 3c
       0.055770166 -0.047309782 0.0055652163 0.02290096
000270 ae 54 5f bd 4f af c5 bb 9c 17 8e bb c4 e9 a9 3b
       -0.054524116 -0.0060328613 -0.0043363106 0.0051853377
000280 bf c8 bf 3b bf b9 e9 3c 71 39 98 bd 3a 81 4c bd
       0.005852788 0.028530953 -0.07432831 -0.049927928
000290 d8 51 73 3c 46 73 85 3c 13 65 11 be 49 bb 8a bd
       0.014851056 0.016290318 -0.14198713 -0.06774003
0002a0 25 2f b8 3c f1 0b 72 be 4e 52 14 3d a9 f9 96 bd
       0.022483418 -0.23637368 0.036211304 -0.07371838
0002b0 50 ef 05 be 77 14 b4 bb fd 8d 97 bd 61 a5 6a be
       -0.13079572 -0.0054956037 -0.07400129 -0.2291465
0002c0 48 39 84 bb a7 49 1e bc b0 b0 54 be 86 4b 9f 3c
       -0.004035149 -0.009661115 -0.20770526 0.019445192
0002d0 b1 02 eb bd a1 15 0b be 7c d7 39 be c0 43 16 be
       -0.11475123 -0.1358247 -0.18148607 -0.14674282
0002e0 51 3f 32 be fe 39 c6 bd 7f bc 1e be ab 81 f2 3c
       -0.17406966 -0.0967903 -0.15501593 0.029602846
0002f0 5e 84 ba bd 11 94 16 3d 9e 35 06 bd 6b 2f c2 3b
       -0.09107278 0.0367623 -0.032765977 0.005926063
000300 26 14 89 bc 90 78 9d 3c 5c 9b 2a 3d 06 10 33 3c
       -0.01673324 0.019222528 0.04165207 0.010929113
000310 d5 6d 40 3d 74 63 3a bd 85 dd 80 3c f8 f7 b9 3c
       0.046979744 -0.045505002 0.015730629 0.022701249
000320 ce 3d 21 bc c6 12 c5 3d 3c d2 1f be 92 34 cc bb
       -0.009841396 0.096227214 -0.15607542 -0.006231853
000330 96 28 13 3d 22 d4 02 3d 60 ac 47 bd 6f 86 02 bd
       0.035927378 0.031940587 -0.048748374 -0.031866487
000340 36 f3 05 bd 34 c0 39 3c a1 c2 c4 bd eb af 00 be
       -0.032702647 0.011337329 -0.09607435 -0.12567107
000350 5c 0d d1 bd 2a b5 73 3c 9b 2d b2 bc f6 be 44 bd
       -0.10207626 0.014874736 -0.021750262 -0.048033677
000360 78 df e8 bd 91 4b 2b be 23 9e d7 bd 8d 66 90 be
       -0.11370748 -0.16728045 -0.10528209 -0.2820324
000370 f0 d5 7c be f6 f9 a3 bd 6f fc 12 be ba b3 f2 bd
       -0.24690986 -0.08006661 -0.14354108 -0.11850686
000380 91 8b 94 3c 4e b1 02 3b cb 9e 55 3d ca 75 be 3b
       0.018132957 0.0019942108 0.05215339 0.0058123814
000390 f5 8b 83 3d c9 ab fa bd 2c c9 31 3d 4b 15 cd bc
       0.06423179 -0.12239797 0.043404743 -0.025034567
0003a0 13 4e 11 3d af f8 0e 3c 91 ee c2 bc d9 20 06 3c
       0.035474848 0.008726283 -0.023795398 0.008186542
0003b0 07 c0 aa bd 8c 5f 1e be c6 f0 93 bd be 54 0f be
       -0.083374076 -0.15466136 -0.07223658 -0.1399717
0003c0 48 94 8c bd b1 33 9f 3c 90 95 40 bb 5c 51 cc ba
       -0.0686422 0.019433828 -0.0029386021 -0.0015588212
0003d0 12 8f c6 bd ec 55 ef 3c a2 f5 28 bc 78 65 ef bd
       -0.09695257 0.029215775 -0.01031247 -0.116892755
0003e0 ac 49 4b be 9d b9 cb bd 5a 68 ea 3c 93 99 68 bc
       -0.19852322 -0.09947512 0.028614212 -0.014196771
0003f0 f2 5d 8b 3c 49 b1 d6 3c f9 69 9c 3c a3 7f d2 3d
       0.01701257 0.026207583 0.0190935 0.10278251

decoder.3.bias f4 [16]
000000 6e 62 9a 3e 16 75 c0 3e 30 0c 2e bd 71 6c 86 3e
       0.3015322 0.3758933 -0.04249209 0.2625461
000010 e6 87 00 3e 55 2e 83 3e e0 30 6d 3d 35 7d fc 3d
       0.12551841 0.25621286 0.05790794 0.12328569
000020 1a 47 89 3e 93 8d 64 3e 48 d1 b0 3d 49 e5 b6 3d
       0.2681206 0.22319631 0.08633667 0.089304514
000030 9f 74 83 3e 50 01 e4 3e bb 3c da be b2 ef ca 3e
       0.25674912 0.4453225 -0.4262446 0.39635998

decoder.5.weight f4 [16, 1, 3, 3]
000000 29 1d 95 3d e1 d5 7b be 21 5a c2 bd b7 78 05 3e
       0.072809525 -0.24593307 -0.09489847 0.1303433
000010 1c dc 7f be e5 e9 29 3d a4 0d ed 3d 65 32 a5 bc
       -0.24986309 0.041482825 0.11574867 -0.020165632
000020 88 d8 87 be 0b 1f 84 bd f7 d6 37 bd ca 54 2e bd
       -0.26532388 -0.064512335 -0.04488274 -0.04256133
000030 c8 c6 0a be 03 22 89 be 92 4a b5 be 16 37 2f be
       -0.13552392 -0.2678376 -0.35408455 -0.17110857
000040 ac d0 46 be 4b 7e 97 3d 3d 0b ee 3e 34 66 d2 3e
       -0.1941554 0.07397135 0.4649295 0.410936
000050 d1 87 11 be 77 02 24 3f f7 5a 0a 3f 89 2d 6f be
       -0.14211966 0.6406626 0.5404505 -0.23357214
000060 30 96 c1 3e f4 d2 4f 3e 16 67 86 be 54 84 e0 3e
       0.37809896 0.20295316 -0.26250523 0.43850958
000070 06 cd 3b 3f 6b 04 aa 3e 7d db 2b 3f f2 74 88 3f
       0.73359716 0.33206496 0.6713179 1.0660689
000080 9b a5 9f 3e 06 5c 8f 3e 33 13 bc 3e 15 4f 9f bd
       0.31181034 0.27999896 0.36733398 -0.077787556
000090 8a a9 c4 3e 14 9f 20 3f ed 4d 8b 3e ae af 25 3f
       0.38410598 0.62742734 0.2720789 0.6472119
0000a0 54 12 6c 3f f4 53 9d 3e ee 3f b5 3e d5 76 c0 3e
       0.92215466 0.30728114 0.35400337 0.37590662
0000b0 f7 8f f9 3c eb ee 28 be 09 ab d5 bd b5 3a 8e be
       0.030464156 -0.1649739 -0.10433013 -0.27779165
0000c0 40 76 91 be 97 f5 6d be 9f 38 20 be 49 38 c4 3b
       -0.2841053 -0.23238216 -0.15646599 0.005988155
0000d0 71 2d 11 3e 4d f6 61 bd 46 41 8e 3e 4a ba 33 3f
       0.14177491 -0.05516653 0.27784175 0.7020613
0000e0 06 38 e4 3e 44 b1 0f 3f 0b 90 96 3f 2c 5f 1c 3f
       0.44573992 0.5612986 1.1762708 0.6108272
0000f0 04 ed bc 3e 9f cd 20 3f 94 51 7f 3e ca 13 61 3d
       0.3689958 0.6281375 0.24933463 0.054950513
000100 81 9e 9e 3e cf 2c a4 3e df dd 58 3e 7c 40 3f 3f
       0.30980304 0.32065436 0.21178387 0.7470777
000110 67 96 2c 3f e8 12 07 3e b8 66 d7 3e 32 2c b4 3e
       0.67416996 0.13190806 0.42070556 0.35189968
000120 32 b4 ef be ec 30 0f bf 42 63 0f be 58 f0 18 bf
       -0.46817166 -0.55934024 -0.14002708 -0.59741735
000130 76 df 5b be 83 00 d6 3e 7c 74 5f be 24 75 b5 3e
       -0.21471962 0.41797265 -0.21821779 0.35440934
000140 e8 f0 28 3f 4d 19 e2 bd 0b e1 02 3e 6a e5 10 bc
       0.65992594 -0.11039982 0.1278116 -0.008843759
000150 8f 8a 4b be be 35 2a 3d 66 c1 8e bd 1f d4 84 be
       -0.19877075 0.04155516 -0.069704816 -0.25943086
000160 62 a3 2e be a1 fb 1b 3e a0 29 6d 3e 1c 59 e9 3e
       -0.17054513 0.15232708 0.2316041 0.45575798
000170 e8 87 83 3e ff 0c e5 3e e1 85 35 3f 7f 42 a2 3e
       0.25689626 0.44736478 0.7090741 0.31691357
000180 75 05 38 3e 00 21 3c 3e 48 81 37 bd 31 3b 07 3e
       0.17970832 0.18371964 -0.044801027 0.13206173
000190 20 b1 1e bd 8c 1c df be 67 14 b7 3d 42 fb 6b be
       -0.03874314 -0.43576467 0.08939438 -0.23045066
0001a0 5c 9a 21 bf ba 9a c1 3d a7 b2 63 be 67 c6 fd be
       -0.6312616 0.0945334 -0.22236119 -0.4956543
0001b0 e5 e9 8b be b5 3e 98 be e7 6f db bc 0b cc 97 be
       -0.27326885 -0.29735342 -0.026786758 -0.2964786
0001c0 9b ef 86 be d8 1c b4 3c 7e eb 6d 3c 15 01 de 3d
       -0.2635468 0.02198641 0.014521478 0.1084005
0001d0 cb 5e 26 3d 32 6c a6 3d 5c bb c2 3d 7b fd f2 3d
       0.040617745 0.08126105 0.09508392 0.11864754
0001e0 b1 b0 c8 3c 11 cb 03 be 8c a2 02 be fe 03 87 bd
       0.024498316 -0.12870432 -0.12757319 -0.06592558
0001f0 bb 55 ba be 44 11 80 be 02 c1 dc 3e 24 5a 88 3e
       -0.36393532 -0.25013173 0.43116003 0.26631272
000200 ed 2b 84 3d fe 2b 06 3f 57 14 84 3e 38 7f 0f bd
       0.06453691 0.52410877 0.25796768 -0.035033435
000210 b1 c0 3c 3e 28 17 20 bd 4a d7 f1 bd d0 bf 89 bd
       0.18432881 -0.039084584 -0.11808641 -0.067260385
000220 05 7b fd 3b c1 47 68 3e ca 8f 25 be cf c1 6e be
       0.0077356123 0.22683622 -0.16168132 -0.2331612
000230 3f 28 91 3d 52 8b 60 3c ce 63 9c be d4 05 8f be
       0.070877545 0.013705092 -0.30544895 -0.27934134
