models/model_b5.pt (torch, 199311 bytes, 11 tensors)

encoder.0.weight f4 [16, 1, 3, 3]
0	0x3d886672	0.06660165
1	0x3dfa2480	0.12213993
2	0xbe10c760	-0.14138556
3	0x3e121da7	0.14269124
4	0x3e97e5bf	0.2966747
5	0x3a3f2976	0.000729225
6	0x3d8be18b	0.06830128
7	0x3e877c50	0.2646203
8	0xbe222453	-0.15834169
9	0xbc1a9aef	-0.009436353
10	0x3e424811	0.18972804
11	0x3e4f8612	0.20265988
12	0xbd441e5d	-0.04788052
13	0xbe4e77ec	-0.20162934
14	0x3d8d8bde	0.06911443
15	0x3e88063f	0.26567265
16	0xbe8c4add	-0.27400866
17	0xbe8303c8	-0.25588822
18	0xbef46e42	-0.4774037
19	0xbe40f4cf	-0.18843387
20	0xbcaf42a8	-0.021394089
21	0x3e2d425c	0.16919845
22	0x3e04fb4e	0.1298649
23	0xbcbd0b6e	-0.02307674
24	0x3d6751b1	0.05647439
25	0x3eba6925	0.36408344
26	0x3e048e37	0.12944876
27	0x3da10482	0.07862188
28	0x3ecca069	0.39966133
29	0xbe05ccbb	-0.1306638
30	0xbeb15036	-0.3463151
31	0x3cb5efcd	0.022209072
32	0xbea683c6	-0.3252241
33	0x3eb64a28	0.35603452
34	0xbe6a76de	-0.22896907
35	0x3df7d80b	0.12101754
36	0x3e1472e5	0.14496954
37	0xbbae0cc8	-0.0053115822
38	0x3e77a6a0	0.24184656
39	0xbe8efdaa	-0.27927905
40	0x3d9c53f4	0.076332
41	0x3dca184b	0.09867915
42	0xbe1687e4	-0.14700276
43	0xbe5d1757	-0.21590935
44	0xbe7ce2f9	-0.24695958
45	0xbdba3e44	-0.090939075
46	0xbe296560	-0.16542578
47	0xbe0ce9fd	-0.13761134
48	0xbe7260f8	-0.23669803
49	0x3e7cc12b	0.24683063
50	0x3e199e7b	0.15001862
51	0x3d533d4c	0.05157213
52	0xbe8d1270	-0.2755313
53	0xbe832a76	-0.25618333
54	0xbda711c3	-0.08157685
55	0xbe9ee694	-0.31035292
56	0x3e4b053f	0.1982622
57	0x3eb8572a	0.36004
58	0xbd97e8b7	-0.07417434
59	0xbeb2aa68	-0.34895635
60	0x3b3cf802	0.0028834348
61	0x3ebf68a6	0.37384528
62	0xbe498587	-0.19679843
63	0xbe91e44b	-0.28494486
64	0x3e3ceca0	0.1844964
65	0xbe7572a9	-0.2396952
66	0xbe1bf791	-0.15231158
67	0xbeb4c73d	-0.35308257
68	0xbe9a4c5b	-0.3013638
69	0x3e77a227	0.2418295
70	0x3e915dfb	0.28392014
71	0x3e9e7a4c	0.3095268
72	0x3eaa866c	0.3330568
73	0xbc2e7cf3	-0.010649907
74	0x3e376979	0.17911328
75	0x3e939118	0.28821635
76	0xbe6a716d	-0.22894831
77	0xbeac5067	-0.33655092
78	0x3d8e08b6	0.06935255
79	0xbdbbc397	-0.09168165
80	0xbe6b3333	-0.2296875
81	0xbe8adeee	-0.27123207
82	0x3e906a06	0.2820589
83	0x3e1ddf49	0.15417208
84	0xbda5a32b	-0.080877624
85	0xbe6f944e	-0.23396417
86	0x3def335c	0.11679718
87	0x3e79f742	0.24410728
88	0xbd58a5f8	-0.052892655
89	0xbe834bd1	-0.2564378
90	0x3e84d7b6	0.25945824
91	0x3e839307	0.2569811
92	0xbd1f2d5c	-0.038861617
93	0xbeac795d	-0.33686343
94	0xbe87345d	-0.26407138
95	0x3d2f83be	0.04285025
96	0xbe8814d3	-0.26578388
97	0xbd73389b	-0.059380155
98	0x3d1bf57e	0.038075916
99	0x3bea17b1	0.0071439375
100	0x3e7931d6	0.24335417
101	0x3e9b34dc	0.30313766
102	0xbe2e7c06	-0.17039499
103	0x3e77f66f	0.242151
104	0x3e8e4827	0.27789423
105	0xbe2b5e71	-0.16735245
106	0xbd937ee2	-0.07201935
107	0xbdb14467	-0.08655625
108	0x3993c5b2	0.0002818532
109	0x3dd06986	0.10176377
110	0xbdd231be	-0.10263394
111	0xbe8a258b	-0.26981768
112	0x3e3d5fe9	0.18493618
113	0xbeb4da7d	-0.35322943
114	0xbdff601e	-0.12469505
115	0x3e87972b	0.2648252
116	0x3e015bf7	0.12632738
117	0x3e80c117	0.25147316
118	0x3e39cb64	0.18143994
119	0xbe5016f9	-0.20321263
120	0xbc3fd249	-0.011707851
121	0x3ecb65dc	0.3972615
122	0x3db0fd2b	0.08642038
123	0xbe753449	-0.23945726
124	0xbe3ac983	-0.18240933
125	0xbe7d1ae3	-0.24717288
126	0x3ea77f56	0.32714337
127	0xbd670ca4	-0.05640854
128	0xbd93b5bc	-0.072123975
129	0xbd0d8aba	-0.034556128
130	0x3d9dcb9c	0.07704851
131	0x3cec74c1	0.028864266
132	0xbe90b6ce	-0.2826447
133	0xbeb130ba	-0.34607488
134	0xbdc3822b	-0.09546312
135	0xbe161f25	-0.14660318
136	0xbe9fa1b3	-0.31178054
137	0xbddaa769	-0.10676462
138	0x3df1db03	0.11809351
139	0x3ca28c4b	0.019842288
140	0x3d76e067	0.0602726
141	0x3e824bf5	0.25448576
142	0xbd1db9e9	-0.038507376
143	0xbc54c723	-0.012986931

encoder.0.bias f4 [16]
0	0x3eb717b2	0.35760266
1	0x3be764a0	0.007061556
2	0x3e08e724	0.13369423
3	0xbde9bce5	-0.11412982
4	0xbc529ffc	-0.012855526
5	0x3e2e1565	0.17000349
6	0x3cd32c82	0.025778059
7	0x3d7c183f	0.06154656
8	0xbd3a7edc	-0.04553114
9	0x3ddf0e77	0.10891431
10	0x3e0e4e50	0.13897061
11	0x3e20261d	0.15639539
12	0x3e20f3a7	0.15717946
13	0x3cb81994	0.022473134
14	0xbd4e68fe	-0.050393097
15	0x3d800040	0.06250048

encoder.2.weight f4 [32, 16, 3, 3]
0	0x3d39f19e	0.04539644
1	0xbe03bc68	-0.1286484
2	0xbe01581d	-0.12631269
3	0x3e8373e5	0.25674358
4	0xbec39e25	-0.38206592
5	0xbdfc291e	-0.1231253
6	0x3dfeaa98	0.12434882
7	0xbcfe4f3d	-0.031043643
8	0x3c005027	0.00783161
9	0x3daeef6a	0.08541758
10	0xbd5eb9a9	-0.054376278
11	0xbd8a50b9	-0.06753678
12	0xbd0d18e0	-0.03444755
13	0x3d53954c	0.051656052
14	0x3d9683a0	0.07349324
15	0xbc29e7b1	-0.010370181
16	0x3d9ee68b	0.07758816
17	0xbda4949c	-0.080361575
18	0x3e6de995	0.23233636
19	0xbcf34249	-0.029694693
20	0x3d086e1d	0.033308137
21	0x3e3ed133	0.1863449
22	0x3d2ee944	0.04270293
23	0x3c9f0ab3	0.019414281
24	0xbdbd14cd	-0.09232483
25	0xbd6816b6	-0.056662284
26	0x3c4e4a1d	0.012590912
27	0xbd7b31b6	-0.061326705
28	0xbc69f495	-0.014279504
29	0xbe0eafd7	-0.13934265
30	0xbdb5ec4f	-0.08882963
31	0x3b8e7864	0.004347848
32	0xbe1339b9	-0.14377488
33	0x3deab01e	0.11459373
34	0xbe54e6d1	-0.20791174
35	0xbd9840a3	-0.074342035
36	0xbdda96da	-0.10673304
37	0x3c32cfdc	0.010913815
38	0xbda1ed57	-0.07906597
39	0x3bcd8459	0.0062718806
40	0xbd2176dc	-0.039419994
41	0x3d9698be	0.07353352
42	0xbc66100d	-0.014041913
43	0x3d0fbb4e	0.035090737
44	0x3cc931a8	0.02455981
45	0x3c9ab7eb	0.018886527
46	0x3dd3b417	0.10337084
47	0x3ddc94f5	0.10770599
48	0xbd72de58	-0.059294075
49	0x3dc1c7a4	0.094619066
50	0x3ac18ecc	0.0014767288
51	0x3d453675	0.048147637
52	0x3da8c14e	0.08239995
53	0xbd913bb3	-0.07091465
54	0x3d4105b6	0.047124587
55	0x3d48d457	0.049030628
56	0x3d8f75f2	0.07004918
57	0xbc163d4e	-0.00916989
58	0x3b9eeea0	0.0048502237
59	0x3da869f5	0.08223335
60	0xbe0ec714	-0.1394313
61	0xbd9fa2b9	-0.07794709
62	0xbd86ac2e	-0.065758094
63	0xbd7d872c	-0.061896488
64	0xbc853130	-0.016258806
65	0x3d38e0e9	0.045136366
66	0xbd0694a7	-0.03285661
67	0x3d058de4	0.03260602
68	0xbd516570	-0.05112213
69	0xbda05feb	-0.07830795
70	0x3d08e1e1	0.03341854
71	0x3d589837	0.05287954
72	0x3db8c2dd	0.09021542
73	0x3d52829b	0.051394086
74	0xbd04bd94	-0.03240736
75	0x3e83f61c	0.25773704
76	0x3d63d793	0.05562551
77	0xbe37dc4e	-0.17955133
78	0x3e0a916e	0.1353204
79	0xbd1019d8	-0.035180897
80	0x3cf12966	0.029438686
81	0x3e079361	0.13239814
82	0x3d7d1e65	0.061796565
83	0xbd0c8630	-0.03430766
84	0x3dda7cd2	0.10668339
85	0x3d1c5b05	0.03817274
86	0xbba5a85d	-0.005055471
87	0x3d16972c	0.036765262
88	0x3ca598d6	0.02021448
89	0xbda3e848	-0.080032885
90	0xbdf1cc77	-0.11806577
91	0x3d472066	0.048614882
92	0x3cdd7d16	0.027037185
93	0xbd558096	-0.052124582
94	0xbcb7569f	-0.022380171
95	0xbd31d5d2	-0.043416806
96	0x3da282ea	0.07935126
97	0x3d041872	0.032249875
98	0xbd8ef522	-0.06980349
99	0x3c957801	0.018245699
100	0xbe0284c5	-0.1274596
101	0xbe3183c3	-0.1733542
102	0xbcacdfc7	-0.0211028
103	0xbe858c8b	-0.26083788
104	0xbdfd569e	-0.123700365
105	0xbc8487d4	-0.01617805
106	0xbd99a81a	-0.07502766
107	0x3bfb61d2	0.007671573
108	0x3d5cffde	0.05395495
109	0xbdb621ca	-0.088931635
110	0x3d87727c	0.06613633
111	0xbd7f9486	-0.062397502
112	0x3cc68c3b	0.024236789
113	0xbcc86870	-0.024463862
114	0xbd9c7c9d	-0.076409556
115	0x3ad05e6d	0.0015897282
116	0xbcb940ef	-0.02261397
117	0x3c8875be	0.016657706
118	0xbd58c31c	-0.052920446
119	0xbde65ca2	-0.11248137
120	0x3e1a5be5	0.15074117
121	0x3c25ca11	0.010118977
122	0xbe4fbcce	-0.20286867
123	0x3e16f19c	0.14740604
124	0xbca82a49	-0.020527976
125	0xbdaca855	-0.08430544
126	0xbdb726ae	-0.089429244
127	0x3e24d847	0.16098128
128	0x3d913261	0.07089687
129	0x3ce4b75e	0.027919468
130	0x3ce59bc7	0.028028382
131	0xbd0b5546	-0.03401687
132	0x3e3116fd	0.17293926
133	0xbbb3719e	-0.0054761907
134	0x3bf602a1	0.0075076376
135	0xbc7299c8	-0.014807172
136	0x3bbb8cf3	0.0057235896
137	0xbac96176	-0.0015364129
138	0xbd964556	-0.073374435
139	0x3d9a812e	0.0754417
140	0xbd1a504b	-0.03767423
141	0xbc32857f	-0.010896086
142	0xbca87d84	-0.020567663
143	0x3d3fcd12	0.04682643
144	0x3dc2faec	0.09520516
145	0x3cca8d81	0.024725677
146	0x3cd33112	0.025780234
147	0xbe74adfc	-0.23894495
148	0xbdbcfe95	-0.09228245
149	0x3c372203	0.011177543
150	0xbdc5f936	-0.09666674
151	0xbd6423af	-0.055698093
152	0x3e2d92a5	0.16950472
153	0xbcd9e1cb	-0.026596924
154	0x3d382b88	0.04496339
155	0x3d6fedf5	0.058576543
156	0x3df77f36	0.120848104
157	0xbd5ea6c7	-0.05435827
158	0x3df4c9c9	0.1195255
159	0xbd8db5d0	-0.069194436
160	0xbd69fff3	-0.057128858
161	0xbd3193aa	-0.043353714
162	0x3e1bc20b	0.1521074
163	0x3da1c6c4	0.0789924
164	0x3d99b921	0.07506014
165	0x3dc5a131	0.096498854
166	0xbe3832df	-0.17988156
167	0x3ccd1022	0.025032107
168	0xbd1d66bb	-0.03842805
169	0xbd5f115b	-0.05445991
170	0x3dcc6ca5	0.0998166
171	0xbdae1d06	-0.085016295
172	0x3dc6b129	0.09701759
173	0xbc385df7	-0.011252872
174	0xbd1e974b	-0.038718503
175	0x3e149ba7	0.14512502
176	0x3ca4ba24	0.02010829
177	0x3c5e7f2e	0.013580127
178	0x3e5e97d0	0.217376
179	0x3dd9d482	0.10636236
180	0xbd62cfb4	-0.055373862
181	0xbd2dada2	-0.042401917
182	0x3cd0f484	0.02550722
183	0x3d22f151	0.03978092
184	0x3d554dd9	0.052076194
185	0xbb35c199	-0.0027733801
186	0x3b653af5	0.0034977768
187	0x3c8ca9e6	0.017170858
188	0xbd4e52bb	-0.050371867
189	0xbc950040	-0.018188596
190	0x3ad660ce	0.0016355754
191	0x3dd2c203	0.10290911
192	0x3dd3a732	0.10334624
193	0x3d5ba927	0.053628113
194	0xbe063051	-0.13104369
195	0x3d2f1593	0.042745184
196	0x3be83167	0.0070859673
197	0xbd121de3	-0.035673033
198	0xbe069315	-0.13142045
199	0x3de329ba	0.11091943
200	0xbd4eb270	-0.05046314
201	0xbceeab87	-0.029134525
202	0xbdac7cc2	-0.08422233
203	0xbd09d3b8	-0.033649176
204	0x3e03ad08	0.12858975
205	0xbd031374	-0.032000974
206	0xbe19bbdd	-0.1501307
207	0x3c38247e	0.011239169
208	0x3cac6c0a	0.02104761
209	0x3cbd6674	0.023120143
210	0xbd1868cc	-0.037209317
211	0x3cb00f2b	0.021491608
212	0x3c8b9027	0.01703651
213	0x3d84edef	0.06490695
214	0xbb9790a2	-0.004625396
215	0xbd8ae6d8	-0.06782311
216	0x3df0553b	0.117350064
217	0xbbfd03ba	-0.0077213915
218	0xbdd01515	-0.10160271
219	0x3d1a4d7d	0.037671555
220	0xbc04e318	-0.008110784
221	0x3daf91f2	0.08572759
222	0xbe2b4482	-0.16725352
223	0x3e308810	0.17239404
224	0x3e134d89	0.14385046
225	0x39cb204a	0.00038743234
226	0xbcbeb10f	-0.023277787
227	0xbcd34dd2	-0.025793944
228	0x3e066671	0.13125016
229	0xbdfda623	-0.12385204
230	0xbd1d6081	-0.03842211
231	0xbbdbbe83	-0.0067060604
232	0xbca67ad0	-0.020322233
233	0xbc3ab8e0	-0.011396617
234	0x3bfd224a	0.007725035
235	0xbcce5198	-0.025185391
236	0xbb4b53d1	-0.00310253
237	0x3e228825	0.15872248
238	0x3e4b786d	0.19870158
239	0xbd4db11f	-0.050217744
240	0xbb4d5fcd	-0.003133762
241	0x3dc617cf	0.0967251
242	0xbd919c91	-0.07109941
243	0x3e1aa675	0.15102561
244	0x3de50b16	0.11183755
245	0x3e2485c9	0.1606666
246	0xbd212d1e	-0.039349668
247	0xbdf124f6	-0.11774628
248	0x3d82a6ac	0.063794464
249	0x3ce3ddf0	0.027815789
250	0xbe86b058	-0.26306415
251	0x3deb6514	0.114938885
252	0xbcef4040	-0.029205441
253	0xbd6b2959	-0.05741248
254	0xbd7f4f88	-0.062331706
255	0xbd04c74f	-0.032416638

encoder.2.bias f4 [32]
0	0xbc6855b8	-0.014180593
1	0xbd8feed8	-0.07027978
2	0xbd67a83c	-0.056556925
3	0x3c8bacf9	0.017050253
4	0x3be2bb51	0.0069193025
5	0x3d9363ca	0.07196768
6	0xbdce524d	-0.100742914
7	0xbd9ba8ce	-0.07600556
8	0xbcf62a57	-0.030049486
9	0x3d89d756	0.06730525
10	0x3da34386	0.079718634
11	0x3cf7cb33	0.03024826
12	0x3b76afd2	0.0037641418
13	0x3d9368fc	0.071977586
14	0xbcc6e594	-0.024279393
15	0x3d8013ab	0.06253751
16	0xbc3e5c48	-0.011618681
17	0x3d8d954c	0.06913242
18	0xbcb2db95	-0.02183322
19	0x3d83b26d	0.064305164
20	0xbd4f9ae0	-0.05068481
21	0xbd52a776	-0.051429234
22	0x3d7cdc1e	0.061733358
23	0x3d59b801	0.053153995
24	0x3cd217cd	0.025646115
25	0xbd6fe424	-0.05856718
26	0xbd9487d9	-0.072524734
27	0xbcdd8693	-0.027041709
28	0x3c09ab9d	0.008402732
29	0x3d994ed9	0.07485742
30	0x3d3f09cb	0.0466402
31	0x3d96148c	0.07328138

encoder.5.weight f4 [12, 1568]
0	0xbb703327	-0.0036651583
1	0x3c85e76d	0.016345704
2	0x3c139577	0.009007803
3	0x3c627ceb	0.013823728
4	0x3b5d8dc8	0.0033806432
5	0xbd3c354f	-0.045949277
6	0x3c88924a	0.016671319
7	0xbbf2f443	-0.007414372
8	0x3cde21fc	0.027115814
9	0xbd0ad435	-0.033893783
10	0x3dbe878a	0.09303196
11	0xbd90d335	-0.070715345
12	0x3e3aad48	0.18230164
13	0xbd2e41f7	-0.042543378
14	0xbc2ce464	-0.010552499
15	0x3cbaf7b3	0.02282319
16	0xbdc65f2f	-0.096861236
17	0xbd722b2b	-0.0591232
18	0x3e678d64	0.2261253
19	0x3dbc5ecb	0.09197768
20	0xbe218fb7	-0.15777479
21	0xbb258024	-0.002525338
22	0xbd3c6237	-0.045992102
23	0x3d099ae9	0.033595
24	0x3dc4eeb5	0.09615842
25	0x3bd6f69a	0.006560159
26	0xbe26a7b8	-0.16274917
27	0xbd297eb0	-0.041380584
28	0x3bde2969	0.006779839
29	0xbc07ff44	-0.008300606
30	0xbd724c86	-0.05915501
31	0x3bb4d473	0.00551849
32	0x3e8b9bae	0.27267212
33	0xbcecbfd1	-0.028900059
34	0xba1b8a96	-0.00059334317
35	0xbce00e1e	-0.027350482
36	0x3bcf1183	0.006319226
37	0x3dd488d0	0.103776574
38	0x3c8f4cd2	0.017492685
39	0x3dc0b89d	0.09410212
40	0xbdcb69fd	-0.09932325
41	0xbc643ee6	-0.013931012
42	0xbc827cfe	-0.015928742
43	0xbd55e375	-0.052218873
44	0xbcabae8f	-0.02095726
45	0x3d9def08	0.07711607
46	0xbd05cabe	-0.032664053
47	0x3b9f066b	0.00485306
48	0xbb85764a	-0.004072939
49	0xbced546f	-0.028970925
50	0xbd14c910	-0.03632456
51	0xbd25aa1a	-0.040445425
52	0x3d94c37a	0.07263847
53	0x3dc4d75a	0.096113876
54	0x3e03c570	0.12868285
55	0xbbf3db87	-0.007441941
56	0xbc67e826	-0.01415447
57	0xbcaa6e5b	-0.020804575
58	0xbd245f26	-0.040129803
59	0xbdbde785	-0.092726745
60	0xbdd69dcf	-0.10479318
61	0x3d04c397	0.03241309
62	0x3d91797d	0.0710325
63	0x3d345f03	0.044035923
64	0xbbc490d5	-0.0059987106
65	0xbe31294b	-0.17300908
66	0x3e83a9dd	0.25715533
67	0x3c0804b0	0.008301899
68	0x3e8bdd4e	0.2731728
69	0x3d07ad6e	0.03312438
70	0x3c20738a	0.009793172
71	0xbbeb36e1	-0.007178173
72	0x3e524874	0.20535451
73	0xbb239427	-0.0024960132
74	0x3dd203db	0.102546416
75	0x3d274b26	0.04084315
76	0xbcdea977	-0.027180417
77	0xbbca5973	-0.006175214
78	0xb995c06c	-0.0002856286
79	0x3aad4101	0.0013218225
80	0x3ecb9d10	0.39768267
81	0x3e00436d	0.12525721
82	0x3d8896f0	0.06669414
83	0xbd92566d	-0.07145391
84	0x3c9fbc0f	0.019498853
85	0xbcfeeafc	-0.031117909
86	0xbdc9b158	-0.09848279
87	0xbd357348	-0.044299394
88	0x3cc6cf7f	0.024268864
89	0x3ddb47c6	0.10707049
90	0x3be64c8e	0.007028169
91	0x3cab7ccb	0.02093353
92	0x3c5fc629	0.013658085
93	0x3dbf2cf2	0.093347445
94	0x3e1ce24b	0.15320699
95	0x3c85d46e	0.016336646
96	0xbd2b41b6	-0.041810714
97	0xbc49e2ed	-0.01232217
98	0xbbe94168	-0.0071183927
99	0xbad4a9e3	-0.0016224947
100	0xbc1482fd	-0.009064433
101	0x3c8639b5	0.016384939
102	0xbc0c62a9	-0.008568444
103	0x3c153b00	0.009108305
104	0xbb934f59	-0.004495543
105	0xbb46b946	-0.0030322834
106	0xbc410e2d	-0.011783165
107	0xbc92851f	-0.017885743
108	0xbd860251	-0.065434106
109	0xbbb3bd52	-0.005485215
110	0x3e038b2c	0.12846059
111	0x3cadc4c1	0.021211984
112	0xbc2cbfb0	-0.010543749
113	0x3d25c501	0.04047108
114	0x3d176c3c	0.036968455
115	0x3e635ad7	0.22202621
116	0x3e63b2aa	0.22236124
117	0x3e3141cd	0.17310257
118	0x3d08deb5	0.033415515
119	0x3c30502f	0.010761305
120	0xbabd42c1	-0.001443945
121	0x3db17a70	0.08665931
122	0xbd9f9aaa	-0.07793172
123	0x3e9e1a0f	0.30879256
124	0x3d885a80	0.066578865
125	0x3bcd4db1	0.006265365
126	0xbb4abe02	-0.0030936007
127	0x3c70e778	0.014703624
128	0x3d782f4e	0.06059199
129	0x3eb287c0	0.34869194
130	0x3da776d4	0.081769615
131	0x3d5f23ff	0.054477688
132	0xbd7f340d	-0.0623055
133	0x3bfb7ab2	0.0076745385
134	0xbca66722	-0.02031285
135	0x3cf5695b	0.029957464
136	0x3ddb52e4	0.107091695
137	0x3ea0f25b	0.31434903
138	0x3d585a24	0.05282034
139	0x3b9efe4d	0.0048520924
140	0x3bc781ca	0.00608847
141	0xbb3bf05e	-0.0028677206
142	0x3cfcd65e	0.030863937
143	0x3d631ab5	0.05544539
144	0x3b42edf8	0.0029743891
145	0x3d309e87	0.043119933
146	0x3ca0ef14	0.019645251
147	0x3c736fbd	0.014858183
148	0x3cfcf394	0.030877866
149	0x3d26d269	0.040728007
150	0x3d0d4fa3	0.034499776
151	0x3d882064	0.06646803
152	0x3da1d308	0.07901579
153	0x3d812bb2	0.06307162
154	0xbbf975ca	-0.0076129185
155	0x3c53e060	0.012931913
156	0xbd1f5c94	-0.03890665
157	0x3c21d6e9	0.009877899
158	0x3d8ab174	0.06772128
159	0x3dfcdad7	0.12346428
160	0x3d364385	0.044497985
161	0xbc071792	-0.008245366
162	0x3d03b6dd	0.032156814
163	0xbc847d2b	-0.016172966
164	0xbe85647d	-0.2605323
165	0xbdf54b85	-0.11977295
166	0x3e475aa7	0.19468175
167	0xbbb848e8	-0.0056239255
168	0xbbc60605	-0.006043198
169	0x3d6858c6	0.056725286
170	0xbd000f92	-0.03126485
171	0x3c04a13c	0.008095082
172	0x3ec347a8	0.38140607
173	0x3d078f10	0.03309542
174	0xbcb29bd3	-0.021802818
175	0x3bc50603	0.0060126795
176	0x3dc88093	0.097901486
177	0x3d29474b	0.041327756
178	0x3d80be70	0.06286323
179	0xbd879a63	-0.06621244
180	0xbb8056b7	-0.003916587
181	0xbda4ade6	-0.08040981
182	0x3c2f9810	0.010717407
183	0xbc80f64c	-0.015742444
184	0x3de42e51	0.11141647
185	0xbc890651	-0.016726645
186	0x3db82726	0.08991842
187	0xbd7d5c5b	-0.061855655
188	0xbc381acd	-0.011236859
189	0xbc6502df	-0.013977735
190	0xbc473a64	-0.0121599175
191	0xbd5de7dd	-0.0541762
192	0x3df7cc06	0.12099461
193	0x3e29a14a	0.16565433
194	0xbbfb8625	-0.0076759034
195	0x3cea26ed	0.028583014
196	0x3d43d0c8	0.04780653
197	0x3c69c93e	0.014269171
198	0xbc0d917a	-0.008640641
199	0xbd458a77	-0.048227753
200	0x3d849bb0	0.064750075
201	0xbd7bbeda	-0.061461307
202	0x3cb148b8	0.02164112
203	0x3b34d111	0.0027590434
204	0x3a692f97	0.0008895336
205	0xbcdb505e	-0.02677172
206	0xbda9f74d	-0.08299122
207	0x3b9cb6f7	0.0047825533
208	0xbd8ce8ff	-0.06880378
209	0x3e19083b	0.14944546
210	0x3becb32e	0.0072235083
211	0xbb184063	-0.0023231737
212	0xbdc3107f	-0.09524631
213	0xbdb86a22	-0.09004618
214	0xbeb7f672	-0.3593021
215	0x3e8a027f	0.2695503
216	0xbb7187e7	-0.0036854686
217	0x3cadbdf7	0.021208746
218	0x3d4c159d	0.0498253
219	0x3cdc7561	0.02691144
220	0x3d8592ac	0.06522116
221	0x3e67c88e	0.226351
222	0x3dd976c2	0.106183544
223	0xbcb6cb3b	-0.022313705
224	0x3ce5c72f	0.02804908
225	0x3d3cd27e	0.04609918
226	0xbde9627d	-0.11395738
227	0xbc012d2f	-0.007884308
228	0xbd09dcba	-0.033657767
229	0xbc9d926f	-0.019234864
230	0xbcf6b1d1	-0.030114086
231	0xbc27ff1b	-0.010253693
232	0x3cf4aab8	0.029866561
233	0x3d6bfe53	0.05761559
234	0x3e865c30	0.26242208
235	0xbe1f68f0	-0.15567374
236	0x3c890289	0.016724842
237	0xbcd72506	-0.026262771
238	0x3bb48d67	0.0055100205
239	0xbc6bae8c	-0.014384877
240	0x3c7e739a	0.015530491
241	0x3d8d3841	0.06895495
242	0x3e6144a5	0.21998842
243	0xbd692197	-0.0569168
244	0x3bfc31b0	0.007696353
245	0xbd2d95db	-0.04237924
246	0xbc7803ba	-0.015137607
247	0xbe5393bc	-0.20661825
248	0xbede9c1f	-0.43478486
249	0xbde0e661	-0.10981441
250	0xbdd876c2	-0.10569526
251	0xbd276e02	-0.040876396
252	0xbd2e4576	-0.04254671
253	0xb8ddf3e2	-0.00010583528
254	0x3ddfa823	0.109207414
255	0xbd02bbd0	-0.031917393

encoder.5.bias f4 [12]
0	0xbd05d8ff	-0.032677647
1	0x3d434146	0.04766967
2	0x3c2d271a	0.010568405
3	0x3c0df4b9	0.008664303
4	0xbd0a54fd	-0.033772457
5	0x3cd8040b	0.026369115
6	0xbd371c6e	-0.044704847
7	0x3c87f72f	0.016597359
8	0x3d2db420	0.04240811
9	0xbc56697f	-0.013086676
10	0xbcce7b9a	-0.025205422
11	0xbc129e38	-0.008948855

decoder.0.weight f4 [1568, 12]
0	0xc00dad56	-2.2137046
1	0xbf675382	-0.903618
2	0x3f947ed3	1.1601204
3	0xbfb39b9a	-1.4031861
4	0x3f57f10a	0.8435217
5	0xbfc80615	-1.5626856
6	0x3fccb75e	1.5993459
7	0xbf885cec	-1.0653358
8	0xbfb6ddfe	-1.4286497
9	0x3f8819b4	1.0632844
10	0x3f4e3fcc	0.80566096
11	0x3f8fd714	1.1237512
12	0xbe64cbb9	-0.22343339
13	0x3dc9fbf8	0.09862512
14	0xbe9485ca	-0.29008323
15	0xbd950a23	-0.07277324
16	0x3d204639	0.03912947
17	0xbc960444	-0.01831258
18	0xbd25415b	-0.04034553
19	0x3d135a40	0.03597474
20	0x3dfd7988	0.12376696
21	0x3dd3fb04	0.10350612
22	0x3db4d72f	0.088301055
23	0xbd604011	-0.0547486
24	0xc0536217	-3.302862
25	0xbf98e48b	-1.1944746
26	0x3f8d60d1	1.1045171
27	0xbfc2000c	-1.5156264
28	0x3f80d529	1.0065051
29	0xbfd8e6bc	-1.6945415
30	0x3fd32353	1.6495155
31	0xbf8096c9	-1.0046016
32	0xbfbce02f	-1.4755915
33	0x3f87c0a7	1.0605668
34	0x3f76813a	0.96290934
35	0x3f9a7362	1.2066462
36	0xc014205f	-2.3144758
37	0xbf5c6ed8	-0.86106634
38	0x3f795aa4	0.9740393
39	0xbf975115	-1.1821619
40	0x3f4c07cb	0.7969939
41	0xbfb92d6b	-1.4466985
42	0x3fa296d4	1.2702279
43	0xbf597274	-0.84940267
44	0xbfa06179	-1.2529746
45	0x3f5f9223	0.8733236
46	0x3f3559df	0.7084026
47	0x3f74a7cf	0.95568556
48	0xbe886b13	-0.2664419
49	0x3dffcbcf	0.12490045
50	0xbb02c7ab	-0.0019955437
51	0x3e15be59	0.14623393
52	0xbc7f0eb2	-0.0155674685
53	0x3e39d186	0.18146333
54	0xbda7ec88	-0.08199412
55	0x3dc5c6f4	0.09657088
56	0xbd814d23	-0.06313541
57	0xba93db41	-0.0011280553
58	0x3d94dd61	0.07268787
59	0xbd098729	-0.033576164
60	0xbe08ba19	-0.1335224
61	0xbcfbac57	-0.030721826
62	0xbce240ef	-0.027618853
63	0x3c4feb2b	0.012690346
64	0x3de3c49e	0.11121486
65	0xbbe0f9f6	-0.006865735
66	0xbdac197d	-0.08403299
67	0xbd82e0d6	-0.0639054
68	0x3da60c56	0.08107822
69	0xbd875c3e	-0.06609391
70	0xbcbe263f	-0.023211597
71	0xbdffc253	-0.12488236
72	0xbcf8e534	-0.03038273
73	0xbd2e4295	-0.042543966
74	0x3dc31089	0.09524638
75	0x3df6525b	0.12027427
76	0xbdb0d401	-0.086341865
77	0x3cf3e793	0.02977351
78	0xbe0bff52	-0.13671616
79	0x3d8067e8	0.062698185
80	0x3cf8ed29	0.030386524
81	0xbd62dac6	-0.05538442
82	0xbdf7af50	-0.12093985
83	0x3d41cd51	0.047314946
84	0xbfe94301	-1.8223573
85	0xbf475f35	-0.7787965
86	0x3f841e6c	1.0321784
87	0xbf9c9a01	-1.2234498
88	0x3f38ef9b	0.7224061
89	0xbfb00d67	-1.375409
90	0x3fb56c70	1.4173717
91	0xbf73fb78	-0.95305586
92	0xbfa0d526	-1.2565048
93	0x3f6cc9f5	0.9249566
94	0x3f326e24	0.6969931
95	0x3f791883	0.97303027
96	0xbd3564e0	-0.044285655
97	0x3bc04bbc	0.0058684032
98	0xbd31282b	-0.043251198
99	0xbdc621f4	-0.09674445
100	0x3da7bfd5	0.08190886
101	0xbe671b40	-0.22568989
102	0xbd1b51e7	-0.037919905
103	0xbd4eac6e	-0.05045741
104	0xbd0d2ead	-0.03446834
105	0x3d986c7f	0.07442569
106	0x3c8c56dd	0.017131263
107	0x3a916dc7	0.0011095338
108	0xc03084f8	-2.7581158
109	0xbf86d839	-1.0534736
110	0x3f91ef47	1.1401147
111	0xbfb52d8c	-1.4154525
112	0x3f72513a	0.9465519
113	0xbfcef644	-1.6168904
114	0x3fd533d8	1.6656446
115	0xbf852410	-1.040163
116	0xbfbccda9	-1.4750262
117	0x3f86e026	1.0537155
118	0x3f6b1aa6	0.9183754
119	0x3f92d07f	1.1469878
120	0xbfe21e54	-1.7665505
121	0xbf472cb5	-0.7780259
122	0x3f4da453	0.80328864
123	0xbf89fd90	-1.0780506
124	0x3f30604b	0.6889693
125	0xbfa0be76	-1.2558124
126	0x3f9f6047	1.2451257
127	0xbf502565	-0.8130706
128	0xbf85cd30	-1.0453243
129	0x3f48b7ef	0.7840566
130	0x3f42dd39	0.7611881
131	0x3f4c4902	0.797989
132	0xbdfa994a	-0.12236269
133	0xbce01ede	-0.027358469
134	0x3dce8d18	0.10085505
135	0x3e1aa401	0.15101625
136	0x3e64003b	0.22265713
137	0x3ce6a1f9	0.028153406
138	0xbd34d9bb	-0.044152956
139	0xbe0eb8f8	-0.13937747
140	0x3d9d64a3	0.076852106
141	0x3e349cb4	0.17637902
142	0xbe43062f	-0.19045328
143	0xbe843da7	-0.25828287
144	0xbe9f6e5b	-0.31138882
145	0x3debde73	0.11517038
146	0x3e0233c2	0.12715057
147	0x3e8231e5	0.25428692
148	0x3d1c5704	0.038168922
149	0x3defe45c	0.11713478
150	0xbe5d053e	-0.21584031
151	0x3dc35a47	0.095387034
152	0xbddff8a1	-0.10936094
153	0xbdc3f3c8	-0.09567982
154	0xbe006552	-0.1253865
155	0x3e0121fd	0.12610622
156	0xbdee55b6	-0.11637442
157	0x3e49ae90	0.19695497
158	0xbe3a9d27	-0.18224011
159	0xbd9ef8b1	-0.07762278
160	0x3d404342	0.046939142
161	0x3df396c0	0.11893988
162	0x3dccaa15	0.09993378
163	0x3e2ffc64	0.17186123
164	0xbe2ebf8c	-0.17065257
165	0x3e86c0c4	0.26318944
166	0x39d3255c	0.0004027289
167	0xbd81195f	-0.06303667
168	0xbfc4305f	-1.5327262
169	0xbf29c4b9	-0.663158
170	0x3f34c527	0.7061333
171	0xbf6afbf6	-0.9179071
172	0x3f19b963	0.600485
173	0xbf8bcf96	-1.0922725
174	0x3f85358e	1.0406969
175	0xbf30c5f8	-0.69052076
176	0xbf6a9ca9	-0.91645294
177	0x3f2dfff6	0.6796869
178	0x3f282df1	0.656951
179	0x3f3134d2	0.6922122
180	0xc01069e4	-2.256463
181	0xbf5d5b28	-0.8646722
182	0x3f632512	0.8872844
183	0xbf935eb4	-1.1513276
184	0x3f42c5b1	0.76082903
185	0xbfaaa338	-1.333106
186	0x3fa0fcac	1.2577109
187	0xbf501bc8	-0.8129239
188	0xbf9590dd	-1.1684834
189	0x3f57f9fb	0.84365815
190	0x3f436a74	0.7633431
191	0x3f6a87b9	0.91613346
192	0xc00e0365	-2.2189572
193	0xbf7434d3	-0.95393103
194	0x3f611ce5	0.87934715
195	0xbf983bec	-1.1893287
196	0x3f47df5b	0.7807519
197	0xbfb356da	-1.401088
198	0x3fb3ae83	1.4037632
199	0xbf5fd514	-0.87434506
200	0xbf952410	-1.165163
201	0x3f591f5a	0.84813464
202	0x3f5f5334	0.8723633
203	0x3f66487c	0.8995435
204	0xbe01de23	-0.12682395
205	0x3e18ac3b	0.1490945
206	0x3dcf0d03	0.10109904
207	0x3d016644	0.03159167
208	0x3e010f3d	0.12603469
209	0x3e8c210d	0.27368966
210	0x3e757d90	0.2397368
211	0x3eab2f4d	0.33434525
212	0xbe623382	-0.22089961
213	0x3d60f51b	0.05492125
214	0xbea55169	-0.32288674
215	0x3df4ce78	0.11953443
216	0xbd5850bf	-0.05281138
217	0xbd111840	-0.035423517
218	0x3c0a4549	0.00843937
219	0xbd8fdefc	-0.07024953
220	0x3d9cbea6	0.07653551
221	0xbe1e919a	-0.1548523
222	0x3e688343	0.22706322
223	0xbd5b30c1	-0.053513292
224	0xbc5bded9	-0.01341983
225	0x3cc8360d	0.024439836
226	0xbc32f66c	-0.010923009
227	0xbc08de91	-0.008353845
228	0xbe8edd3d	-0.27903166
229	0x3e7a6922	0.24454167
230	0xbe3670fb	-0.17816536
231	0xbeaedc90	-0.3415265
232	0xbe0227f9	-0.12710561
233	0x3e298e9a	0.16558304
234	0x3e7daccf	0.24772952
235	0x3ea72035	0.3264176
236	0x3e8efabe	0.27925676
237	0x3e4c4bb6	0.19950756
238	0xbe508fd0	-0.2036736
239	0x3e0afa0a	0.13571945
240	0xbce78882	-0.028263334
241	0x3e060055	0.13086064
242	0x3ba8ec8f	0.005155153
243	0x3c354bc0	0.0110654235
244	0xbc1ea88f	-0.009683742
245	0xbd051949	-0.032494817
246	0xbd1d6fde	-0.038436763
247	0x3c86e538	0.016466722
248	0x3df62de5	0.120204724
249	0x3cc86029	0.024459915
250	0xbd9612c0	-0.07327795
251	0x3cc0b0be	0.023521777
252	0xc0080723	-2.1254356
253	0xbf67f92c	-0.9061458
254	0x3f85369f	1.0407294
255	0xbfaaada6	-1.3334243

decoder.0.bias f4 [1568]
0	0xbe0a3295	-0.13495858
1	0x3f031925	0.5121024
2	0xbeccb591	-0.39982274
3	0xbe06e9dc	-0.13175148
4	0x3ed56517	0.41678688
5	0x3e1ed5e6	0.15511283
6	0xbbf4fb76	-0.0074762655
7	0xbe0553e5	-0.13020284
8	0x3e7aa657	0.24477516
9	0xbd4572d3	-0.048205208
10	0xbd050fbd	-0.032485712
11	0xbc3eee73	-0.01165353
12	0xbe691df7	-0.22765337
13	0x3c3ebdf5	0.011641969
14	0x3dcfd2c5	0.10147623
15	0x3de6b475	0.11264888
16	0xbea7cf46	-0.32775325
17	0xbe5067ed	-0.20352145
18	0x3d069fc9	0.032867227
19	0xbf002397	-0.50054306
20	0x3e8c965a	0.2745846
21	0xbe11a0c1	-0.14221479
22	0xbdc85230	-0.09781301
23	0x3e62d7c8	0.22152627
24	0xbdd092bc	-0.10184237
25	0x3d940280	0.07227039
26	0xbea81e69	-0.328357
27	0x3ee0bb2e	0.43892807
28	0x3f032fa1	0.5124455
29	0xbd2c9005	-0.042129535
30	0xbe6ad7e8	-0.22933924
31	0xbdec661b	-0.115429126
32	0xbe9aae24	-0.30210984
33	0x3e3dc46b	0.18531959
34	0xbd48d5e2	-0.0490321
35	0x3f498275	0.78714687
36	0xbd6461d2	-0.05575735
37	0xbe8ae070	-0.27124357
38	0xbe8b4d6e	-0.27207512
39	0x3d14cd93	0.036328863
40	0xbe627a10	-0.22116876
41	0x3d271189	0.040788207
42	0xbe8707b4	-0.26373065
43	0xbd439c9b	-0.047756772
44	0x3ea75a28	0.3268597
45	0x3d891562	0.066935316
46	0xbc1be363	-0.009514662
47	0xbdb54522	-0.08851077
48	0x3f1ceaec	0.6129596
49	0x3e99242f	0.29910418
50	0xbe27f0f1	-0.16400506
51	0xbee2d525	-0.4430324
52	0x3e5dd5b8	0.21663558
53	0xbea1b649	-0.31584385
54	0x3c7eb4d8	0.015546046
55	0x3e68c461	0.22731163
56	0x3e0ea72e	0.13930961
57	0x3e6fc075	0.2341326
58	0xbe8a5a3d	-0.2702197
59	0x3d1665c8	0.03671816
60	0x3defde88	0.11712366
61	0xbea884dc	-0.32913864
62	0x3e4374ba	0.19087496
63	0xbe1e9604	-0.15486914
64	0xbddcaaa3	-0.10774734
65	0xbe889288	-0.26674294
66	0x3ca8ba0e	0.02059653
67	0x3d53f202	0.05174447
68	0x3f0c3c30	0.5477934
69	0xbe3508b9	-0.17679109
70	0xbe43dea9	-0.19127907
71	0xbe8fda60	-0.28096294
72	0x3e83717c	0.2567252
73	0x3d761eb6	0.060087882
74	0x3d734dbc	0.059400305
75	0xbefc2eab	-0.49254355
76	0x3e9e6b7c	0.3094138
77	0x3e00455d	0.1252646
78	0xbdaa0b12	-0.08302893
79	0xbe80bf08	-0.25145745
80	0x3d4246db	0.047430854
81	0xbe2e07e1	-0.16995193
82	0xbeb8c2a3	-0.36085996
83	0x3d7745a8	0.060369164
84	0xbd7a7a17	-0.06115159
85	0xbdeb09a3	-0.114764474
86	0xbe448c87	-0.19194232
87	0x3d4c709a	0.049912073
88	0xbd936c21	-0.07198358
89	0xbd78812e	-0.06067007
90	0x3c967556	0.018366497
91	0xbd67bc1f	-0.05657589
92	0xbcd59d23	-0.026075905
93	0xbe868db7	-0.26279995
94	0xbe483900	-0.19552994
95	0xbe10a2f5	-0.14124663
96	0x3dc58053	0.096436165
97	0xbe0ad7e7	-0.13558923
98	0x3e5f35e0	0.21797895
99	0x3edf455c	0.43607605
100	0x3df6450d	0.12024889
101	0xbe61f5a8	-0.22066367
102	0x3e3d969d	0.18514486
103	0xbe8a8208	-0.2705233
104	0xbebf312f	-0.37342212
105	0x3e576bca	0.21037212
106	0xbe7a790a	-0.24460235
107	0x3e2fbddd	0.17162271
108	0x3e36783d	0.17819305
109	0xbd354a2a	-0.04426018
110	0xbe92319c	-0.28553474
111	0x3dc95dd0	0.098323464
112	0x3deefd71	0.11669434
113	0xbcec977f	-0.028880833
114	0x3d891182	0.066927925
115	0x3e89cf8c	0.26916158
116	0x3e355a78	0.17710292
117	0xbe457b51	-0.19285323
118	0x3d7631ab	0.06010596
119	0x3e26fcb8	0.16307342
120	0xbe8bbcb0	-0.27292395
121	0x3e1b7cde	0.15184352
122	0xbe8ca5f7	-0.2747037
123	0xbe942b98	-0.2893951
124	0xbd8dcefe	-0.06924246
125	0x3bd17083	0.0063915863
126	0x3e2e46b4	0.17019159
127	0xbcb54e7d	-0.022132153
128	0xbd4bf086	-0.049789928
129	0xbe087fcf	-0.13330005
130	0x3e097442	0.13423255
131	0x3cac7ac2	0.02105463
132	0x3e553b91	0.20823504
133	0xbde904d9	-0.11377878
134	0x3e1e2213	0.15442686
135	0x3df3a4ed	0.118966915
136	0xbe26c6e3	-0.16286807
137	0xbe5fcd77	-0.21855722
138	0xbd2b5acb	-0.041834634
139	0x3e9a1278	0.30092216
140	0x3dbd9097	0.09256094
141	0xbc3c24ef	-0.011483415
142	0x3ea4ed02	0.32212073
143	0xbe015594	-0.12630302
144	0x3ebd0a27	0.36921808
145	0x3dd90172	0.10595979
146	0x3d144ece	0.036207967
147	0x3ebd136e	0.36928886
148	0x3e3fde0d	0.1873705
149	0x3e14ad08	0.14519131
150	0x3e056ae0	0.13029051
151	0x3f055b80	0.5209274
152	0x3ec1674f	0.3777413
153	0x3e872646	0.26396388
154	0x3e2707d6	0.16311583
155	0xbe1c18b1	-0.15243794
156	0xbdddafe2	-0.108245626
157	0x3e46d24a	0.19416156
158	0x3cd60f77	0.026130421
159	0xbd171397	-0.036883917
160	0x3db47ec5	0.08813242
161	0x3e0a42dd	0.13502069
162	0xbe8f08d2	-0.27936417
163	0xbc8decb5	-0.017324785
164	0x3d936702	0.071973816
165	0x3dde35f9	0.10850138
166	0xbe4560ec	-0.19275254
167	0xbe82322f	-0.25428912
168	0xbe246d74	-0.16057378
169	0x3c64529e	0.013935713
170	0x3e258887	0.16165362
171	0x3e14eccc	0.14543456
172	0xbcad71b0	-0.021172374
173	0xbe5bd274	-0.21467
174	0xbda5116a	-0.08059962
175	0x3d7b5832	0.061363406
176	0xbea24cbc	-0.3169917
177	0xbe4d6ee5	-0.20061834
178	0xbdc53096	-0.09628408
179	0xbd01629b	-0.031588178
180	0xbe1a0651	-0.15041472
181	0x3e2f0a53	0.17093782
182	0x3ee0b802	0.43890387
183	0xbe2cfb5e	-0.16892764
184	0xbea580e3	-0.32324895
185	0xbe43d648	-0.1912471
186	0x3e38f1a6	0.18060932
187	0xbecb830d	-0.3974842
188	0x3d576c45	0.05259349
189	0x3f1709da	0.5899941
190	0x3ec88621	0.39164832
191	0xbc2dd6e9	-0.010610321
192	0x3e88f603	0.26750192
193	0x3e97a95d	0.296214
194	0xbe8f7b09	-0.28023556
195	0x3d991a57	0.07475727
196	0x3e6d9f47	0.2320529
197	0x3f13a14a	0.5766798
198	0xbd6820e3	-0.05667199
199	0xbe6cebf4	-0.23136884
200	0xbe49c9b8	-0.19705856
201	0x3e0037e1	0.12521316
202	0x3e26df2b	0.1629607
203	0xbd84fa3d	-0.06493042
204	0x3e756259	0.23963298
205	0xbd2e4011	-0.042541567
206	0xbe7524ab	-0.23939769
207	0xbdf82de0	-0.12118125
208	0x3e592e4a	0.21209064
209	0xbe1a201c	-0.15051311
210	0xbe12710b	-0.14300935
211	0xbe69bd79	-0.22826184
212	0xbe9b844a	-0.30374366
213	0x3e3afb80	0.18260002
214	0xbe3d24a4	-0.18471009
215	0x3db85b49	0.09001786
216	0xbd0ae037	-0.033905234
217	0x3f2a2c6d	0.6647404
218	0xbdcdfd01	-0.10058022
219	0xbdc01765	-0.09379462
220	0xbec8ac23	-0.3919383
221	0xbe8defd5	-0.2772204
222	0xbe49688d	-0.19668789
223	0xbd0da18f	-0.034577902
224	0x3e2435c9	0.16036142
225	0xbe59ace2	-0.21257356
226	0xbe362f3d	-0.17791457
227	0xbe6d9244	-0.23200327
228	0xbf2a6c4e	-0.6657151
229	0xbea59fe4	-0.3234855
230	0xbc9d456f	-0.019198148
231	0xbdbf6202	-0.093448654
232	0xbe5769ae	-0.21036407
233	0xbe3a16c2	-0.18172744
234	0x3e2b4b4d	0.16727944
235	0xbee910d4	-0.4552065
236	0xbe8d7ff6	-0.2763669
237	0x3dde5ae7	0.10857182
238	0xbd02e635	-0.031957824
239	0xbe9ccb69	-0.3062394
240	0x3e45a74e	0.19302103
241	0x3ea50138	0.32227492
242	0x3da5ba8e	0.08092223
243	0xbe9927dd	-0.29913226
244	0x3ee4d437	0.44693157
245	0xbd4bd4a0	-0.049763322
246	0xbc11cb42	-0.008898558
247	0x3e1b7f4b	0.15185277
248	0x3e50f831	0.20407178
249	0x3e7a34c8	0.24434197
250	0xbe72ff7a	-0.23730269
251	0xbe7fd880	-0.24984932
252	0xbe1a8958	-0.15091455
253	0x3da03700	0.078229904
254	0x3eaa7cf3	0.33298454
255	0xbe6d4a5e	-0.231729

decoder.3.weight f4 [32, 16, 3, 3]
0	0x3cd4d632	0.025981043
1	0xbe315c09	-0.17320265
2	0xbd91b254	-0.071140915
3	0x3de90297	0.11377447
4	0x3cf56c0a	0.029958744
5	0xba173025	-0.0005767367
6	0xbd8b12b7	-0.06790679
7	0xbf14e961	-0.5816861
8	0x3ca0fedc	0.019652776
9	0xbd0559b3	-0.032556247
10	0xbe254c65	-0.16142423
11	0xbce494c9	-0.027902978
12	0x3dce3d51	0.10070289
13	0xbe1d6ea2	-0.15374234
14	0xbe48e8d1	-0.19620062
15	0xbcffd28a	-0.031228323
16	0xbe58b396	-0.21162257
17	0xbd2be354	-0.041964844
18	0x3c4d4004	0.01252747
19	0x3d9903a7	0.074714
20	0xbb57ebb0	-0.0032946877
21	0x3d0808d9	0.033211563
22	0xb97e341f	-0.00024242744
23	0x3b46bfca	0.0030326718
24	0xbb8c6bfd	-0.004285334
25	0x3d96d957	0.07365673
26	0xbbfc02f3	-0.0076907813
27	0x3b902881	0.0043993597
28	0xbbeba49d	-0.0071912543
29	0x3b578a36	0.0032888777
30	0xbd98672e	-0.07441555
31	0xbc585b0e	-0.013205303
32	0xbec4f906	-0.3847124
33	0xbb9a20c1	-0.0047036116
34	0xbc3abd7f	-0.011397718
35	0xbbe1b275	-0.006887729
36	0xbd9b90d3	-0.075959824
37	0x3cbaaf3b	0.022788635
38	0x3d62eaa7	0.055399563
39	0x3dde9c63	0.10869672
40	0xbd12ffb6	-0.035888396
41	0xbe6077c4	-0.21920687
42	0xbda087ed	-0.07838426
43	0xbe88b989	-0.26704052
44	0x3d1217fc	0.035667405
45	0x3cc2e984	0.02379299
46	0x3b5fdea4	0.0034159804
47	0xbc0b7659	-0.008512103
48	0xbca7e87b	-0.020496598
49	0xbc33a5bb	-0.010964806
50	0xbd587b97	-0.05285224
51	0xbd13b7ff	-0.036064144
52	0xbb93c9f1	-0.0045101573
53	0xbc375ba3	-0.0111912815
54	0x3d762a94	0.0600992
55	0xbf029837	-0.5101351
56	0x3d121b58	0.03567061
57	0xbdc8844b	-0.09790858
58	0xbdf60260	-0.12012172
59	0x3daa5d1e	0.08318542
60	0x3e202472	0.15638903
61	0xbeb9f99e	-0.36323255
62	0x3c2eaebf	0.01066178
63	0xbd28e3ca	-0.04123286
64	0x3d885d3a	0.066584066
65	0x3d9f7fdc	0.07788059
66	0xbc6495bb	-0.013951714
67	0x3da9b771	0.08286942
68	0x3c817f05	0.015807638
69	0xbda5614b	-0.08075198
70	0x3dca7d60	0.09887195
71	0x3d6d5c44	0.05794932
72	0x3d1dc701	0.038519863
73	0x3d5ea8cb	0.054360192
74	0xbbaf74e2	-0.0053545097
75	0x3d8d240b	0.0689164
76	0xbb6afd79	-0.0035856648
77	0xbcde005a	-0.027099777
78	0x3c1b0d77	0.0094636595
79	0x3dd0b097	0.10189932
80	0xbd0a8ee9	-0.033827696
81	0xbd20d946	-0.039269708
82	0x3d4ec80f	0.05048376
83	0xbd1d9e8c	-0.03848128
84	0x3c3bd7a9	0.011464992
85	0x3e34ac9d	0.17643972
86	0xbdec0771	-0.11524857
87	0xbd3ed9c8	-0.04659441
88	0xbd832dac	-0.064051956
89	0xbd0ba1ee	-0.034089975
90	0x3e219cb4	0.15782434
91	0x3d0eca73	0.03486104
92	0xbea129fd	-0.31477347
93	0xbccb3b3c	-0.024808519
94	0x3d9022e4	0.07037905
95	0x3d094973	0.033517312
96	0x3e1b4da8	0.15166342
97	0x3dcb9b72	0.09941758
98	0xbe6ab777	-0.22921549
99	0xbd1cd2d9	-0.038287017
100	0x394acd9e	0.0001934082
101	0xbc72eb1a	-0.01482656
102	0x3db9976c	0.090620846
103	0xbe349d1b	-0.17638056
104	0xbed1c010	-0.40966845
105	0x3c203a99	0.009779596
106	0x3c849e9a	0.016188908
107	0xbc8f2f83	-0.01747871
108	0xbcea0f7e	-0.02857184
109	0xbe8d203f	-0.27563664
110	0xbcec9073	-0.028877473
111	0xbcc25b89	-0.023725288
112	0xbd92986f	-0.07157981
113	0xbc986439	-0.018602477
114	0x3c1221ce	0.0089191925
115	0xbe0caa7d	-0.13736911
116	0xbd10a358	-0.035312027
117	0xbd14bc93	-0.03631265
118	0xbe217309	-0.15766539
119	0xbe6a250e	-0.22865698
120	0x3d36c4d6	0.04462131
121	0xbef405ba	-0.4766062
122	0xbe54b4ac	-0.20772046
123	0xbc32dcbf	-0.010916888
124	0xbcd2fdf1	-0.025755854
125	0xbe445194	-0.19171745
126	0xbd94bada	-0.072622016
127	0xbb711ebb	-0.0036791998
128	0xbd67f068	-0.056625754
129	0x3ac7bb2b	0.0015238276
130	0xbc24b3ea	-0.0100526605
131	0xbadb1995	-0.0016715998
132	0xbdc394b3	-0.095498465
133	0xbbbfff75	-0.0058593103
134	0xbd200efc	-0.03907679
135	0xbcf17721	-0.02947575
136	0xbefc9837	-0.4933488
137	0xbd279e5c	-0.040922508
138	0x3cd3fa78	0.025876269
139	0xbca7d2a1	-0.020486178
140	0x3d49dcb0	0.04928273
141	0xbc94cb42	-0.018163327
142	0xbdb59783	-0.08866789
143	0x3b734fe6	0.003712648
144	0x3e35a29a	0.17737809
145	0xbd606031	-0.054779235
146	0xbd3e1b49	-0.04641274
147	0x3d50e3fc	0.050998673
148	0x3d09ce14	0.033643797
149	0x3d735f48	0.05941704
150	0xbc5691a1	-0.013096244
151	0x3e70882e	0.23489448
152	0xbd8f4321	-0.06995226
153	0xbd06937b	-0.032855492
154	0xbcad04cf	-0.021120457
155	0xbd220a2d	-0.039560486
156	0x3d5b3cd9	0.053524826
157	0xbcb92574	-0.022600867
158	0xbd5207b0	-0.051276863
159	0xbaae3bef	-0.0013293008
160	0x3cd109be	0.02551734
161	0xbcb10eda	-0.021613527
162	0xbd76743c	-0.060169443
163	0xbcd8400d	-0.02639773
164	0xba0cccca	-0.0005371092
165	0x3d51cb25	0.051219124
166	0xbd4cd357	-0.050006237
167	0x3b03d163	0.0020113818
168	0x3c19ce84	0.009387616
169	0x3dcdfe78	0.10058302
170	0xbc32e37e	-0.010918496
171	0xbd0b4716	-0.03400334
172	0xbad981fb	-0.0016594523
173	0xbd52f06f	-0.051498827
174	0xbdfda613	-0.12385192
175	0x3b802384	0.003910484
176	0xbaf204ac	-0.0018464527
177	0xbca0081f	-0.019535122
178	0xbb41aa8c	-0.0029551117
179	0xbc5c3583	-0.013440493
180	0xbe82374d	-0.25432816
181	0x39aff4d1	0.00033561004
182	0x3dae2cd0	0.08504641
183	0x3cb8015c	0.022461586
184	0x3bbb7645	0.005720886
185	0xbcd1408b	-0.025543472
186	0xbe23295d	-0.15933748
187	0xbda38d71	-0.07985962
188	0x3d2318c2	0.039818533
189	0x3b9654cb	0.004587745
190	0x3d4ec76f	0.050483163
191	0x3cf5ae86	0.029990446
192	0xbd5c3ba5	-0.05376782
193	0x3c6b45e3	0.014359924
194	0xbcc91631	-0.024546714
195	0x3c8451f2	0.016152356
196	0xb9fb585e	-0.0004794029
197	0xbcad33dd	-0.021142894
198	0x3ddb4390	0.10706246
199	0xbda1d427	-0.07901793
200	0x3ca9ef49	0.020743983
201	0xbd2fc2ee	-0.04291051
202	0x3dbd2ffd	0.09237669
203	0xbd519148	-0.05116394
204	0xbdbb3c47	-0.09142356
205	0x3e9c3482	0.3050881
206	0xb99b2e9c	-0.0002959863
207	0xbd824416	-0.063606426
208	0xbd4b3b9d	-0.0496174
209	0x3c80c625	0.015719483
210	0xbab16f8e	-0.0013537274
211	0xbd9a8cce	-0.075463876
212	0x3ceacb37	0.028661354
213	0x3d17bcdb	0.03704534
214	0x3d1693df	0.036762115
215	0xbb68c98c	-0.0035520522
216	0xbbfdf2e3	-0.0077499016
217	0x3c6a368f	0.014295234
218	0xbcaed495	-0.021341601
219	0x3d5fe6c7	0.054663446
220	0x3c4119ea	0.011785964
221	0x3d1158e4	0.035485163
222	0x3ca0ea5a	0.019642998
223	0x3e09989f	0.13437127
224	0x3c9cc166	0.019135188
225	0xbd0094f6	-0.03139206
226	0x3df62d39	0.12020344
227	0xbdde43ec	-0.10852799
228	0xbd983b1b	-0.074331485
229	0x3e03300e	0.128113
230	0xbd5c0571	-0.053716127
231	0xbd32c89e	-0.043648355
232	0xbd121459	-0.035663936
233	0xbd994d86	-0.074854895
234	0x3e35a27c	0.17737764
235	0xbc3a49c6	-0.011370128
236	0xbd73503c	-0.05940269
237	0x3a51478c	0.00079833786
238	0x3d9d777f	0.07688808
239	0x3c8f2005	0.017471323
240	0xbba2440f	-0.004951961
241	0x3d8e716d	0.06955228
242	0xbd51fd5c	-0.051267013
243	0xbd521ad3	-0.051295113
244	0xbd855b5c	-0.06511566
245	0xbd4d9eaf	-0.05020016
246	0xbe18340d	-0.14863606
247	0xbdb4b347	-0.08823257
248	0x3d8d3ac3	0.068959735
249	0x3c32cf40	0.01091367
250	0xbd950252	-0.07275833
251	0xbd3c8755	-0.0460275
252	0xbc0d2a97	-0.008616111
253	0xbbc09bfd	-0.0058779703
254	0xbd36a5f1	-0.044591848
255	0xbca5a0f7	-0.020218356

decoder.3.bias f4 [16]
0	0xbd7f2ab9	-0.062296603
1	0x3ea3689b	0.31915745
2	0x3e839cc9	0.25705555
3	0xbe80ebbc	-0.2517985
4	0x3ea91d4a	0.33030158
5	0x3f0d1627	0.55111927
6	0x3f1f6041	0.62256247
7	0x3efd909d	0.49524394
8	0x3f0d6bc8	0.55242586
9	0x3ec570de	0.38562673
10	0xbeb64b8c	-0.35604513
11	0x3e159be7	0.14610253
12	0x3c1a37c0	0.009412706
13	0xbd133b19	-0.03594503
14	0xbdb498dd	-0.08818219
15	0x3ede4ef5	0.43419614

decoder.5.weight f4 [16, 1, 3, 3]
0	0xbe70575a	-0.23470822
1	0xbedf65fe	-0.436325
2	0xbe887107	-0.26648733
3	0xbeed9cca	-0.46408683
4	0xbf1d2e35	-0.6139863
5	0xbe8f4b2c	-0.2798704
6	0xbeae9d6c	-0.34104478
7	0xbec11c9a	-0.37717134
8	0xbe014c04	-0.12626654
9	0xbd160f37	-0.036635604
10	0x3e32132b	0.17390124
11	0x3e814371	0.25246766
12	0x3e4e877f	0.20168875
13	0x3f27e717	0.6558699
14	0x3f1c7333	0.6111328
15	0x3e72e1b0	0.23718905
16	0x3f1820c4	0.59424996
17	0x3efbed20	0.4920435
18	0xbdd79e37	-0.10528224
19	0xbe63826f	-0.22217725
20	0xbe460541	-0.19337942
21	0xbdfb6c24	-0.122764856
22	0x3e2f9821	0.17147876
23	0x3e4341e6	0.19068107
24	0xbe48fde2	-0.19628099
25	0xbdd168c7	-0.10225063
26	0xbcc79255	-0.024361769
27	0x3e9f7b9c	0.31148994
28	0x3f1fffa1	0.62499434
29	0x3eec6fbb	0.46178994
30	0x3d33d32e	0.04390257
31	0xbcfdc0bf	-0.030975698
32	0xbd765bd0	-0.060146153
33	0xbe216a56	-0.1576322
34	0xbeb3436a	-0.3501237
35	0xbe86a87c	-0.26300418
36	0x3ec5f396	0.38662404
37	0x3f349344	0.7053721
38	0x3ec60808	0.38678002
39	0x3f3125d6	0.6919836
40	0x3f824d42	1.0179827
41	0x3edb40c8	0.42822862
42	0x3ec5daf0	0.386436
43	0x3edd2400	0.43191528
44	0x3d9a6693	0.07539096
45	0xbcb1fd99	-0.02172737
46	0xbe59409a	-0.2121605
47	0xbe0629f1	-0.13101937
48	0xbd22f5ce	-0.0397852
49	0xbf0d9639	-0.55307347
50	0xbe6daccb	-0.23210447
51	0xbe23e7a4	-0.16006333
52	0xbf05e6c1	-0.5230523
53	0xbe6af3fd	-0.22944637
54	0xbd814f89	-0.06313998
55	0xbe39d211	-0.1814654
56	0xbe65d7cd	-0.22445603
57	0xbe257b95	-0.16160424
58	0xbede54e6	-0.43424147
59	0xbefc4545	-0.49271598
60	0xbdf859dd	-0.12126515
61	0xbea06e57	-0.31334183
62	0xbea94727	-0.33062097
63	0x3ca1449b	0.019686034
64	0x3d89c55e	0.06727098
65	0x3da293d1	0.0793835
66	0xbd576bd4	-0.052593067
67	0xbeba9d19	-0.3644798
68	0xbe8940fe	-0.26807398
69	0xbc928b8e	-0.01788881
70	0xbe979924	-0.29609025
71	0xbe72aa3b	-0.2369775
72	0xbd821121	-0.06350923
73	0xbe3010ff	-0.17193983
74	0xbe014334	-0.12623292
75	0xbd9d1382	-0.076697364
76	0xbec59c11	-0.38595632
77	0xbead6e7f	-0.33873364
78	0x3d4cd7d8	0.050010532
79	0xbcc51ea1	-0.024062457
80	0xbd1e97ac	-0.038718864
81	0x3ebe140e	0.37124676
82	0x3f1310eb	0.5744769
83	0x3e9b8f2b	0.30382666
84	0x3f228c1e	0.6349505
85	0x3f5b8332	0.85747063
86	0x3eb5b48d	0.35489312
87	0x3eb68f29	0.35656098
88	0x3e8c52d1	0.27406934
89	0xbc40ffa7	-0.011779702
90	0x3e53edf5	0.20696242
91	0x3ed322cb	0.41237482
92	0x3e7fe695	0.24990304
93	0x3ec806af	0.390676
94	0x3f1a79ec	0.6034229
95	0x3e9661fc	0.2937163
96	0x3e78caaf	0.24296068
97	0x3e9b8c78	0.30380607
98	0x3db08424	0.08618954
99	0x3e041e91	0.12902285
100	0x3e8d6fc5	0.27624336
101	0x3e4d6072	0.20056322
102	0x3eb4dde8	0.3532555
103	0x3f0e18e4	0.5550673
104	0x3eac2078	0.33618522
105	0x3e93a1c6	0.2883436
106	0x3ec90cac	0.3926748
107	0x3e449443	0.19197182
108	0xbe2fa6c2	-0.17153457
109	0xbb026692	-0.0019897562
110	0x3ec72635	0.38896337
111	0xbf066071	-0.5249091
112	0xbca3dd6b	-0.020003041
113	0x3f15cb89	0.58513695
114	0xbed3a34f	-0.41335532
115	0xbc937c75	-0.018003682
116	0x3eb05804	0.3444215
117	0xbea11400	-0.3146057
118	0xbf1074dc	-0.56428313
119	0xbecd00e8	-0.40039754
120	0xbf09b423	-0.5379049
121	0xbf4cbb74	-0.7997353
122	0xbeefc8f1	-0.46832994
123	0xbeb98e76	-0.36241502
124	0xbed0aca3	-0.4075671
125	0xbe0ac385	-0.13551147
126	0xbe969de5	-0.2941734
127	0xbea6447a	-0.32474118
128	0x3e1cf4ea	0.15327802
129	0xbf34d63b	-0.7063939
130	0xbed0ecfa	-0.408058
131	0x3eed87f2	0.4639278
132	0xbefc149d	-0.49234477
133	0xbdf084d7	-0.11744087
134	0x3edf7c2c	0.43649423
135	0x3d1fe375	0.03903528
136	0xbcfff2aa	-0.03124364
137	0xbdd3c446	-0.103401706
138	0xbd1e98d1	-0.038719956
139	0xbe96b967	-0.29438326
140	0xbec9260d	-0.39286843
141	0xbc541382	-0.012944104
142	0xbe3deabc	-0.18546575
143	0xbe86f4cd	-0.26358643
