models/model_b3.pt (torch, 199311 bytes, 11 tensors)

encoder.0.weight f4 [16, 1, 3, 3]
00000000: a24f 393e 1f16 2bbe c6d8 5b3e 1404 c1bd
00000010: 12a9 843d ec8a 8a3e 6b7c ae3e ae6c 7a3d
00000020: 162e 443e 7c82 f7be c666 993e fe71 583e
00000030: 0571 4ebd 089b 983e 5150 9f3d c9fa 0b3e
00000040: 2a32 dd3d e43e 66be faac 11be d708 67be
00000050: 38b5 af3e 1aed 82be ea23 10be f394 a13e
00000060: 358d 19be 9d63 f2bd 77f3 693e 591d 00be
00000070: 45f1 83be 881e 2a3c b7fb 04bd d4d4 d2be
00000080: a437 1dbc 4562 b23d f5a0 343e 479c c53e
00000090: 45ea c23b 82e9 183e 23f9 e8bc dddd 9b3e
000000a0: 61b5 313e 0af2 a83d 8835 a13d b4ba ffbd
000000b0: 3bb1 6cbe 7b51 763e 5078 a33d 4514 d4bd
000000c0: 5077 57be eb77 78be 2d0e 38bd 9ebf 6f3e
000000d0: d24b 123e 6e01 93be 79be 7c3d f013 bc3d
000000e0: e342 b3bd b936 c8bd ab74 433e d5d8 933e
000000f0: ac4c 2ebe 5935 023e 2879 e13d 5a77 8dbe
00000100: a054 cebe 21bb 0cbe e899 403d 9d80 a03e
00000110: bf27 b03e 0358 5ebc 2585 363e 99b8 10bd
00000120: 5346 143e 28aa 263e 41af 04bd f79b 6c3d
00000130: a118 0a3e 2549 28be efb2 f93c 1021 a23e
00000140: 9d28 1d3e 018c 833c dcd4 a43e 8b7e cdbe
00000150: 672f 69bd f407 953e 781a 51be 3cae 87bd
00000160: f1d1 4f3e 88b9 34be 4c7e 853e 6713 b63e
00000170: b61b 6c3e 8f55 3dbe 4ceb d23d e1b5 3a3e
00000180: 4f83 75bd 16a9 9bbe 5399 3ebe 04d3 02be
00000190: d8ba a93b 0ac8 43be 769a 213e cec2 cb3d
000001a0: 80aa 0a3e 56fe 1ebe 5a52 33be 1b90 893e
000001b0: 8dee ebbd 7b51 723e 4e15 16be cbde 95bc
000001c0: 6fcd 86be a971 cbbd 9bb8 9fbe 6c97 263e
000001d0: 08ea 0cbe b3b6 12be 207c 143e 6bf5 1c3e
000001e0: 888a 65bd 6c70 c43d 72e1 44be 54ea 89be
000001f0: 1679 593e d66e 903e ab61 96bd 2e71 8fbe
00000200: e59c debc 93df 503e cfd3 973e 2d69 8cbd
00000210: 0743 8abe 9798 ec3b dc87 143e 10c0 403e
00000220: 288e cbbd e8d9 39be 25ec b03e 3a9d 34bd
00000230: f86c 3fbe bcd0 6cbd 4329 cebd 0bf5 babd
0.18096784 -0.16707657 0.21469411 -0.09424606 0.0647756 0.27059114 0.34079298 0.0611388
0.19158205 -0.4834174 0.29961222 0.21137235 -0.050400753 0.2980578 0.07778991 0.13669886
0.10800584 -0.22484928 -0.14226142 -0.22561966 0.34317946 -0.2557152 -0.140762 0.31558952
-0.14995272 -0.11835406 0.2284678 -0.12511195 -0.25770012 0.010383256 -0.032466616 -0.41178
-0.009595785 0.0871015 0.17639525 0.38595793 0.0059483373 0.14932826 -0.02843911 0.30442706
0.17354347 0.0824929 0.078715384 -0.12486783 -0.23114483 0.2405452 0.07981932 -0.103554286
-0.21041608 -0.24264495 -0.044935394 0.2341294 0.14286736 -0.28712028 0.061705086 0.0918349
-0.08752992 -0.097760625 0.19087474 0.28876367 -0.17021435 0.12715663 0.11009437 -0.2763012
-0.4029894 -0.13743259 0.047021776 0.31348124 0.34405324 -0.013570788 0.17824228 -0.035332296
0.14479952 0.16275847 -0.032393698 0.057765927 0.13485958 -0.16434152 0.03048083 0.3166585
0.15347524 0.01605797 0.3219365 -0.40135607 -0.056929972 0.2910763 -0.20420253 -0.066250294
0.2029493 -0.176489 0.2607292 0.35561678 0.23057446 -0.1848967 0.102987856 0.18233444
-0.05993968 -0.3040244 -0.18613176 -0.12775809 0.005179744 -0.19119278 0.15781578 0.099492654
0.13541603 -0.15526709 -0.17511883 0.26867756 -0.11520109 0.23663895 -0.14656565 -0.018294713
-0.26328608 -0.09933788 -0.3119553 0.162687 -0.13761151 -0.14327507 0.14500475 0.15327995
-0.056040317 0.09591755 -0.19226626 -0.2693659 0.21237597 0.2820956 -0.073428474 -0.28016037
-0.027174423 0.20397787 0.29653785 -0.06855998 -0.27004263 0.0072203386 0.14504951 0.18823266
-0.099392235 -0.18149531 0.34555164 -0.044095255 -0.18693912 -0.057816252 -0.10066464 -0.091287695

encoder.0.bias f4 [16]
00000000: 79cb 633d 1b49 a1bb 1785 07be 9aaa 10be
00000010: ded7 843e 3e40 533e 6de8 443e 6525 26bb
00000020: 9943 2e3e 40c7 ccbd d97d c83e 610a 973e
00000030: ddde 85bd 6b0e 603e 0483 8c3e caf1 5abe
0.05561397 -0.004922045 -0.13234363 -0.1412758 0.25945944 0.20629975 0.19229288 -0.0025351879
0.17017974 -0.099989414 0.39158514 0.29500106 -0.065366484 0.218805 0.27443707 -0.21381298

encoder.2.weight f4 [32, 16, 3, 3]
00000000: ea04 943d 26db 693c 7880 73be de89 a13d
00000010: e097 fdbd 6ac3 47bd 8e07 18bd 3084 cf3d
00000020: 4360 a73d 5fe4 063b 0b1a 6bbe 9350 6cbe
00000030: 7ecc c8bb 6b20 b9bd 0daa a8bd 0898 1c3e
00000040: 015a 843d bc5b 333d 31fb f4bc cf09 293c
00000050: 6782 bdbc def5 dd3d 0069 6a3c bfa2 61be
00000060: 2f52 3f3d 1bc1 e13d a7eb adbe d32d 91bd
00000070: 3d9e 0bbc 511a 77bd e434 fc3d c5e4 d83d
00000080: a030 433d b92a 773e 5cdd e03d 7c9a 0b3d
00000090: a615 a23d 5708 15be d6e4 15be b1b5 6ebe
000000a0: 867a 02be bfe8 e5bd e555 873c b491 1b3d
000000b0: 1425 cd3d ddd1 a2bd 99fa 8f3d 6021 49bb
000000c0: 68f1 cbbc 7e43 053d 187c 9b3c 14ca 9dbd
000000d0: 470d 1bbd 9d51 8b3d 84fc 003e 96d4 1e3c
000000e0: ba34 5cbe 8774 7e3d e78b a0bd 94b0 00be
000000f0: 47bb 1e3d c022 a43d cd5a 2bbd 8caa cebc
00000100: 6f7b 2dbe 62a5 98be 1628 47be d256 86be
00000110: 139a d7bd 0a3a 933c 096c 603e 16e2 d73d
00000120: 3a5a ce3d 4de5 4ebd 0973 c8bc 5897 90bd
00000130: 5436 04bd f096 9dbd 7935 57bd d433 eabc
00000140: 72d4 9abd e238 3a3b f643 09be 94fc f6bc
00000150: 1b8c 823a f4c5 8cb9 efa2 2ebc fe86 8cbd
00000160: cf90 8b3d 47fc f73d 2ebc 3f3d 9e52 4bbe
00000170: 5407 adbd 2843 e7bc b935 d0bd f69e 85bd
00000180: 143a 98bd 5240 123c 569d 8e3d aa1a afbc
00000190: 207c 9b3d e5d6 f73c 47b8 993d cd7b 76bd
000001a0: 0632 573d e743 6b3d 0f5d d3bc a8b0 adbb
000001b0: 57a3 b53c 74b0 d33d 160d 9e3d ace4 ad3d
000001c0: 4610 823c 1987 073d 7fdd 133c 1aca 98bb
000001d0: 7a52 713d b669 86bc c637 a7bd 7db0 f7bd
000001e0: cb07 253e 1200 3b3d 6200 e23a 932a 1c3d
000001f0: ef46 163e 4df1 99bc 4a42 9b3d ad7f 8b3d
00000200: d833 ab3d 168b 753c c858 2d3d 52d4 12bd
00000210: 5ed4 e8bc 0b71 063d 1822 6a3d 047b 203d
00000220: cfba aabc 6288 013e 7766 35be 4c10 a6bd
00000230: 1997 ce3d fb3d adbe a233 813d b571 e33d
00000240: d383 60be 6c8a 943c 3bb2 ddbd 87b6 df3d
00000250: ba61 433e d58e 283d 10d1 913d 1fa4 fe3d
00000260: b082 f73d 77f9 51bc 052d 2cbe 61b8 543d
00000270: c50c b83d adbe b43b 5fff 3d3d 9c87 da3d
00000280: 0ef9 df3d 6d41 383d ac6d 3e3e 178c d43c
00000290: d613 a23d a2da 3a3d 0702 f4bb 69a3 533d
000002a0: c35e c4bd 3e43 4cbe 0927 81bd fec4 efbd
000002b0: 7523 d6bb 092d 53be b58b 9ebd ca24 633d
000002c0: 15cd 73bd a48c 083d 8e97 4abd d659 17bd
000002d0: b6ef 10be 07b3 423d 97c3 b0bd 5b52 f9bd
000002e0: 0c2f cb3c 5876 97bc 0c01 493e 6e91 143e
000002f0: 5953 053e 1378 813d 5469 923d d6e8 f0bc
00000300: 7f03 2f3d 151f a0bc a0c2 733b 613d 083c
00000310: 1a0d 0fbc 1722 ca3c 78c4 583d 94f5 93bd
00000320: f9ff cf3d b1b8 0f3e 2d31 a2bc ea9e 853b
00000330: cfd1 d1bd 9f5e b63d 4b89 473d 8829 a0bc
00000340: 0b48 46bc 665b 01be 315e 23be e85d fabd
00000350: 55f5 833c 3eeb 89bd 65a8 af3c 6f0c fbbc
00000360: 80e9 a8bd 4ba4 173e 64b1 c6bb 735b 083d
00000370: 3e1d 8d3e 1c52 a23d be97 673d f100 0abc
00000380: 7275 993d 4b6e 1c3e 292d b23d ff84 9d3d
00000390: 6478 57be b5c7 303e 4b06 523d 6695 18be
000003a0: f409 f4bd cb85 5abd 9456 23bb ec28 773d
000003b0: bde4 a73d 8c85 a4bd 1720 05be 882d 9fbd
000003c0: bc44 09bd 77f9 423c 7450 9dbc 1a15 a03d
000003d0: 85b4 4e3c 3268 cc3c 2e5f 3abd cc22 ec3c
000003e0: 6802 7f3c 920c 03bd 863e c73c 94a9 6cbb
000003f0: 192f 44bc e91c 293d 4bd1 92bd b2a2 84bc
0.072275 0.01427344 -0.23779476 0.07887624 -0.123824835 -0.048770346 -0.03711658 0.10132635
0.08172657 0.0020582897 -0.22959153 -0.23077612 -0.006127893 -0.09039386 -0.082355596 0.1529237
0.064624794 0.043788657 -0.029904934 0.01031728 -0.02313347 0.10837911 0.0143072605 -0.22034739
0.046709236 0.1102316 -0.3396885 -0.070888184 -0.008521614 -0.06032783 0.123147756 0.10590509
0.047653794 0.24137391 0.10979721 0.034082875 0.07914285 -0.14553963 -0.14638075 -0.23311497
-0.12742051 -0.112260334 0.01652045 0.03798075 0.10016838 -0.079501845 0.070302196 -0.003069006
-0.024895385 0.03253507 0.018980071 -0.07704559 -0.03785446 0.06802676 0.12596327 0.009694239
-0.21504489 0.062122848 -0.07839184 -0.12567359 0.03875282 0.080144405 -0.04183464 -0.025227807
-0.16941617 -0.29813677 -0.19448885 -0.26238114 -0.10527434 0.017972011 0.21916212 0.10541169
0.10075803 -0.050511647 -0.024468916 -0.070601165 -0.032278374 -0.07694805 -0.05254123 -0.028589167
-0.07560052 0.0028415252 -0.13404831 -0.030149736 0.0009959968 -0.00026850367 -0.010658964 -0.06861685
0.068147294 0.12108665 0.04681032 -0.19855735 -0.08448663 -0.028230265 -0.10166497 -0.0652446
-0.074329525 0.008926468 0.06963603 -0.02137502 0.07592034 0.030253837 0.07505851 -0.06017666
0.05253794 0.057437804 -0.02580121 -0.0053006 0.022172613 0.1033639 0.0771734 0.08490881
0.0158769 0.033087824 0.009024977 -0.0046627643 0.058916546 -0.016407829 -0.08164935 -0.12094209
0.16116254 0.045654364 0.0017242546 0.03812654 0.14675497 -0.018791819 0.07581003 0.068114616
0.08359498 0.014986774 0.042320997 -0.035847016 -0.028421577 0.03282265 0.05716142 0.039179817
-0.02084103 0.12649682 -0.17714868 -0.08108577 0.10087413 -0.3383635 0.06308676 0.11105672
-0.21925287 0.018132411 -0.108250104 0.10923486 0.19080248 0.04115184 0.07119954 0.12433647
0.120854735 -0.012815825 -0.16814049 0.05193365 0.089868106 0.0055158944 0.04638612 0.10670397
0.10936175 0.04498427 0.18596524 0.025945706 0.0791394 0.04561866 -0.0074465307 0.051669512
-0.09588387 -0.19947526 -0.063062735 -0.11707495 -0.0065349885 -0.20622648 -0.07741491 0.055455007
-0.059521753 0.03333725 -0.04946094 -0.03695091 -0.14153942 0.047534015 -0.08631056 -0.12173911
0.024802707 -0.018489048 0.19629306 0.14508602 0.13020076 0.063217305 0.07148996 -0.0294079
0.042727944 -0.019546071 0.0037194863 0.008315415 -0.008731151 0.024674458 0.052921742 -0.07224575
0.10156245 0.14035298 -0.01979884 0.004077782 -0.10245096 0.08904766 0.048714917 -0.019551054
-0.012102137 -0.12632522 -0.159539 -0.122249424 0.016108194 -0.06734322 0.021442601 -0.030645577
-0.082476616 0.14808767 -0.006063627 0.033290338 0.27561373 0.07925817 0.056541197 -0.008423076
0.07493104 0.15276448 0.0870002 0.076913826 -0.21042019 0.17263682 0.051275533 -0.14900741
-0.11915961 -0.05335025 -0.002492343 0.06034176 0.08197925 -0.080332845 -0.13000523 -0.07772356
-0.033512816 0.011900297 -0.019203402 0.07816525 0.012616281 0.024952028 -0.045500927 0.028825186
0.015564539 -0.03199441 0.024321806 -0.0036111819 -0.01197412 0.041287336 -0.07168826 -0.01619086

encoder.2.bias f4 [32]
00000000: 7fb8 6bbd 32a4 a33d 0ff9 353c 7cbd 9abd
00000010: 2c95 64ba 2c3a b93d ff23 8a3d ed39 32bd
00000020: 92ca 123d 0369 1d3d b085 74bd 3c14 ad3d
00000030: c3de 0cbd fde6 523d 02e4 963c 52f2 043d
00000040: f700 973d 4450 5abd e728 fabc 1590 0db9
00000050: 054e 48bc eee4 8cbc 68a2 a63c abc9 8abd
00000060: 6d54 903d debe cebc 88e4 cfbd e9c5 e13d
00000070: db11 5e3d 92c7 8e3b 3fa4 713d 39bc 14bd
-0.057548996 0.07990302 0.0111067435 -0.075556725 -0.0008719738 0.090442985 0.06745147 -0.043512274
0.035837717 0.038430225 -0.059697807 0.08451125 -0.03439213 0.05148982 0.01841927 0.032457657
0.07373231 -0.053299204 -0.030537082 -0.00013500483 -0.012225633 -0.017199006 0.020341113 -0.06776746
0.07047353 -0.025237497 -0.10151011 0.110240765 0.054216247 0.0043572867 0.058994528 -0.036312316

encoder.5.weight f4 [12, 1568]
00000000: 155a 443b c85f 743c eff3 bb3c 0357 41bd
00000010: dd16 093e 5bf6 99bd e361 013d 20fe 03bd
00000020: 20d7 d2bc 3799 fd3b 5e60 5bbd cb56 abbd
00000030: 92ee c1bc ddc7 00bd 44bf 9fbc 45e8 90bd
00000040: 1326 87bd 6213 d4bd 6011 4f3b 487e 81be
00000050: ebb2 07bd 56c3 e7bb 1bd2 373b 8b09 ab3d
00000060: 5127 98bd b189 0c3e 329e d43e 519c 25bd
00000070: 1428 44bd 6a34 493c 701c 2ebe d2b2 67bd
00000080: 4876 78bd 83a7 5fbd 2cd5 48bd fcd2 e4bc
00000090: 27ee 50bc 8ca4 b6bd a169 203e 1859 dc3b
000000a0: a92c 293c 222a 0abd 5a3b 2bbd 3434 a8bd
000000b0: 4ca6 80bd 75b2 59bc 0a42 5d3b d590 24bd
000000c0: b0c1 15bd 6454 35bb d3d4 9cbc c103 2abc
000000d0: f879 ed3c 4bb2 0ebc ac5b 673c 14ae 093c
000000e0: 7662 36bc 17a6 14bc 8d66 03bc 9474 59bd
000000f0: b65e 1f3d 1bc5 5c3c ff91 b1bb b7f5 45bc
00000100: 0f5e 1bb9 cf48 063d 7ec6 85bc 0ec8 d73d
00000110: 4386 bd3c ad9d 083d 66de 963c 9f5b 5ebc
00000120: 11bd bdbc 9a83 68bd 18e0 35be 4c2f 76bc
00000130: d9e4 a33c aab7 f43c 8f4b 46bd cb31 ca3b
00000140: 5cbb 96bd c86c 1a3d e4cc a3bd 8514 3bbd
00000150: 80ac 1f3c 30c1 d73c 551f d93c 5496 b33d
00000160: 8032 613c d453 e63d a2dd 70bd 5228 bf3c
00000170: e092 8fbd 66d9 7cbd 2682 29bb 198e 45bc
00000180: 07a9 d13a 1036 84bc a892 f8bb 3a6b 22bd
00000190: f82c 97bc 5d41 13bd 2538 2cbd 4b7e 31bd
000001a0: 3f08 5bbd c7f5 5cbc 245f 0abd c8aa 5bbd
000001b0: 7db2 86bc 1094 9fbd 1516 07be 88c6 953c
000001c0: e9ef c8bb e3bf 123b ff3e 12bc 5eeb 6bbd
000001d0: d189 11be b245 9a3d d643 9bbc 5c67 cdbc
000001e0: d89f eabc 40d4 bebd 9d0a 77be 013c 8abe
000001f0: 12f6 3e3d c682 3fbd 589a be3c c451 34bd
00000200: f5da cdbd d37f 83bd c198 493e dd1f debc
00000210: bea6 3fba 8788 b9ba ac2c a3bd f768 a8bd
00000220: 7e83 24be 05d6 bcbc a31a 0ebd c8f4 e8bc
00000230: c9dc 8a3c dd48 e73a 579f bb3c 0d12 50bd
00000240: 9558 0bbd 20ae ddbb 5efd 67bc 3e09 b6bc
00000250: 6f4c 8a3d 49b8 473d eba0 423d 7e06 d73d
00000260: 964b 3b3d f71a 893d fa2d debc a0b0 07bd
00000270: ced8 07be ca69 92bd e971 233d aed8 c0bd
00000280: b127 bd3d 048b 1dbd f3b3 0f3e 396e 4b3c
00000290: eaba a8bd 4d4e 453c 3302 d83d 40fa 74bd
000002a0: bc72 053d 2485 5dbd ce85 ddbc bce0 a83d
000002b0: 24cc d7bd 768e 84be 66e7 dcbb 546e 6abc
000002c0: 0ee3 e33b d43c 943c 4c9d f3bd 11c3 26bd
000002d0: b27d f0bb 2dbb 41bc b90f 26bd 75c7 fe3c
000002e0: 5214 c6bc ef5d 0a3d 83e3 0d3c 63e8 69bd
000002f0: ec25 4dbb 081f 6e3c 33db 063e c011 263d
00000300: 94b9 9f3d 9a46 61bc e3c4 933d 82fb bfbc
00000310: 045b 67bd c4cf 66bc 82ad f0b9 8770 00bd
00000320: 356c 493e 53c5 f7bc 7883 5abc a07a 85bc
00000330: 4054 863d dbac 0e3e abe5 803d c7e9 16bd
00000340: 6f36 473d 23f5 afbd 8560 db3c 65f6 8e3b
00000350: 1c67 57bd 80d9 adbd 545f bc3e 9d77 84be
00000360: ce41 91bc ee02 09bd 709f 20be 07f8 a43d
00000370: 692e 763d d336 68bd 35a3 2cbd 5ba1 b9bd
00000380: 486d e13d 5c51 27bd f6ad 823d 73d8 093e
00000390: 7ca1 9c3e 4136 0c3e f02b 143e dd41 be3d
000003a0: 901c 8d3c e7b2 11bc 2e04 ba3c 4995 d1bd
000003b0: 0ff7 e73c 28d5 60bc dbcf 043d 78da 49bd
000003c0: 1ac0 8a3d ab22 093d 7a12 8abe f843 94bd
000003d0: c212 6ebd f8d1 693c e5a8 70bc bccb 2dbd
000003e0: dc40 6e3d 070d 84bc 2092 b63c 1739 03bc
000003f0: 2e3f 0cbd ff8f f3bc 4c46 36bd c143 bdbd
0.002996092 0.014915414 0.022943465 -0.04720212 0.13387628 -0.07517692 0.031587493 -0.032224774
-0.025737345 0.007739212 -0.0535587 -0.08366164 -0.02367333 -0.031440604 -0.019500382 -0.07075552
-0.06599059 -0.103552595 0.003159605 -0.25291657 -0.033129614 -0.0070728464 0.0028048817 0.083514296
-0.07429374 0.137244 0.41526943 -0.040432278 -0.047889784 0.012280563 -0.17003036 -0.05656702
-0.060659677 -0.05460311 -0.04903142 -0.027932636 -0.012752092 -0.089181036 0.15665294 0.006724488
0.010325589 -0.033731587 -0.04180465 -0.08213082 -0.062817186 -0.013287176 0.0033761286 -0.040177185
-0.036561668 -0.002766871 -0.019144451 -0.010376872 0.028988823 -0.008709501 0.014120977 0.00840332
-0.011131873 -0.009072802 -0.0080200555 -0.053089693 0.038908683 0.013474728 -0.0054190154 -0.012082509
-0.00014816991 0.03278428 -0.01633 0.10536204 0.02313531 0.033353496 0.018416595 -0.013571649
-0.023161443 -0.05676613 -0.17761266 -0.015025925 0.020006584 0.029872734 -0.048411902 0.0061704866
-0.07359955 0.037701398 -0.07998064 -0.045673866 0.009745717 0.026337236 0.026504198 0.08768907
0.01374495 0.11246458 -0.058805116 0.023334656 -0.07010436 -0.061730765 -0.0025864928 -0.0120578045
0.0015995809 -0.01613906 -0.007585842 -0.03965304 -0.01845406 -0.035951007 -0.04204573 -0.043333333
-0.05347466 -0.013486332 -0.03378214 -0.053629667 -0.016442532 -0.077919126 -0.13192017 0.018283144
-0.006132115 0.0022392205 -0.008926152 -0.05759751 -0.14212729 0.075328246 -0.018953245 -0.0250737
-0.028640673 -0.09317827 -0.24125142 -0.26998904 0.04662139 -0.046755575 0.023266956 -0.04402329
-0.10051528 -0.06420865 0.19687177 -0.027114803 -0.00073109183 -0.0014155068 -0.07967505 -0.082231455
-0.16065785 -0.023051271 -0.03469337 -0.028437033 0.016950982 0.0017645616 0.022903128 -0.050798465
-0.034020025 -0.006765142 -0.014159529 -0.022221204 0.0675286 0.048759732 0.047516745 0.10499285
0.04572638 0.06694596 -0.027121533 -0.033127427 -0.13266298 -0.07149084 0.039903555 -0.09416328
0.09236086 -0.038462654 0.14033489 0.012416416 -0.08238776 0.012042594 0.105472945 -0.05980897
0.032580122 -0.05408205 -0.027041342 0.0824599 -0.105369836 -0.2588994 -0.006741452 -0.014308531
0.0069545573 0.018095411 -0.118952364 -0.040713374 -0.007339203 -0.011824411 -0.040542338 0.031100968
-0.024179611 0.03378099 0.0086602 -0.057106387 -0.003130312 0.014533766 0.13169555 0.04054427
0.07799068 -0.013749743 0.072152875 -0.023435358 -0.056483284 -0.014087621 -0.0004590564 -0.031357314
0.19670184 -0.030245459 -0.013337009 -0.016293824 0.06559038 0.13933127 0.06293806 -0.03684404
0.048635896 -0.08591678 0.026779423 0.0043628686 -0.052588567 -0.084887505 0.3679148 -0.25872508
-0.017731573 -0.03345006 -0.1568582 0.0805512 0.060102854 -0.05669291 -0.042147834 -0.09063979
0.11007172 -0.040849075 0.06380837 0.13461475 0.30591953 0.13692571 0.14469886 0.09289906
0.017225534 -0.008892751 0.022707071 -0.10233552 0.028316049 -0.013722695 0.03242479 -0.049280614
0.06774922 0.033480328 -0.26967221 -0.072395265 -0.058123358 0.014271252 -0.014688705 -0.042430624
0.058167323 -0.016119493 0.022286475 -0.008009217 -0.03423994 -0.029731749 -0.044500634 -0.09241439

encoder.5.bias f4 [12]
00000000: 6af2 c3bc 361a 133d d754 a13c b179 143d
00000010: fcf7 843c 326c 34bd b798 4e3d 8c48 34bd
00000020: 4c7d 14bd da61 303d db70 f73c ba5b 31bd
-0.023919303 0.03591367 0.019693775 0.036248866 0.01623153 -0.044048496 0.05043861 -0.0440145
-0.036252305 0.04306207 0.03020518 -0.043300368

decoder.0.weight f4 [1568, 12]
00000000: 3195 563d 7522 42bc c8b8 523d 5bbf 1bbd
00000010: 1c43 70bd 3dcd 8bbd 47fb bc3c 22e6 7ebc
00000020: 078a 623b 9f66 473d 675c 903d bfec c0bd
00000030: 385d d93d b887 eb3d c819 10bc c333 103e
00000040: cb78 dabc fe65 2c3d c97a f9bc 4c7c 50be
00000050: 9dda 5bbd 5de0 023d f12c 113e 16c5 17be
00000060: cf16 3240 9012 8fbe 47ea bdbf add0 abbf
00000070: 5e0a 1abf 30f2 4c3f 433e 06c0 da6c 343f
00000080: 796f 5b3e a3a5 20be e8a3 ebbf d555 9cbe
00000090: 37c5 4240 d476 a9be da58 cabf 5596 bfbf
000000a0: dc23 2ebf b2a3 803f a9d7 0ac0 fee8 4d3f
000000b0: 77e6 803e d19a 793b 79b7 e5bf 41c4 2abe
000000c0: 0abd 3bbd 20f5 cabd 5287 cabb 0f3a 743e
000000d0: 3b49 3d3d af96 dcbb 7905 113e fe13 63be
000000e0: 7009 0c39 10bc 863e 0252 3cbd 68cd 66be
000000f0: fd7c 3040 abdc a8be 8121 b7bf 9ae7 b4bf
00000100: 0edd 1fbf 7313 583f a457 00c0 174a 453f
00000110: 25ab 5f3e 2884 78bd 9652 d7bf 0a35 42be
00000120: b9fd 1f40 91f4 92be ab90 a5bf 40f0 9fbf
00000130: b2b0 0cbf 6cbf 393f 65fd efbf 015e 2f3f
00000140: 49f1 313e 94c3 edbd 446a cabf ce5f 72be
00000150: 485e edbd b9a9 4fbe 5850 08bb 2cd3 19bd
00000160: ab05 f03c 0f82 7bbd 0721 b1bc 1f01 fe3d
00000170: 927c bdbd 864f 183e f00b 31be 4443 0b3e
00000180: b86a fc39 23b7 243d a157 cabc 720a ad3d
00000190: 5ecd 74bd 7e9f 383c f242 083d 25ab 0ebe
000001a0: 44b9 bc3d 4ec4 d2bd cac6 a5bd aa2c 0a3d
000001b0: ca1e 22be cc03 653e 7bb9 bebd 4ff1 7e3e
000001c0: 419a 23be 6e15 e4bd 4ad3 67bd dd3d 33be
000001d0: 9502 733d fffe b83c a4dd f8b9 39c0 e5bd
000001e0: e0aa 2040 a391 a4be 77c6 a8bf b8f2 93bf
000001f0: 8f0a 11bf 1e3c 573f a33f fabf 7ce0 2f3f
00000200: 5466 543e cf6b e33b cc1b d5bf ce0e 5ebe
00000210: 63b0 30be 5b56 e23b 0b4b 01be 7748 0b3e
00000220: 9c45 2dbe 9d3a 373e 3676 f4bd 5bd3 a8be
00000230: 690f f5bd e986 463e b72b e33d 2ba8 17be
00000240: e820 b73d d208 b9bc a6eb a2bd f05f 0dbc
00000250: ec09 7fbe 2782 3cbc e606 febd 30fe dbbe
00000260: 3287 ed3d 5dc8 1a3e c01e 523e bf20 2e3e
00000270: 3ceb 3d40 2aac cbbe 8c59 c5bf 8832 c1bf
00000280: f7d9 2cbf a211 663f a573 08c0 e888 623f
00000290: 2f6e 7c3e 28e1 94bc 45e1 ecbf 81c5 5abe
000002a0: 40c4 f7bc 9341 a63b 40eb 96bc eb0c 743d
000002b0: 99bd cfbc fef5 b53d efa9 b03d 2bf7 7f3e
000002c0: f66e 083e 1f42 453e 75dd 38bd 78bb 7c3e
000002d0: 6163 2840 54ab a9be fc11 b0bf 326d b0bf
000002e0: 71d6 07bf e2b0 3f3f 491a f2bf 387e 2d3f
000002f0: 3f55 263e 52a8 b1bd 63cb cfbf 68d9 2dbe
00000300: 9fe4 55bd 34aa 473e c8d1 52be e73a 933e
00000310: 6a3a 4ebb 7fdd 27be 3195 503d 697f 303d
00000320: 7c00 89bd 9952 04bd a4b0 16bd 37d2 1c3d
00000330: 64fa 6bbe 0d2d c83e ad5d d4bd 6a02 ad3e
00000340: fcf6 1a3d b420 7ebd 1829 61be 5287 21be
00000350: 73bd afbe 1f15 18be f5e3 79be 9101 b03e
00000360: 2e12 aebe 4376 afbc add4 3fbe c7d1 763e
00000370: a6c9 8a3d 7108 8d3e 1fc5 afbe 5e0a 4c3d
00000380: 9726 26bf 5113 6abe 2180 b1bd e611 073d
00000390: 41d6 bd3f 98ba 5dbe 1769 54bf ab76 04bf
000003a0: b6eb edbe 3770 133f 476f 98bf a195 0a3f
000003b0: a29a 793e 3083 4cbd b064 8fbf 90c2 6abe
000003c0: c5f0 213d 0b33 e73d feab 013e 96cb 5e3e
000003d0: d955 3f3e f5b4 4bbd 4393 f8bc ec6c 31be
000003e0: ef60 64be c079 8ebc 0a05 bcbd 7e81 babe
000003f0: f982 1a40 9d54 a0be 5907 a7bf 7d36 94bf
0.052388374 -0.0118490355 0.051445752 -0.038024288 -0.05865775 -0.068262555 0.023069037 -0.015557798
0.0034567134 0.04868185 0.07048874 -0.09420156 0.10613483 0.11500496 -0.008795209 0.14082246
-0.026668927 0.042089455 -0.030454056 -0.20359915 -0.053675283 0.03195225 0.141773 -0.14821276
2.7826421 -0.2794385 -1.4837121 -1.3423058 -0.6017207 0.8005705 -2.0975502 0.70478594
0.21429242 -0.15688185 -1.8409395 -0.30534235 3.043287 -0.3309847 -1.5808365 -1.4967753
-0.6802347 1.0049956 -2.1694129 0.8043364 0.2517583 0.0038086663 -1.7946616 -0.16676427
-0.04583458 -0.09910035 -0.006180682 0.23850273 0.046212416 -0.00673183 0.14162244 -0.22175595
0.00013354956 0.26315355 -0.045976646 -0.22539294 2.7576287 -0.32980856 -1.43071 -1.4133179
-0.6244668 0.8440468 -2.0053492 0.7706618 0.2184263 -0.06067291 -1.6822078 -0.18965545
2.499861 -0.28702214 -1.2934774 -1.2495193 -0.54957116 0.7255771 -1.8749205 0.68502814
0.17377199 -0.11609569 -1.581368 -0.23669359 -0.11590248 -0.20279588 -0.0020799842 -0.037554905
0.029299578 -0.06140333 -0.021622194 0.124025576 -0.092522755 0.14874086 -0.1728971 0.13599879
0.00048144697 0.040213715 -0.024699988 0.08449258 -0.059766166 0.011268495 0.03326697 -0.13932474
0.09215024 -0.102913484 -0.08094557 0.033734 -0.15832058 0.2236473 -0.09312721 0.2489674
-0.15976812 -0.111369 -0.056597985 -0.17504068 0.059328634 0.02258253 -0.0004746738 -0.11218304
2.5104294 -0.32142362 -1.3185567 -1.1558447 -0.56656736 0.84076107 -1.955067 0.6870191
0.2074216 0.006940342 -1.6649108 -0.21685335 -0.17254786 0.006907267 -0.12626283 0.13601862
-0.16921085 0.17893453 -0.119366094 -0.3297375 -0.1196583 0.19387402 0.11092322 -0.14810245
0.08941823 -0.022587214 -0.079551026 -0.00862883 -0.24906129 -0.01150564 -0.124036595 -0.42967367
0.11598052 0.15115495 0.20519543 0.17004679 2.9674826 -0.39779788 -1.5417953 -1.5093546
-0.6752009 0.89870656 -2.1320584 0.8849015 0.24651407 -0.01817377 -1.8506247 -0.21364404
-0.030244946 0.005073735 -0.018422723 0.059582632 -0.025358962 0.0888481 0.08626162 0.24996631
0.13323578 0.19263504 -0.045133073 0.24680889 2.6310656 -0.33138525 -1.3755488 -1.3783324
-0.53061587 0.74879277 -1.8914272 0.6777072 0.16243456 -0.08674683 -1.6233944 -0.16977465
-0.052219983 0.19498521 -0.20587838 0.28755876 -0.0031467923 -0.16393088 0.05092353 0.043090258
-0.066895455 -0.032305334 -0.03678955 0.038286414 -0.23044735 0.3909687 -0.1036943 0.33790904
0.0378332 -0.062042907 -0.21988332 -0.15774277 -0.34324226 -0.14851807 -0.24403365 0.34376195
-0.33998245 -0.021418696 -0.18733473 0.24103461 0.06776743 0.27545503 -0.3433008 0.049814574
-0.64902633 -0.22858931 -0.08667017 0.032976054 1.483101 -0.21653211 -0.82972854 -0.5174357
-0.46468896 0.575931 -1.1908959 0.54134566 0.24375394 -0.049929798 -1.1202602 -0.22925782
0.039536256 0.112890325 0.12663266 0.2175735 0.18685092 -0.04973312 -0.030343657 -0.17326707
-0.22302602 -0.01739204 -0.091806486 -0.3642692 2.414244 -0.31314555 -1.3049117 -1.1579129

decoder.0.bias f4 [1568]
00000000: c731 133f a720 d03e 46ad 05bf 34a1 f5be
00000010: a268 033f e6a4 d1bd afd6 e3be d0af 923d
00000020: 14d1 ab3e 1f56 e0bd de5e bdbe 3ed1 1c3e
00000030: 98e4 0b3e 1175 06bf 698e 8cbd 094f 37be
00000040: b74f 6bbd 2ea1 a2be bc41 203e e456 adbe
00000050: f474 dfbe 14e9 bdbe d844 c13d ea6a 143e
00000060: 4e95 b2be 61c5 f8bd d565 49be 43b1 3cbe
00000070: 86e4 163f 8c36 9cbe 6412 3bbd 8ff1 8d3e
00000080: 0b10 83be 48ae 7f3e cfd2 07be c7b5 86be
00000090: 6a59 263d bcbf e6be 8ee0 8abe a8f3 5a3d
000000a0: 2403 78be 6290 95be 5bc5 db3e 8477 933e
000000b0: c38f e83d e97b bebe f205 f93d e989 e13d
000000c0: 53b9 85be 55d1 033f b116 96be 9ca7 0f3f
000000d0: 7123 66be b159 123f 05fe 193e 4b1b debd
000000e0: 3db0 2abe bdda 343f 6309 8c3e 4711 133e
000000f0: 78be a53e 006c b03d 54b1 133e e1f0 213e
00000100: bdd6 aabe 0890 5bbe f491 aebe 80d2 823d
00000110: f1b0 1bbe 1c49 e53e 1c1f 32be ec4e 6a3e
00000120: ad47 e93c 247d a03e f054 d4be 9f1b 7ebd
00000130: 3edf 903d de8f 443f 1729 9bbe 9eac 2b3e
00000140: 1dfc 4b3e 25dd 43bd 3fd0 84be 7f53 fd3e
00000150: 1cdf e8be 235e eebd db86 0e3e b949 db3e
00000160: 5715 e5bd e934 843d fe5a 9d3d 3fa7 463e
00000170: c23c e53e a607 a83d 030a a4be aa0d efbe
00000180: 76bd cf3e 6cdb 48bb dac3 7f3e b357 b03e
00000190: a9f5 85be 6e73 c13e 85a8 043e 5653 b53e
000001a0: fdeb 543e 3a2d 8bbd cbee 42be 88f2 5ebe
000001b0: 2de5 8f3d de06 a8be b9d4 153d 20d1 813e
000001c0: 4888 e03e bfb3 183e d2b2 12be d77b 54be
000001d0: 8e76 4abd a47e 493e a12a b23d e18e 7ebc
000001e0: 56af 96bd d2bc 0c3d cca7 7c3d f990 723e
000001f0: 121d 7d3d 8e7b 223e c1f2 9c3e 174c 343e
00000200: 78a5 21be e0cc 18bd 6ee6 1e3e 6dcd 8ebc
00000210: a300 413e 2298 fcbe 6a21 883e 5d0f af3c
00000220: 90ab 92be 7638 a5be 8c56 7f3e d4ee 313e
00000230: e3aa ee3d 8f4b 2dbe 742f 91bd 8935 9f3d
00000240: 70e7 28be 422e 50be 9145 02bf 040f 173f
00000250: 699e d83d a32f dfbe 107b 3a3e f51f d3be
00000260: fab0 8f3e 3105 e13e c9a5 7d3e df19 283e
00000270: 9c4c b7be 0884 0e3e 4b4c 923e 0879 92be
00000280: 2829 64be c4a7 613e 9acf 04be 63cb bfbe
00000290: 3d91 20be 89c9 cabe 5c53 c73d 916a 6b3e
000002a0: 07f5 973e f0ca ebbd cb36 453e 193f babd
000002b0: bedf 243e a665 003e 5c61 95be a594 b83e
000002c0: 4a17 0c3d 4e71 afbe 4718 8ebe 2aa3 67bd
000002d0: 3c79 af3e 9e57 11bd 71c7 71be 0986 cdbe
000002e0: 6f88 5e3e e6fa 1dbf 5466 ddbe 8d29 6fbe
000002f0: b224 183e 6386 263f 8751 653e 5fb0 0cbf
00000300: 63d0 9c3e 24e5 233d 3c43 28be d35a 233f
00000310: ff58 903d 2d59 6d3e 866e e0be 69e3 e43d
00000320: a6f2 593e 7d84 e9be ff44 a93e 357d a2be
00000330: f5df b63d 288e adbe 2be7 9a3d 4f18 0b3e
00000340: 9fc1 d93c b954 06be 2125 183f 6632 933d
00000350: c6d5 a3be e6cc e7bd 292f 70bd f9bb 29be
00000360: 1c9b 6b3e 8c39 0e3e 03bd 3e3e bd4e 83bd
00000370: cc41 00be 455e 46be 7465 21be b3ca c6be
00000380: 024e 96bd 6834 123e 23a6 c93e fc22 f9bd
00000390: 8c15 84be 28ce 7d3d 06a0 0cbf e6e6 e13a
000003a0: afe1 7ebe 30e6 703e 1e18 3d3e 2e3f cfbe
000003b0: 8113 92be 1610 753e 6bd8 1c3c 427e f03d
000003c0: 7ba7 0fbe a836 823e 97f6 763d 5a99 04be
000003d0: 6a1c 533e 3cea 533c 7b5d 2c3e 6d61 ea3e
000003e0: cdc1 433c b5ba bebe d45f 9bbe f98b 013f
000003f0: 95bb 8a3e 36d8 3a3e c3dd 1ebe 51cb 75be
0.5749783 0.40649912 -0.5221752 -0.4797455 0.5133153 -0.1023653 -0.44499728 0.0716244
0.3355795 -0.10953926 -0.3698644 0.15314195 0.1366142 -0.5252238 -0.068631 -0.17901243
-0.05744907 -0.31763595 0.15650076 -0.33855355 -0.43643916 -0.37091887 0.09436959 0.1449391
-0.34879535 -0.12147022 -0.19667752 -0.18426995 0.5894245 -0.30510366 -0.045671836 0.27723357
-0.25598177 0.24968827 -0.13264011 -0.2631056 0.040612616 -0.45068157 -0.27124447 0.053455025
-0.24219948 -0.29211718 0.42924008 0.2880212 0.11355545 -0.3720391 0.12159337 0.110126324
-0.26117954 0.5149129 -0.29314187 0.56115127 -0.22474457 0.5716811 0.15038307 -0.108450495
-0.16668792 0.7064627 0.27350911 0.1436206 0.3237188 0.08614349 0.14423114 0.15814544
-0.33366957 -0.21441662 -0.34095728 0.06387806 -0.15204217 0.4478234 -0.1739468 0.22881669
0.02847656 0.31345475 -0.41471052 -0.06203806 0.0707383 0.76782024 -0.30304787 0.16765067
0.19920392 -0.04781832 -0.2594013 0.49477765 -0.4548272 -0.11639049 0.13918631 0.42829683
-0.11185711 0.06455404 0.07683371 0.19399737 0.44772917 0.08204584 -0.32038888 -0.46690112
0.40574235 -0.0030648364 0.24977055 0.3444191 -0.26163986 0.37783378 0.1295491 0.35415143
0.20793147 -0.06795736 -0.19036405 -0.21772206 0.07026134 -0.3281774 0.03657982 0.25354862
0.43853974 0.14912318 -0.14326027 -0.20750366 -0.04942947 0.19677216 0.08699537 -0.015536995
-0.073576614 0.03435976 0.06168346 0.23688115 0.0617953 0.15867445 0.30653957 0.17607151
-0.15785778 -0.03730476 0.1551759 -0.017431939 0.18847899 -0.49334818 0.26587993 0.02136963
-0.28646517 -0.3226964 0.24935359 0.17376262 0.11653688 -0.16923355 -0.07089129 0.07773883
-0.16494536 -0.20330146 -0.508874 0.5900729 0.10577089 -0.4359103 0.18211007 -0.4123532
0.2806471 0.43949273 0.24770273 0.16416119 -0.35800636 0.13917553 0.28573832 -0.28607965
-0.22281325 0.22036654 -0.12969819 -0.3745986 -0.15680404 -0.39606884 0.097326964 0.2298987
0.2967913 -0.11513317 0.19259183 -0.09094066 0.16100976 0.12538776 -0.29175842 0.36050907
0.034201898 -0.34266132 -0.27752897 -0.05655209 0.34272182 -0.03548395 -0.23611237 -0.40141323
0.21731733 -0.61710966 -0.43242133 -0.23355694 0.14857748 0.6504881 0.22394381 -0.5495662
0.30627736 0.040013447 -0.16431898 0.6381046 0.07048225 0.23178549 -0.43834323 0.111761875
0.2128397 -0.45608893 0.33060452 -0.3173615 0.08929435 -0.3389752 0.07563623 0.13583492
0.026581584 -0.13118257 0.59431654 0.07187347 -0.31999034 -0.11318378 -0.058638725 -0.16575612
0.23008388 0.1388914 0.1862679 -0.064115025 -0.125251 -0.19371898 -0.15761358 -0.38826522
-0.073390976 0.14277804 0.39384565 -0.12164876 -0.2579769 0.061964184 -0.54931676 0.0017234951
-0.24890779 0.2352531 0.18466231 -0.4047789 -0.28530505 0.23931918 0.009573082 0.11742832
-0.14028732 0.25432324 0.06029376 -0.12949124 0.20616308 0.012934264 0.16832535 0.45777455
0.011948061 -0.3725182 -0.3034655 0.50604206 0.2709624 0.1824654 -0.15514283 -0.2400334

decoder.3.weight f4 [32, 16, 3, 3]
00000000: 2256 4e3d 3cb8 e0bb d701 82be 270a 72be
00000010: 1f63 9abe ec50 3ebe e95f 2a3d f616 2abc
00000020: cbe2 ddbd 1902 38be 990e 74bd 86c4 e4bd
00000030: ab9e 65be a268 62bd 6272 bfbd b131 20bd
00000040: d546 8cbc 236c 3e3c a259 de3b 254e 43bd
00000050: ffc4 69bc 4530 18be e9d0 b0be 2e3d 16be
00000060: 4bc1 9c3c ddc4 7d3d c10a d5bc 62b4 903b
00000070: 2c99 a2bc 4ceb 033c 617a 8cbd 4496 2f3d
00000080: 25dc 8a3d 2e40 1fbd 1563 b2bc 3049 67bc
00000090: 43ce 153a b12b c4bd e31b 40bd c762 cbbb
000000a0: 23f6 98be 4a0d a5bc febe 0fbd 57ed 9a3d
000000b0: 3d6d 07bd 6138 413a be9a 3ebd 4443 5ebe
000000c0: 13fe be3b db82 07bd 8d96 1cbd fa2f 8bbd
000000d0: 61a3 0fbd 9ce4 8fbd ccee 07bc 6260 86be
000000e0: 6513 28bc 0427 b63a 102a edbc 28e5 20bc
000000f0: eaf3 a2bc 2ddc 99bd 615d cf3b a574 56bd
00000100: b91b 01bd 6306 9f3c e2cf 533d 2826 f3bc
00000110: ebab a73d 7b98 9b3b b299 2b3d 4c5f a33c
00000120: b6e4 033c 85ab 543c e0d3 8a3c 4d29 95bd
00000130: aa38 e53c 14d4 0a3b 6911 de3a 2311 33bb
00000140: 7c8f 8dbc a46f 93bd 9b61 24bd d80b 6e3c
00000150: f36d e7bd c43c c2be 5de8 243d 2cbf c93c
00000160: 213e 943c 2a2e 91bc d494 23bc 7807 013c
00000170: c295 41bd 388c a2bd ba07 9e3d a8bc 46be
00000180: fc59 18bd 3f35 02bd d8d6 b7bc 0d9a d53c
00000190: 95f3 c4bc 7d0d c9bc da80 13bc 4107 4fbe
000001a0: 0952 a7bc a42d 7cbc f8b1 b2bc 3bf7 66bc
000001b0: a3c9 8d3d b957 863a 6c00 af3c 7c9b 453d
000001c0: 5647 b4bc 1656 c2be 9262 01bd 9b52 86bc
000001d0: 7df5 a9bc ea02 77bd c971 6abe 1949 0dbe
000001e0: 5b73 0dbe 893f efbb a2a1 15be a348 ddbc
000001f0: a916 a9bd 343b 1cbd c270 c53c 0fee 56bd
00000200: b55d b1bc df5e ccbc be4c 283b c207 6ebe
00000210: eda3 ec3c 7ac7 443d ec27 003d c6ea 69be
00000220: fb38 953d cbd3 41ba d467 19bd 9a05 acbc
00000230: c6bd adbd 8f74 363d 3899 f7bc 2bb5 973c
00000240: 83d8 be3b ab3f 9fbc 74bf 39bc 7584 31be
00000250: e1d6 14bd b852 023e e69e d63c 0537 b6bc
00000260: 84c7 a73c aa52 e9bc cc3e 0d3e d8a1 3d3e
00000270: 8921 7f3d 04dd b73d 68f5 5a3e 38af 7c3d
00000280: bee8 c13c c82d 783d fc7d 08bd c02c 8bbc
00000290: 0ff6 d4bc cabe e5bc 46ad d33c 11a5 073e
000002a0: e48f 57bd 1fda 4dbd 4ffc 2bbc beb2 cfbc
000002b0: 1ad8 4cbd 86a2 0fbd dcb6 7fbb d48e 973b
000002c0: 5937 763c dd5e fabc c2e5 0ebd c6ef 22bd
000002d0: c5f4 87bd cc92 14be d183 93bd 30df 503b
000002e0: 1a33 16bd 7c57 f4bc 505a c5bd 7f19 61bd
000002f0: 51d8 98bd e96d 87bc a043 acbd dc04 833d
00000300: 2ec3 5dbc b69c 48bd 6e12 8bbc d043 4cbc
00000310: 97ac 16bd a88d e33b 1157 05bc 85f9 33bd
00000320: 4152 ccba f90c 19bd afef 67bd 69e7 cbbc
00000330: fd7e 15bd 6076 e03d 59b7 edbc c5e6 03bd
00000340: 4829 3f3d 6adb a5b9 0a8c c73d 6717 003d
00000350: ad08 d73d 706a 0b3d 5b10 323d e670 ee3c
00000360: ee36 e23b b875 433c 24db 1a3d 3925 7dbd
00000370: 39a1 2d3d 2a43 2a3c 0bf5 1c3d 43fc 5a3d
00000380: 5a6b bc3c 10e6 0cbd 78ce 1bbb 6b9b 0b3c
00000390: b31f 3ebd 12d6 72be d60d 0abb b514 9e3d
000003a0: b023 4dbc 89fc 37bc 93e9 50bd 80f1 b1bd
000003b0: 8d8a dd3c c654 bebc 9191 ab3d dbe5 83bd
000003c0: 1a2d adbd aaa3 81bd 091d 00b9 4651 0ebd
000003d0: e725 adbd f37f 30bd fcc6 49bd 54ea 0c3e
000003e0: 5852 fabc 916f b7bc 4e3a 90bd 869d 0fbd
000003f0: 45bd 113d bc35 ab3c 72f4 643c 3d74 073d
0.05037511 -0.0068579 -0.2539203 -0.23636685 -0.30153748 -0.18585557 0.041595373 -0.010381451
-0.10834273 -0.1796955 -0.059584234 -0.11170296 -0.22423808 -0.055275567 -0.09347989 -0.03910989
-0.01712362 0.0116224615 0.0067855874 -0.047681946 -0.014268159 -0.14862163 -0.34534386 -0.14671776
0.019135138 0.06195532 -0.026006104 0.0044160346 -0.019848429 0.008051705 -0.068592794 0.042867914
0.067802705 -0.038879566 -0.021775762 -0.01411657 0.00057146343 -0.09578646 -0.046901595 -0.0062068435
-0.29875287 -0.020147938 -0.035094254 0.075648 -0.033063162 0.0007370767 -0.046534292 -0.21705347
0.005828628 -0.033083778 -0.038229514 -0.0679626 -0.03506792 -0.07026026 -0.00829668 -0.2624541
-0.01025853 0.0013897126 -0.028950721 -0.00982026 -0.019891698 -0.07512698 0.0063282703 -0.052357335
-0.03152058 0.019412225 0.051711924 -0.02968128 0.081870876 0.0047484017 0.041894622 0.019942902
0.008050134 0.012980347 0.016946733 -0.07283268 0.027981121 0.0021183537 0.0016942444 -0.0027323447
-0.017280333 -0.07199028 -0.040132146 0.014529191 -0.11300268 -0.37936985 0.04026066 0.02462729
0.018096032 -0.017722208 -0.009984214 0.007875316 -0.04726196 -0.07936901 0.077163175 -0.19407904
-0.03719519 -0.03178906 -0.022441313 0.026074434 -0.02404193 -0.024542565 -0.009002889 -0.20217611
-0.02042486 -0.015391741 -0.021813378 -0.01409703 0.06923225 0.0010249532 0.021362506 0.048243985
-0.022006672 -0.37956303 -0.031588145 -0.016396811 -0.02074694 -0.060305513 -0.22894968 -0.13797416
-0.13813536 -0.007301275 -0.1461244 -0.027012175 -0.08256275 -0.038142398 0.024101619 -0.052473124
-0.021651128 -0.024947582 0.0025680508 -0.23245147 0.02888676 0.0480418 0.031288072 -0.22843465
0.07286259 -0.00073939253 -0.037452534 -0.020998765 -0.08483462 0.044544753 -0.030224428 0.018519005
0.00582415 -0.019439539 -0.01133715 -0.17335685 -0.036337737 0.12726867 0.026198816 -0.022243032
0.020480879 -0.0284818 0.13793486 0.1851877 0.06228784 0.08977702 0.21382678 0.06169054
0.02367055 0.060590535 -0.033323273 -0.016989112 -0.025996236 -0.028045077 0.02583946 0.13246562
-0.05262746 -0.050256845 -0.010497167 -0.025353786 -0.050010778 -0.035067104 -0.0039018905 0.0046251807
0.015027844 -0.030562812 -0.034887083 -0.039779447 -0.06638483 -0.14509124 -0.07202876 0.0031871311
-0.036669828 -0.029826872 -0.09636366 -0.054955956 -0.07463134 -0.016531901 -0.08411336 0.06397411
-0.013535304 -0.048977576 -0.016976561 -0.01246734 -0.03678569 0.006944377 -0.008138434 -0.043939132
-0.0015588478 -0.037365887 -0.056625064 -0.024890618 -0.03649806 0.10960078 -0.029018091 -0.0322025
0.04667023 -0.0003163473 0.09743507 0.03127232 0.10499702 0.034037054 0.04347263 0.029106569
0.006903521 0.011929922 0.037806645 -0.061803076 0.042390082 0.01039199 0.03831963 0.05346323
0.023000408 -0.034399092 -0.0023774188 0.008520941 -0.04641695 -0.23714474 -0.0021065376 0.07718793
-0.012520716 -0.011229643 -0.051004004 -0.086886406 0.027043605 -0.023233783 0.08377374 -0.06440326
-0.08455868 -0.063300446 -0.00012217848 -0.034745477 -0.08454495 -0.043090772 -0.049262032 0.13761264
-0.030556843 -0.022392066 -0.07042371 -0.035062335 0.035580892 0.020899646 0.013974296 0.033069838

decoder.3.bias f4 [16]
00000000: bf70 05be 8ac9 bd3d 6cff 3c3d e5f4 d53d
00000010: f20a 923b b7df fc3e 5878 c53d d436 de3e
00000020: 1bfc 173f c153 993e 8a0b cb3e 5b4d 873e
00000030: 0641 5d3e 1e4d 263e 1c4f b53e 16af c03e
-0.1303129 0.09266956 0.046142027 0.104471005 0.004456871 0.4938943 0.096420944 0.43401206
0.5936906 0.29946712 0.3965724 0.26426205 0.21606836 0.16240355 0.35411918 0.3763358

decoder.5.weight f4 [16, 1, 3, 3]
00000000: be90 0fbf aace dcbe 11f7 783b 72aa 35bf
00000010: 7bae d9be d0db f43d 94ec b3be cbc8 53bd
00000020: 1530 543e 8e96 39bd 9ea3 873e bcfd a03e
00000030: 645f 913e fcbb 793f fb9f 493f a2f5 873e
00000040: d2cc 393f fe80 023f 3944 463f e37c 413f
00000050: 024e 233e 749a 283f ae26 d33e 3130 48be
00000060: 02ee 573d 44fe 86be c715 a2be 02ba b1be
00000070: 4b82 13bf c72c a9be 18a8 0fbf 2bef 48bf
00000080: 760c a1be 841c b5be 4851 b2be ee77 17bc
00000090: 2bc6 2b3d d30e 8e3e 9820 4c3e 2154 7f3e
000000a0: 1cd5 383f 5748 f53e 4633 3a3e e62a ff3e
000000b0: 10c5 923e 4e12 cf3d 6497 30be d909 a1be
000000c0: b1fc a33d 680a e8be 2448 14bf 4a66 603d
000000d0: c1ac 8dbe 7838 bcbe 8406 33bc 9666 6f3e
000000e0: d5e0 4d3e f439 633e a897 423f 19b1 0b3f
000000f0: 04c2 4c3e 1d05 0b3f ef5e b23e 7f3c 2fbd
00000100: 593c 1abd 5aaa fbbc 641d febd c389 afbe
00000110: d307 a1be 8204 3dbd fc11 86be 4fb1 74be
00000120: b4a3 143c f2ec 063e 2472 483e 3bbc 0e3c
00000130: 3801 76be b4c8 c8bd 62c3 1cbc 94a2 aabe
00000140: 0249 83be 15ba a2bd 1160 4cbe fb8d 8dbe
00000150: 8148 17be 6408 8abd 8ad1 6bbe 62fd 9cbd
00000160: fef0 4d3d 40e7 20bd 964b 243d 839a dcbd
00000170: 3a40 b6bd 33a9 dfba 0024 afbe ba8c 57be
00000180: b8ea 3b3c 9b0e 30be a20d 0bbe e79a f1bd
00000190: 0223 6e3e 358a 233e 1c3c 9c3e bd04 893f
000001a0: d045 363f a721 673e 0478 3a3f 9212 ef3e
000001b0: 3066 68be 318d 73be c7e8 a7bd bcbb cabe
000001c0: 98c5 9dbe 20d4 d1bc 7fdc 34be 73cb 87bc
000001d0: 9d9a f13d 7883 153f 8132 ea3e 5ff4 30bd
000001e0: 620c d43e c2a5 073d 55d4 bfbe f0fa 65bc
000001f0: 276f bebe bc88 b9be 4c5a 5f3d 46fe 38be
00000200: 4350 63be d7ff 243e bb0b 1ebe 0f85 86be
00000210: ac6c 363d f9d6 1fbe ee27 34be acd3 26be
00000220: 7c93 79be 4d1b 2abe d925 99be 4756 ddbe
00000230: 97f2 98be ec7d 4cbe 0160 8cbe 76bf 38be
-0.56080234 -0.43126422 0.003798906 -0.70963204 -0.4251593 0.119559884 -0.35141432 -0.051705163
0.20721467 -0.045309596 0.26492018 0.31443584 0.2839309 0.97552466 0.78759736 0.2655459
0.72578156 0.50978076 0.7744785 0.75581187 0.15947726 0.65860677 0.41240448 -0.19549634
0.052717216 -0.26365864 -0.3165724 -0.34712225 -0.57620686 -0.33041975 -0.56115866 -0.7848994
-0.3145482 -0.35373318 -0.34827638 -0.009244902 0.041937035 0.27745685 0.19934309 0.24934436
0.7220018 0.47906753 0.18183622 0.49837416 0.28665972 0.10110913 -0.17245251 -0.31452826
0.080071814 -0.4532044 -0.5792258 0.05478505 -0.27670863 -0.36761832 -0.010926846 0.23378977
0.20105298 0.22190076 0.7601266 0.54567105 0.19995886 0.5430468 0.34838054 -0.042782303
-0.03765521 -0.030720878 -0.124079496 -0.3428479 -0.31451282 -0.046146877 -0.26185596 -0.23895763
0.009072233 0.13176325 0.19574791 0.00871187 -0.24023902 -0.09803906 -0.009568067 -0.33327162
-0.25641638 -0.079456486 -0.19958521 -0.27647385 -0.14773752 -0.06739882 -0.23029152 -0.076655164
0.050278656 -0.039283037 0.040111147 -0.10771658 -0.08898969 -0.0017063975 -0.34207153 -0.21049777
0.0114695355 -0.17193072 -0.1357942 -0.117971234 0.23255542 0.1597069 0.3051461 1.0704571
0.71200275 0.22571431 0.7283938 0.46693856 -0.22695231 -0.23784329 -0.08198696 -0.39596355
-0.30814815 -0.025613844 -0.17662238 -0.016576504 0.11797068 0.5840373 0.45741656 -0.0432018
0.41415697 0.033117063 -0.37466684 -0.014036879 -0.37194178 -0.36237133 0.054529473 -0.18065748
-0.22198586 0.1611322 -0.15434162 -0.2627339 0.04453723 -0.1560935 -0.17593357 -0.16291684
-0.24372667 -0.16611977 -0.29911688 -0.43229887 -0.2987258 -0.1996991 -0.27416995 -0.18041787
